policy_ckpt/BipedalWalker-v3/06-05-25_03:09:03/epoch960_reward310.37.pt (torch, 85659 bytes, 8 tensors)

policy_logstd f4 [4]
0	0xbf88deda	-1.0693009
1	0xbfb90395	-1.4454218
2	0xbfbe2b03	-1.4856876
3	0xbf7fc116	-0.99904

shared.0.weight f4 [128, 24]
0	0x3e34d83b	0.1766061
1	0xbd8b8e60	-0.06814265
2	0x3ef1857e	0.4717216
3	0xbe34b195	-0.17645867
4	0x3df2f2c7	0.11862712
5	0x3ec55e41	0.38548473
6	0x3e38c72a	0.18044725
7	0x3e0b4824	0.13601738
8	0x3d215aac	0.039393112
9	0xbcc55428	-0.02408798
10	0x3e498c9e	0.19682547
11	0x3e34c7e1	0.17654373
12	0xbc0ea902	-0.008707287
13	0x3e4da348	0.20081818
14	0x3e2588b4	0.1616543
15	0x3dd4dc82	0.10393621
16	0x3d092d3d	0.03349041
17	0x3d384ddf	0.04499614
18	0x3e401ccf	0.1876099
19	0x3e3b1c1e	0.18272445
20	0x3d680751	0.056647602
21	0x3e3ad6be	0.1824598
22	0xbb38c3d2	-0.002819289
23	0x3e47f61d	0.19527479
24	0x3d7f0058	0.062256187
25	0xbebc6f66	-0.3680374
26	0x3c5adc92	0.013358252
27	0xbeefc9fa	-0.46833783
28	0xbebaf1d9	-0.3651264
29	0xbe9c20ae	-0.30493683
30	0x3ead9e05	0.33909622
31	0xbdf49e1e	-0.11944221
32	0x3e13b499	0.14424361
33	0x3eafbe47	0.34324858
34	0xbe73c7c4	-0.23806673
35	0x3d4e16f3	0.050314855
36	0x3bd47f52	0.0064849043
37	0xbd1585e8	-0.036504656
38	0x3dad735b	0.08469268
39	0x3df376ba	0.1188788
40	0x3e05dfad	0.13073607
41	0x3e09fd8b	0.13475625
42	0x3bce9f24	0.006305592
43	0x3e4420e2	0.19153169
44	0x3d1c08c4	0.038094297
45	0x3e14912b	0.14508502
46	0x3da1edcf	0.079066865
47	0x3e108581	0.14113428
48	0xbd56625e	-0.052339904
49	0xbe149686	-0.14510545
50	0x3e710ea9	0.23540749
51	0xbf067ad4	-0.5253117
52	0xbde7358c	-0.1128951
53	0x3db2599f	0.087085
54	0x3ea65034	0.32483065
55	0x3e12a169	0.14319386
56	0xbe0665ff	-0.13124846
57	0x3e8f9ecd	0.28050843
58	0x3ded65cc	0.11591682
59	0xbcbde346	-0.023179661
60	0x3dd3a5c2	0.1033435
61	0x3e53a57e	0.20668599
62	0x3ddf5d79	0.109065
63	0xbd5a1078	-0.053238362
64	0xbd4db540	-0.05022168
65	0x3d72cdaf	0.059278186
66	0xbdba7a5a	-0.09105368
67	0x3d12e572	0.035863347
68	0x3e8fc3e5	0.28079143
69	0x3eadc6f8	0.33940864
70	0x3e0f39de	0.13986918
71	0x3d8a2969	0.067461796
72	0xbde40cb9	-0.11135239
73	0x3d9a58eb	0.07536491
74	0x3e3feec4	0.18743426
75	0xbd44fd01	-0.048092846
76	0x3e116e11	0.14202143
77	0xbe1e42ce	-0.15455171
78	0x3e271a68	0.16318667
79	0xbe2a9b91	-0.16660906
80	0x3e0550f4	0.13019162
81	0x3c721cd3	0.01477738
82	0xbe0b2732	-0.1358917
83	0x3de3f6a0	0.11131024
84	0x3e8f03e2	0.2793265
85	0x3dd2034d	0.10254536
86	0xbdfa1d44	-0.12212613
87	0x3d55fa1e	0.052240483
88	0x3db2be40	0.087276936
89	0x3daa6bf8	0.08321375
90	0x3dfb6141	0.12274409
91	0xbdf5564b	-0.1197935
92	0x3e42109a	0.18951645
93	0x3e209229	0.15680756
94	0x3d939432	0.072060004
95	0xbd98b191	-0.07455743
96	0x3efd5673	0.49480018
97	0x3f92d993	1.1472648
98	0xbf2ba60a	-0.6705023
99	0xbea4493a	-0.32087117
100	0xbdc7f28d	-0.0976306
101	0xbd0df7f3	-0.03466029
102	0xbd995a46	-0.074879214
103	0xbd0a1d22	-0.03371919
104	0xbe3c8a8f	-0.18412231
105	0x3e5247c3	0.20535187
106	0x3e2d8e0a	0.16948715
107	0x3d9c7eee	0.076413974
108	0xbd06d447	-0.032917287
109	0x3cf7850f	0.030214814
110	0x3dce5755	0.10075251
111	0xbe25462a	-0.16140047
112	0x3e060cc5	0.13090809
113	0x3e337d02	0.17528155
114	0xbd8159e4	-0.063159734
115	0x3d4d6936	0.050149165
116	0x3db6cd48	0.08925873
117	0xbe356a15	-0.17716248
118	0x3dfc85de	0.12330221
119	0xbdb5a785	-0.088698424
120	0x3e2facfb	0.1715583
121	0xbeaafbc6	-0.33395213
122	0x3d4f3876	0.050590955
123	0xbd7d56b5	-0.06185027
124	0xbcc57e88	-0.024108186
125	0xbdadd591	-0.08488
126	0x3e6d1a69	0.23154606
127	0xbd28d630	-0.04121989
128	0xbd7923de	-0.06082522
129	0x3e9fcefa	0.31212598
130	0x3e24a70f	0.16079353
131	0x3e590fe5	0.2119747
132	0xbe746c35	-0.23869403
133	0x3d445045	0.047928113
134	0x3d05abb7	0.032634463
135	0x3d3eea82	0.046610363
136	0xbd412e2f	-0.047163185
137	0x3e2cb578	0.168661
138	0x3e832260	0.25612164
139	0x3e41cf48	0.18926728
140	0x3eace8ce	0.33771366
141	0x3e986403	0.29763803
142	0x3cb2863f	0.02179253
143	0x3e5d70e0	0.2162509
144	0xbd6f7aab	-0.058466595
145	0xbe88ee73	-0.26744422
146	0x3e13c8f4	0.14432126
147	0xbf485e1a	-0.7826859
148	0x3e069059	0.13141002
149	0xbd9455a5	-0.07242898
150	0xbde140f3	-0.10998716
151	0xbc9bf174	-0.019036032
152	0x3cf1ac20	0.02950102
153	0x3e5f89f4	0.21829969
154	0xbdda8a17	-0.1067087
155	0xbe8a6487	-0.2702982
156	0x3cd923ae	0.026506271
157	0x3d6c207e	0.057648174
158	0x3d1b003e	0.037842028
159	0xbc8e8e8e	-0.01740196
160	0x3ad9b42b	0.001660948
161	0xbe060c42	-0.13090613
162	0x3e4d2667	0.2003418
163	0xbe0a6e09	-0.13518538
164	0x3ca237af	0.019801943
165	0x3e1b2fe5	0.15154989
166	0x3e258fc8	0.1616813
167	0x3eb23283	0.34804162
168	0x3e8eaecb	0.2786773
169	0x3c9920ab	0.018692335
170	0xbe2c4124	-0.16821724
171	0xbf3c23d7	-0.7349219
172	0xbe2f83cd	-0.17140122
173	0xbec419f8	-0.38301063
174	0x3e79ebfe	0.2440643
175	0xbe21a2f2	-0.15784815
176	0x3d6c5dca	0.05770663
177	0x3dc965ef	0.098338954
178	0xbe770c48	-0.24125779
179	0x3bbfd64b	0.005854403
180	0x3e2cc5da	0.1687235
181	0x3e4d10bf	0.2002592
182	0x3d8a0b5d	0.067404486
183	0x3e60d128	0.21954787
184	0x3e352e30	0.176934
185	0x3e74059c	0.23830265
186	0x3d5e82bb	0.054323893
187	0x3ddfe4d1	0.10932315
188	0x3e72e943	0.23721795
189	0xbd3919a2	-0.04519046
190	0xbc47956a	-0.012181619
191	0x3e5fad71	0.21843506
192	0xbe9c65a8	-0.30546308
193	0xbef807c3	-0.48443422
194	0x3e8fc1cc	0.28077543
195	0xbc679133	-0.014133739
196	0x3b5826ab	0.0032982032
197	0x3d19a1ef	0.037507948
198	0x3e3d69fc	0.18497461
199	0x3d8a986c	0.067673534
200	0xbd0ef5e2	-0.03490246
201	0x3d6d0a5a	0.0578712
202	0xbd105018	-0.035232633
203	0xbe213b4f	-0.1574528
204	0xbd868b10	-0.06569493
205	0x3e0beb7c	0.13664049
206	0x3e04e8f6	0.12979493
207	0xbcfa2cb4	-0.030538894
208	0xbd4f51be	-0.050615065
209	0x3e061e25	0.13097437
210	0xb9180f7c	-0.00014501618
211	0x3e0faf6a	0.14031759
212	0x39b39957	0.00034255788
213	0x3e66dfc5	0.22546299
214	0xbd3dce42	-0.04633928
215	0x3d8701f8	0.065921724
216	0xbf48e1d1	-0.7846957
217	0xbfae7b33	-1.3631347
218	0x3eac576d	0.3366045
219	0x3f0db036	0.55347
220	0xbec234d4	-0.3793093
221	0xbdb23ce2	-0.08703019
222	0xbd7450e6	-0.059647463
223	0x3d3a6eb0	0.045515716
224	0x3d54760e	0.0518704
225	0xbb7f8e99	-0.0038994907
226	0xbe01cd1b	-0.12675898
227	0x3de47852	0.11155762
228	0xbcf71712	-0.030162368
229	0xbdb45e2f	-0.088070266
230	0x3e4da2b3	0.20081596
231	0x3d37b1f3	0.04484744
232	0x3e37a514	0.17934066
233	0x3d9176bd	0.07102726
234	0xbe2bba1a	-0.16770211
235	0x3c2c5ea3	0.01052061
236	0xbcdfc911	-0.027317556
237	0x3d66ad74	0.05631776
238	0x3da2533c	0.07926032
239	0xbe499ecf	-0.19689487
240	0xbbda47f6	-0.0066614104
241	0x3efcbd7b	0.49363312
242	0xbd81e7f2	-0.06343068
243	0x3eb61050	0.3555932
244	0xbe2ffd7f	-0.17186545
245	0xbb65ad92	-0.0035046083
246	0xbe3d0296	-0.18458018
247	0xbda32b71	-0.0796727
248	0x3e0d00aa	0.13769785
249	0xbd233b80	-0.039851665
250	0xbe048c97	-0.12944256
251	0x3f2ead25	0.6823295
252	0x3f22ed4e	0.6364335
253	0xbd81d10d	-0.063387014
254	0x3e280692	0.16408756
255	0xbdd8a567	-0.10578423

shared.0.bias f4 [128]
0	0x3d2406da	0.040045597
1	0x3eaa327c	0.33241642
2	0x3dd05ab3	0.101735495
3	0x3e197574	0.14986211
4	0xbe82e679	-0.25566462
5	0xbd3256ce	-0.043539815
6	0x3d91746f	0.07102286
7	0x3ea7cf05	0.3277513
8	0xbc83ace0	-0.016073644
9	0xbe99f07a	-0.30066282
10	0xbde6e86b	-0.11274799
11	0xbe12a898	-0.14322126
12	0xbe215091	-0.1575339
13	0xbe29741e	-0.16548201
14	0xbe8cb92c	-0.27485025
15	0xbcb310e2	-0.021858636
16	0x3e82ba0c	0.25532568
17	0x3c37a9ad	0.011209887
18	0x3e9e84c1	0.30960658
19	0x3d0f9af2	0.035059877
20	0xbd9ba7b9	-0.0760035
21	0xbe39e9a6	-0.18155536
22	0xbc1e9b02	-0.009680511
23	0xbe269357	-0.16267143
24	0x3d8e07a5	0.06935052
25	0x3da4a1a1	0.08038641
26	0x3bcacce8	0.0061889775
27	0xbcfd57af	-0.0309256
28	0xbda132b6	-0.078710005
29	0x3e8ef932	0.27924496
30	0xbc125df9	-0.008933538
31	0xbe2771da	-0.16352025
32	0xbe837e4f	-0.25682303
33	0xbd98f738	-0.07469028
34	0xbe9e7097	-0.30945274
35	0xbd4b9d4f	-0.049710568
36	0xbe7ed21a	-0.24884835
37	0x3ea423bb	0.3205851
38	0x3d550ad2	0.052012272
39	0xbe3d20be	-0.18469521
40	0x3d73fdf5	0.059568364
41	0xbdf42f4f	-0.11923086
42	0xbe963f46	-0.2934515
43	0xbe586d39	-0.21135415
44	0xbe51b6b2	-0.20479849
45	0xbd220383	-0.03955413
46	0x3de6ed51	0.11275733
47	0x3e9ee370	0.31032896
48	0xbe823966	-0.25434417
49	0xbcee2fae	-0.02907547
50	0x3c001b79	0.00781905
51	0x3ea59581	0.32340625
52	0x3c6382b5	0.013886143
53	0x3eb71e62	0.35765368
54	0x3dcfe57c	0.101511925
55	0xbdc8f079	-0.098114915
56	0xbe1ba16f	-0.15198301
57	0xbe6aec44	-0.2294169
58	0x3e8baf64	0.2728225
59	0x3ea4d57b	0.32194123
60	0x3e8e7032	0.27819973
61	0x3e4d7f33	0.20068054
62	0x3e9130fa	0.2835768
63	0xbe0c6679	-0.13710965
64	0xbe36f916	-0.17868456
65	0x3d0caaac	0.034342453
66	0x3e52bde2	0.20580247
67	0xbdf37a0f	-0.11888515
68	0xbe13b482	-0.14424327
69	0xbe9511f1	-0.2911525
70	0x3ea6f87b	0.3261145
71	0x3e4f93c2	0.20271209
72	0x3e708fce	0.23492357
73	0x3d299e5f	0.0414108
74	0xbaf1ee82	-0.0018457922
75	0xbe8eb98c	-0.27875936
76	0xbde460a9	-0.11151249
77	0x3e3da809	0.18521132
78	0x3e99a425	0.30008045
79	0xbe5eb9f2	-0.2175062
80	0xbd248080	-0.04016161
81	0xbd5afea1	-0.05346549
82	0x3ea5168f	0.32243773
83	0xbd8990d9	-0.067170806
84	0x3e11fd0f	0.1425669
85	0xbc569652	-0.013097363
86	0x3e20f7b8	0.15719497
87	0x3bfd445c	0.0077290963
88	0xbe89935a	-0.26870233
89	0xbd37fd71	-0.044919435
90	0xbe3f61ae	-0.18689606
91	0x3e8a54c6	0.27017802
92	0x3cd77462	0.026300613
93	0x3e9ee6bd	0.31035414
94	0xbe956868	-0.29181218
95	0x3e0071c9	0.12543406
96	0xbdd3d884	-0.103440315
97	0xbe673acf	-0.22581027
98	0xbe9a1e79	-0.30101374
99	0x3df69164	0.1203945
100	0x3e75717a	0.23969069
101	0x3e8e80fe	0.27832788
102	0x3ce97e3b	0.028502574
103	0x3d1899a0	0.037255883
104	0x3d4bcb35	0.04975434
105	0x3a9028d4	0.0010998496
106	0xbe6d43eb	-0.2317044
107	0x3ce09a27	0.027417256
108	0xbc89a70b	-0.016803285
109	0xbe5e7c87	-0.21727191
110	0x3e2d0aaa	0.168986
111	0x3c58b41e	0.013226537
112	0x3df1cd93	0.11806788
113	0x3e3c0b4e	0.18363687
114	0xbe5add64	-0.21373516
115	0xbe74e5e7	-0.23915826
116	0xbe116602	-0.14199069
117	0x3b0ab7a0	0.0021166578
118	0x3dd53589	0.10410602
119	0xbde24160	-0.110476255
120	0xbc80cf48	-0.01572384
121	0x3d329e85	0.043608207
122	0x3ea8a8b1	0.329412
123	0xbdd6751b	-0.10471555
124	0xbebdcf8a	-0.37072402
125	0x3d1362d8	0.035982937
126	0xbe7568fe	-0.23965833
127	0x3e64af69	0.22332539

shared.2.weight f4 [128, 128]
0	0x3e0d5a79	0.13804044
1	0x3dfa8e46	0.12234168
2	0x3e3724ba	0.17885104
3	0x3afae81e	0.0019142663
4	0x3d6c4016	0.057678305
5	0x3d89e245	0.067326106
6	0xbc166456	-0.009179195
7	0x3dc29514	0.09501091
8	0x3e23f81a	0.16012612
9	0xbeab0b8a	-0.3340724
10	0xbe0c6501	-0.13710405
11	0x3c9fec2a	0.019521791
12	0x3dd98cc8	0.10622555
13	0x3e6324f0	0.2218206
14	0x3d69e293	0.057100844
15	0x3d6d455d	0.057927478
16	0xbc827d03	-0.01592875
17	0x3d7a7462	0.061146148
18	0x3df5309a	0.11972161
19	0x3ec6d235	0.3883225
20	0x3e65245e	0.22377154
21	0xbbd38e00	-0.0064561367
22	0xbe71ce9d	-0.23613973
23	0x3d0be218	0.034151167
24	0x3e6b9a39	0.2300805
25	0x3e748768	0.23879778
26	0xbe618594	-0.22023612
27	0x3edaa492	0.42703682
28	0x3dcc0bbd	0.099631764
29	0x3de7e1fc	0.113224
30	0x3db3a9b8	0.08772606
31	0xbea3d9ee	-0.32002205
32	0xbe414d7c	-0.18877214
33	0xbf174a19	-0.5909744
34	0x3e8d25b9	0.27567843
35	0x3de99b59	0.11406583
36	0xbed15dd7	-0.40891907
37	0x3d802445	0.06256918
38	0x3e8330c8	0.25623155
39	0xbeb8233d	-0.35964385
40	0x3d9e7fee	0.077392444
41	0x3e54aa12	0.20768002
42	0xbe8ca08a	-0.27466232
43	0x3d524af1	0.051341
44	0x3dde1d52	0.10845436
45	0x3e3e81c2	0.18604186
46	0x3f03c50d	0.5147255
47	0x3e087910	0.13327432
48	0x3e15cfac	0.14630002
49	0x3e89dd0a	0.26926452
50	0xbe284bba	-0.16435137
51	0xbaa457a8	-0.0012538331
52	0xbe7c78ea	-0.246555
53	0x3dbd677c	0.09248254
54	0x3d24cbb0	0.040233314
55	0x3e707c83	0.23484997
56	0x3e1a44c1	0.1506529
57	0xbe0df1ff	-0.13861845
58	0x3da4d5d7	0.08048599
59	0x3d3c41ea	0.045961298
60	0xbdbb22f7	-0.091375284
61	0x3d0374d8	0.032093853
62	0x3ea36a80	0.3191719
63	0x3d9abc37	0.075554304
64	0x3dbdc7da	0.09266634
65	0x3e32db90	0.17466569
66	0x3e58b382	0.21162227
67	0x3d8d680e	0.069046125
68	0x3e439b55	0.19102223
69	0x3ea358de	0.31903738
70	0x3d2a80b4	0.041626647
71	0xbd35d1b8	-0.044389457
72	0x3c4f24be	0.012643037
73	0x3c3ac29b	0.011398937
74	0x3eaee8d6	0.34162015
75	0x3ec4af35	0.38414922
76	0x3dbf74fe	0.09348486
77	0x3ed86033	0.42260894
78	0xbe4a31fb	-0.19745629
79	0x3e039354	0.1284917
80	0x3d2d779b	0.042350393
81	0x3e1d293e	0.15347764
82	0xbd89955a	-0.0671794
83	0x3f06e37f	0.5269088
84	0xbad5372d	-0.0016267054
85	0x3dc82da0	0.09774327
86	0x3f1170f1	0.5681296
87	0xbd8eb5be	-0.06968258
88	0xbc93cb8f	-0.0180414
89	0x3e14d47b	0.1453418
90	0x3cf227e1	0.029560031
91	0xbc5775bd	-0.01315063
92	0x3dfce10b	0.12347611
93	0x3e03f0b1	0.12884785
94	0xbf635d89	-0.888146
95	0x3e81f074	0.25378764
96	0xbe9e2aa0	-0.30891895
97	0x3e7d67be	0.24746606
98	0x3e4a5e58	0.19762552
99	0x3d743ece	0.059630208
100	0x3d973643	0.073833965
101	0x3e50c399	0.20387115
102	0xbea18d8b	-0.315533
103	0x3e80616e	0.25074333
104	0x3e55a940	0.20865345
105	0x3ec3a73e	0.38213533
106	0x3e5323d2	0.20619133
107	0x3e9779cb	0.29585108
108	0xbe311dac	-0.17296475
109	0x3eff420e	0.49855083
110	0x3d51f9d6	0.051263653
111	0xbdd88ff0	-0.10574329
112	0x3e130263	0.14356379
113	0x3c55f185	0.013058071
114	0xbe6a6132	-0.2288864
115	0x3eb13b93	0.34615764
116	0x3dacaaa7	0.08430987
117	0x3d12f02c	0.035873577
118	0x3de8d921	0.11369539
119	0xbebf9ff8	-0.37426734
120	0x3d9cb595	0.076518215
121	0x3b266ce9	0.0025394505
122	0xbd4090b4	-0.047013
123	0x3e18d679	0.14925565
124	0x3edd490d	0.43219796
125	0x3e20c55a	0.15700284
126	0x3da8843b	0.08228346
127	0x3da29e73	0.07940378
128	0x3d317263	0.04332198
129	0x3dcc543f	0.09977006
130	0x3e8325af	0.25614688
131	0xbd0bc3cf	-0.034122285
132	0xbcd23637	-0.025660617
133	0x3d468723	0.04846872
134	0xbd297cab	-0.04137866
135	0x3d736f82	0.059432514
136	0x3e4a5f56	0.1976293
137	0xbeb9b959	-0.36274222
138	0xbbad4517	-0.005287777
139	0xbcb574dc	-0.02215045
140	0x3e3bcd1a	0.18339959
141	0x3ec23920	0.37934208
142	0x3d06f701	0.032950405
143	0x3e09e1ac	0.13464993
144	0xbdeb35ff	-0.11484908
145	0x3e8727c5	0.2639753
146	0x3d39f6ca	0.045401372
147	0x3f01233d	0.50444394
148	0x3e14aacd	0.1451828
149	0x3daef77e	0.08543299
150	0x3d93b52a	0.07212289
151	0x3dd02179	0.101626344
152	0x3eaa49ae	0.33259338
153	0x3e482c2d	0.19548102
154	0x3d87c3b6	0.06629126
155	0x3ec6fccf	0.38864753
156	0x3ea5e4c0	0.32401085
157	0x3dcf9341	0.10135508
158	0xbd0721c3	-0.032991182
159	0xbf05e475	-0.5230172
160	0xbeb304c3	-0.3496457
161	0xbf30a996	-0.6900877
162	0x3e62fa25	0.22165735
163	0x3ee11fe1	0.43969634
164	0xbec45267	-0.38344118
165	0x3c44f0aa	0.012020269
166	0x3e50b9a0	0.2038331
167	0xbeda2f3e	-0.42614168
168	0x3d0f5952	0.034997292
169	0x3ea27dda	0.31736642
170	0xbea0e911	-0.31427816
171	0xbdca4de0	-0.09878135
172	0x3e0394cb	0.12849729
173	0x3e848ada	0.25887185
174	0x3f09392a	0.5360285
175	0x3c5fe2d9	0.013664925
176	0x3d5abb2d	0.05340116
177	0x3ee59fb9	0.4484842
178	0x3e1a8c56	0.15092596
179	0x3cf899ae	0.030346718
180	0xbdd15de6	-0.10222988
181	0xbc9a7598	-0.018854901
182	0x3de908ee	0.11378656
183	0x3e2e8837	0.1704415
184	0x3d85d568	0.06534845
185	0xbe1d92b0	-0.15387988
186	0x3eae775d	0.34075442
187	0x3e20251d	0.15639158
188	0xbcb7c796	-0.022434037
189	0xbdc89239	-0.09793515
190	0x3e794c03	0.24345402
191	0x3d7e045b	0.062015872
192	0x3c3e00b1	0.0115968445
193	0x3d613f58	0.05499205
194	0x3ec5727d	0.3856391
195	0x3ebc287a	0.3674963
196	0x3e80eead	0.25182095
197	0x3ec9e650	0.39433527
198	0x3d6d1db4	0.057889655
199	0x3da522c1	0.080632694
200	0x3e3eac12	0.18620327
201	0x3e22bf0e	0.15893194
202	0x3e29012a	0.1650435
203	0x3ea5be9e	0.32371992
204	0x3d031b32	0.032008357
205	0x3f1896ba	0.5960499
206	0x3e92b17d	0.28651038
207	0x3e26765e	0.16256091
208	0x3d93d2d6	0.07217948
209	0x3e24fd92	0.16112354
210	0xbca2b7c8	-0.019863024
211	0x3ebd90fe	0.37024683
212	0xbd9149a0	-0.07094121
213	0x3d9c840b	0.07642373
214	0x3e9a0f9d	0.30090037
215	0xbd0338c0	-0.032036543
216	0xbde177b1	-0.110091574
217	0x3e52a3e7	0.20570336
218	0x3dc2ef98	0.09518355
219	0x3df03a25	0.1172984
220	0x3da6f8ca	0.081529215
221	0x3ea7a95f	0.32746407
222	0xbf4a3e3b	-0.79001206
223	0x3ead76d4	0.3387972
224	0x3e37f40c	0.1796419
225	0xbdd2f8ef	-0.103013866
226	0x3ef5c45a	0.48001367
227	0x3e3fbbb8	0.18723953
228	0x3dc655f2	0.096843615
229	0x3df343da	0.11878176
230	0xbd146ea4	-0.036238328
231	0xbe04c0a7	-0.12964116
232	0x3ba02707	0.004887465
233	0x3d088c78	0.033337086
234	0x3e1f481f	0.15554856
235	0x3e59b7d5	0.21261533
236	0x3d3e2286	0.046419643
237	0x3f03405a	0.5127007
238	0x3c387edf	0.011260717
239	0xbe422b2f	-0.18961786
240	0x3e638535	0.22218783
241	0x3d977940	0.073961735
242	0xbe0571cd	-0.13031693
243	0x3edf3ac1	0.43599513
244	0x3da9dfbf	0.08294629
245	0xbd05a246	-0.03262546
246	0x3c412f86	0.011791116
247	0xbdf2692e	-0.11836468
248	0x3e6a72cf	0.22895359
249	0x3e37e98c	0.17960185
250	0x3cfcfcfc	0.030882351
251	0x3e0e5082	0.13897899
252	0x3eb7a1f2	0.35865742
253	0xbcf2f732	-0.029658888
254	0x3d55b113	0.052170824
255	0x3e3389b4	0.17532998

shared.2.bias f4 [128]
0	0xbb6d1d0d	-0.0036180646
1	0xbcd6b11c	-0.0262075
2	0x3d803d49	0.06261689
3	0xbdc4de83	-0.09612753
4	0x3d221a7e	0.039576046
5	0x3e133b31	0.14378048
6	0x3e09d3e6	0.13459739
7	0x3dac4563	0.08411672
8	0xbd96e49e	-0.07367824
9	0xbcff90e8	-0.031197026
10	0x3df5a9f8	0.119953096
11	0x3b26be89	0.0025443158
12	0x3cc513ef	0.024057357
13	0x3dc771c5	0.09738497
14	0xbd0a343c	-0.03374122
15	0xbd8288b2	-0.06373729
16	0x3d5c3fef	0.05377191
17	0xbc2b03f7	-0.010437957
18	0x3ae599fd	0.0017517206
19	0x3cdbe6d2	0.026843462
20	0x3d0b2ff8	0.033981293
21	0x3d9b3c65	0.07579879
22	0x3e1aaaa3	0.15104155
23	0x3dce7535	0.10080949
24	0x3d2ea183	0.0426345
25	0xbb848310	-0.004043944
26	0x3e192768	0.14956439
27	0x3d99212e	0.07477032
28	0x3d5034b8	0.050831527
29	0xbc3a8148	-0.011383362
30	0x3d85bd65	0.06530265
31	0x3e3234d8	0.17402971
32	0xbc91fbdd	-0.017820293
33	0xbd91e1a4	-0.07123116
34	0x3b264f4f	0.0025376861
35	0x3de78979	0.11305518
36	0x3d8f81fe	0.07007216
37	0xbda55803	-0.080734275
38	0x3d6b43ce	0.05743771
39	0x3e0b7fb8	0.1362294
40	0xbc96ba70	-0.018399447
41	0xbd6f1c98	-0.05837688
42	0x3e3e1300	0.18561935
43	0xbc95d08c	-0.01828792
44	0x3e222701	0.15835191
45	0xbcbedb3e	-0.023297902
46	0x3d8287e6	0.06373577
47	0x3c88a9e1	0.016682567
48	0x3dec083e	0.115250096
49	0xbcf57ff7	-0.029968245
50	0x3da6c254	0.08142534
51	0x3d42a739	0.047522757
52	0x3d97e40e	0.07416545
53	0x3c6ee94e	0.014581991
54	0x3e25d972	0.1619623
55	0xbddf5f88	-0.10906893
56	0x3d99d43d	0.07511184
57	0x3dad6eab	0.08468374
58	0xb9ec2abd	-0.0004504527
59	0xbc442269	-0.011971095
60	0xbde41616	-0.11137025
61	0x3c31efe7	0.01086042
62	0xbca90708	-0.020633236
63	0x3db0779f	0.08616566
64	0xbd8aac64	-0.06771162
65	0xbd895c75	-0.06707088
66	0x3e0a53b6	0.13508496
67	0x3d6bcca6	0.057568215
68	0x3ce55c15	0.02799801
69	0xbd2bc0fc	-0.04193209
70	0x3d8ac9ad	0.06776748
71	0xbd1e1c4a	-0.038601197
72	0x3989930b	0.00026240232
73	0xbda2d608	-0.079509795
74	0xbea398b6	-0.31952447
75	0x3dce0d0a	0.10061081
76	0xbdb00355	-0.085943855
77	0x3e388f68	0.18023455
78	0x3cefc895	0.02927045
79	0xbdc61569	-0.096720524
80	0x3def8dcb	0.11696967
81	0xbbd898e5	-0.0066100233
82	0xbd17fdad	-0.03710716
83	0x3dd58bf5	0.10427085
84	0xbde40b44	-0.11134961
85	0x3c9190af	0.017769186
86	0x3d4ae008	0.04953006
87	0x3cf7bfe0	0.03024286
88	0xbad1c10d	-0.0016002968
89	0x3dcf1592	0.10111536
90	0x3db471f4	0.08810797
91	0x3cf5194f	0.029919295
92	0x3c68c260	0.014206499
93	0x3d238d02	0.039929397
94	0xbcd0bea9	-0.025481539
95	0xbcce8cb2	-0.025213573
96	0xbd619cc4	-0.055081144
97	0xbcf76887	-0.03020121
98	0xbda52d34	-0.080652624
99	0xbd89b31c	-0.067236155
100	0xbda9de5f	-0.08294367
101	0x3d280411	0.041019503
102	0xbd546013	-0.051849436
103	0x3d7c4a95	0.061594564
104	0x3d6fd1fb	0.058549862
105	0x3dd4a6a0	0.10383344
106	0xbcbce440	-0.023058057
107	0x3d59df63	0.053191554
108	0x3dc34d9f	0.095362894
109	0x3e15dcab	0.1463496
110	0x3e8f5b6f	0.27999446
111	0xbd164244	-0.03668429
112	0x3d8a9b56	0.06767909
113	0xbca4201a	-0.020034838
114	0xbb18a255	-0.0023290117
115	0x3e108cd1	0.14116217
116	0x3c777032	0.015102433
117	0x3d7fb847	0.0624316
118	0x3dc5e241	0.09662295
119	0xbdb16388	-0.08661562
120	0x3e553139	0.20819558
121	0x3d2ff40e	0.042957358
122	0xbc98c85d	-0.018650228
123	0x3e43f71e	0.19137236
124	0xbe6a3eb0	-0.22875476
125	0x3d649c7c	0.055813298
126	0xbd822fb5	-0.06356756
127	0x3d34b993	0.04412229

policy_mean.weight f4 [4, 128]
0	0x3d3e1419	0.046405885
1	0xbe09917a	-0.13434401
2	0x3d1980b3	0.037476253
3	0xbd227da0	-0.039670587
4	0xbd128578	-0.035771817
5	0xbda9cfdf	-0.082916014
6	0xbdd3a3a1	-0.10333944
7	0xbdf9ccf2	-0.12197293
8	0x3be70ccf	0.0070510875
9	0xbde4952e	-0.11161266
10	0x3e2afeca	0.16698757
11	0xbd7ab45d	-0.061207164
12	0xbcbc1aea	-0.022962052
13	0x3e24dcc5	0.16099842
14	0x3d9eb798	0.077498615
15	0x3d2771e0	0.040880084
16	0xbddde09b	-0.10833856
17	0x3d956f56	0.07296626
18	0x3d64a04f	0.055816945
19	0xbd098918	-0.03357801
20	0xbd468a46	-0.04847171
21	0xbd893bcc	-0.067008585
22	0xbe0969e2	-0.13419297
23	0xbb8f8fb5	-0.004381145
24	0xbcb0acbc	-0.021566741
25	0x3d85af71	0.065276034
26	0xbd80ff22	-0.06298663
27	0x3dc0c77c	0.094130486
28	0x3d25fa3a	0.040521838
29	0xbdda8c65	-0.106713094
30	0x3d3700cc	0.044678494
31	0xbccb298d	-0.024800086
32	0x3c1fbe66	0.009749984
33	0xbcd24bdb	-0.025670936
34	0xbdd25a98	-0.10271186
35	0x3c51fadc	0.012816157
36	0x3c012151	0.007881478
37	0xbdb99638	-0.09061855
38	0xbd1bc469	-0.03802911
39	0x3d2c2605	0.042028446
40	0x3de907db	0.113784514
41	0x3dd412a8	0.10355121
42	0xbd6917b9	-0.05690739
43	0x3dca59d2	0.09880413
44	0xbcfb2ebb	-0.030661931
45	0xbcf0cd10	-0.029394656
46	0x3d2a6a9d	0.04160558
47	0xbd1bf060	-0.038071036
48	0xbbc67591	-0.0060564955
49	0xbd6f8415	-0.058475573
50	0xbd3389cb	-0.04383258
51	0x3ebf378d	0.3734707
52	0xbdb7f99f	-0.08983158
53	0x3e194bf1	0.14970376
54	0x3c7cad68	0.015422203
55	0xbd7490ef	-0.059708532
56	0x3c87570a	0.016520996
57	0x3c73cfae	0.014881058
58	0xbced5716	-0.02897219
59	0x3d298a03	0.041391384
60	0xbd2b8e44	-0.041883722
61	0xbc1321b2	-0.008980202
62	0x3d4e7c7e	0.050411694
63	0x3d3ee5b9	0.0466058
64	0xbe240565	-0.16017683
65	0xba57990c	-0.0008224405
66	0xbe287b5a	-0.16453305
67	0x3ddbad1d	0.10726378
68	0xbd1a8956	-0.03772863
69	0xbcdf2c13	-0.027242696
70	0x3d20a7a7	0.039222386
71	0xbabe1dbe	-0.0014504713
72	0xbd1f8775	-0.03894754
73	0x3dc6f2a6	0.0971425
74	0x3bd7ca50	0.006585397
75	0x3b69f3f4	0.0035698386
76	0xbeef4a46	-0.46736354
77	0x3d5928c0	0.053017378
78	0xbd3884f6	-0.045048676
79	0xbd5eb606	-0.05437281
80	0x3dec58a7	0.115403466
81	0xbd85cbd2	-0.06533016
82	0x3d89c717	0.067274265
83	0x3d6829da	0.056680538
84	0x3c2fa929	0.010721483
85	0x3da2a09a	0.079407886
86	0x3d868628	0.06568557
87	0xbd2f2dcc	-0.042768285
88	0x3d0605d7	0.032720413
89	0x3d2485f8	0.040166825
90	0xbcb6a6de	-0.022296365
91	0x3d4d15bf	0.050069567
92	0x3cbe28dd	0.023212845
93	0x3df9fe33	0.12206688
94	0x3d749795	0.059714872
95	0xbd8b5737	-0.06803744
96	0x3d8c0832	0.06837501
97	0x3d31c855	0.043403942
98	0xbd45d1e5	-0.048295874
99	0xbd607c12	-0.054805823
100	0x3d7f2505	0.062291164
101	0x3e1e5479	0.15461911
102	0xbcf15301	-0.029458525
103	0xbd022726	-0.031775616
104	0xbde9534c	-0.11392841
105	0x3c294e92	0.010333674
106	0x3da0f3d3	0.07859006
107	0x3d0abde4	0.0338725
108	0xbaaac795	-0.0013029451
109	0x3b95371d	0.004553689
110	0x3da4f1d8	0.080539405
111	0x3d1392b8	0.036028594
112	0x3b1fb2be	0.0024368013
113	0x3d808c05	0.062767066
114	0xbdc8a9d7	-0.097980194
115	0xbd191177	-0.03737017
116	0xbc2c5ce9	-0.010520198
117	0x3d43905f	0.047745105
118	0x3db883e7	0.090095334
119	0x3d37001b	0.044677835
120	0x3c1a3f2e	0.009414477
121	0x3d23c546	0.039983056
122	0xbdb8bd93	-0.090205334
123	0x3d4bbf0c	0.049742743
124	0xbe052fef	-0.13006566
125	0xbd36d8b5	-0.04464026
126	0x3d82cd00	0.06386757
127	0x3d9b7a68	0.075917065
128	0x3db11bca	0.086478785
129	0xbccba223	-0.024857586
130	0xbd955fe0	-0.07293677
131	0x3d93c825	0.07215909
132	0x3dd474bd	0.103738286
133	0xbd356674	-0.04428716
134	0xbd974e0c	-0.07387933
135	0x3da939f7	0.08263009
136	0x3d175aad	0.03695171
137	0x3dfe681f	0.12422203
138	0x399b744d	0.00029650555
139	0xbcc30136	-0.023804288
140	0x3dc05c02	0.09392549
141	0xbd7bc9b7	-0.061471667
142	0x3da5431c	0.08069441
143	0x3dca02b2	0.09863795
144	0xbdac0ec9	-0.084012575
145	0xbde32614	-0.11091247
146	0x3dcfbfa3	0.10143974
147	0x3dcb8a96	0.099385425
148	0x3c246392	0.010033505
149	0x3c1b1717	0.009465954
150	0x3dbdd666	0.09269409
151	0x3db225a8	0.086985886
152	0xbd4131fe	-0.047166817
153	0xbdc33afd	-0.095327355
154	0x3be25d81	0.006908119
155	0xbccb43ad	-0.024812544
156	0x3e0561ee	0.13025638
157	0x3c629cdb	0.013831343
158	0xbd3a2b3d	-0.04545139
159	0xbe284d6c	-0.16435784
160	0xbde9de5e	-0.11419366
161	0xbc869cf3	-0.016432261
162	0xbd827a64	-0.063710004
163	0x3b40c98a	0.0029417002
164	0xbdd49c4a	-0.10381372
165	0x3d9e3bfe	0.07726286
166	0xbdc51dd1	-0.09624828
167	0xbd8b09f4	-0.06789008
168	0x3a2706f6	0.00063715817
169	0x3d8699d0	0.06572306
170	0xbdd3df5d	-0.103453375
171	0x3dc18c8a	0.09450634
172	0xbe08ea4f	-0.13370632
173	0x3dc992a6	0.09842424
174	0x3df747f5	0.120742716
175	0xbce7de35	-0.028304199
176	0xbe0b627a	-0.13611785
177	0x3d3b94ee	0.045796327
178	0xbd52d30b	-0.051470798
179	0x3e66b4a6	0.2252985
180	0xbdbd56f9	-0.09245104
181	0xbc830db4	-0.015997745
182	0xbc835096	-0.016029637
183	0xbd920acf	-0.07130968
184	0x3d9e43cd	0.07727776
185	0x3db494cb	0.088174425
186	0x3cf4562a	0.029826242
187	0xbb7944c5	-0.0038035375
188	0x3c0bfa12	0.008543508
189	0xbb98fefc	-0.0046690684
190	0xbc6f850e	-0.014619125
191	0x3c83dc1a	0.016096164
192	0x3d3691e8	0.04457274
193	0x3dad86f2	0.084730044
194	0xbd365cad	-0.044521976
195	0x3da3ce41	0.07998324
196	0xbd25560b	-0.04036526
197	0x3d168cef	0.0367555
198	0xbd60c691	-0.054876868
199	0x3d149d44	0.036282793
200	0x3da20409	0.07910926
201	0x3d357167	0.044297602
202	0x3e9116f4	0.28337824
203	0x3d6bae5b	0.057539325
204	0xbe5115f2	-0.20418528
205	0xbc8b8658	-0.017031834
206	0xbd04f1ba	-0.03245709
207	0x3d2cb7de	0.042167537
208	0xbc106082	-0.008812072
209	0x3dc751c9	0.09732396
210	0xbda8da37	-0.08244746
211	0x3dba7a07	0.09105306
212	0xbd3b07ab	-0.04566161
213	0x3d71cd98	0.05903396
214	0xbc42227e	-0.011849044
215	0x3bb15a63	0.0054123863
216	0xbe03a814	-0.12857085
217	0xbd714a2f	-0.058908638
218	0x3e112bfd	0.14176936
219	0xbc371e95	-0.011176725
220	0x3d11067d	0.03540658
221	0xbd98075c	-0.07423279
222	0x3da36df0	0.07979953
223	0xbc0f33be	-0.008740364
224	0xbd1cda63	-0.038294207
225	0x3c1a0b52	0.009402113
226	0xbd832436	-0.06403391
227	0xbcdcbe0a	-0.026946086
228	0x38e4405a	0.000108838736
229	0x3d70785d	0.058708537
230	0xbd37c0fd	-0.044861782
231	0x3d916d5b	0.07100936
232	0x3de91627	0.11381178
233	0xbd8bcf1a	-0.06826611
234	0x3d6ef172	0.05833573
235	0xbdb1aa35	-0.086750425
236	0xbe1a9307	-0.15095149
237	0xbde1af78	-0.11019796
238	0x3c6bf89f	0.014402538
239	0x3d90676b	0.070509754
240	0x3ddd2052	0.1079718
241	0xbd866d96	-0.065638706
242	0x3de54944	0.11195615
243	0xbdf25a23	-0.118335985
244	0x3d142119	0.036164377
245	0x39d69f26	0.00040935836
246	0xbd722dda	-0.05912576
247	0x3da93578	0.082621515
248	0xbd1e9aa7	-0.038721707
249	0xbde715e5	-0.11283473
250	0x3d9b44bf	0.07581472
251	0xbdb45849	-0.088059016
252	0x3d7b2167	0.06131115
253	0x3de5411a	0.11194058
254	0xbb17fe6e	-0.0023192423
255	0x3d2897ca	0.041160382

policy_mean.bias f4 [4]
0	0x3dd13456	0.102150604
1	0x3d30eefe	0.04319667
2	0x3d4f471f	0.050604936
3	0x3ddc24ab	0.10749181

value_head.weight f4 [1, 128]
0	0xbea1e782	-0.3162194
1	0xbebd1166	-0.36927336
2	0xbeb60303	-0.35549173
3	0xbe979f90	-0.29613924
4	0xbe9b5170	-0.3033557
5	0x3fab1e10	1.3368549
6	0xbe9e2e58	-0.30894732
7	0x3f9903f2	1.1954329
8	0x3fabd438	1.3424139
9	0xbe866b58	-0.26253772
10	0x3fae5ecd	1.3622681
11	0xbe8f9487	-0.28043005
12	0xbea750c0	-0.32678795
13	0x3fa9a172	1.3252394
14	0x3c8235c7	0.015894784
15	0xbec58195	-0.38575426
16	0xbea09702	-0.3136521
17	0xbe9fd2f9	-0.31215647
18	0x3fb5454d	1.4161774
19	0xbec9ef60	-0.3944044
20	0xbeb980bc	-0.3623103
21	0xbea3162c	-0.31852853
22	0x3f8e66e4	1.112515
23	0xbeadc10b	-0.33936343
24	0xbea78f44	-0.3272649
25	0xbea21e58	-0.31663775
26	0x3fa32f56	1.2748821
27	0x3fb95976	1.4480426
28	0x3fa53e25	1.290959
29	0xbebb6b31	-0.36605218
30	0x3fa34dd1	1.2758123
31	0x3f88e637	1.0695256
32	0xbea14b55	-0.31502786
33	0xbe894bf9	-0.26815775
34	0xbebea4ea	-0.37235194
35	0x3fa81d06	1.3133857
36	0xbe7c8df3	-0.24663524
37	0xbeb200d0	-0.34766245
38	0xbe9be326	-0.30446738
39	0xbe8c7084	-0.27429593
40	0xbeb12c49	-0.346041
41	0xbe9806b9	-0.2969263
42	0x3f93e8c9	1.1555415
43	0xbeb4e0bd	-0.35327712
44	0x3f9d096f	1.2268504
45	0xbeb4217f	-0.35181805
46	0xbea1c49c	-0.31595314
47	0x3fadacbd	1.356834
48	0xbea903b4	-0.33010638
49	0xbeaf5ce8	-0.3425057
50	0x3c95834c	0.018251084
51	0xbd25cc21	-0.040477876
52	0xbe6777b7	-0.22604261
53	0xbfa30cac	-1.2738242
54	0xbe7fc9d3	-0.24979334
55	0xbeb54b3a	-0.35408956
56	0xbea02676	-0.31279343
57	0x3fb1b400	1.3883057
58	0xbe861f1d	-0.26195613
59	0xbec5c479	-0.3862646
60	0xbea24740	-0.31694984
61	0xbe8e5c5f	-0.2780485
62	0xbec435b5	-0.38322225
63	0xbe9642dd	-0.29347888
64	0xbeb08419	-0.34475783
65	0xbeb3da79	-0.3512762
66	0x3f94c74e	1.1623323
67	0x3fa5513b	1.2915415
68	0x3fbb2d3e	1.4623182
69	0xbe637d96	-0.22215876
70	0x3d739f40	0.059478045
71	0xbea34429	-0.3188794
72	0xbbaa8dcf	-0.005204893
73	0xbe9c793c	-0.30561244
74	0x3fa2d95f	1.2722586
75	0x3fb2fa8c	1.3982711
76	0x3d42daa3	0.04757179
77	0x3f69b1c6	0.91286886
78	0x3fb3c160	1.4043388
79	0xbe91d625	-0.28483692
80	0x3fae8848	1.363534
81	0xbea76697	-0.32695457
82	0xbecab294	-0.3958937
83	0xbe5cab52	-0.21549729
84	0xbe89bd5f	-0.2690229
85	0xbea2c2b8	-0.31789184
86	0xbe8a256b	-0.26981673
87	0x3fb560d3	1.4170173
88	0xbe7e37ea	-0.24826017
89	0xbeb8a59d	-0.36063853
90	0x3f90ef1a	1.1322968
91	0x3d65221b	0.05594073
92	0x3fa8561b	1.3151277
93	0xbe8e65c5	-0.2781202
94	0x3d9b2a80	0.075764656
95	0x3d53f4bb	0.051747065
96	0x3d6912ab	0.05690257
97	0xbe93fadf	-0.28902337
98	0x3d536724	0.051612034
99	0x3c7b62ce	0.015343381
100	0x3d9799ad	0.07402358
101	0x3f9cbd7f	1.224533
102	0xbe91de90	-0.28490114
103	0x3c93c447	0.018037928
104	0xbe960784	-0.2930261
105	0x3fa5c422	1.295048
106	0xbe978cfa	-0.29599744
107	0xbeaa6223	-0.33277997
108	0x3fac6c60	1.3470573
109	0xbeb33b42	-0.35006148
110	0x3f779e5d	0.9672602
111	0xbea5f69a	-0.32414705
112	0x3fa8606e	1.3154428
113	0x3d251d40	0.040311098
114	0xbe8a9b67	-0.27071688
115	0x3f847728	1.0348864
116	0xbe7579d6	-0.23972258
117	0xbeb6be8f	-0.3569226
118	0xbe8b042c	-0.2715162
119	0xbed4f4e6	-0.41593093
120	0x3faabc49	1.333871
121	0xbe96cf1c	-0.29454887
122	0xbea11893	-0.3146406
123	0x3f9457b2	1.1589262
124	0x3f912ad5	1.1341196
125	0xbe837d77	-0.2568166
126	0x3caa0211	0.020752938
127	0xbe8781d7	-0.26466247
