policy_ckpt/BipedalWalker-v3/06-05-25_03:09:03/epoch990_reward310.22.pt (torch, 85659 bytes, 8 tensors)

policy_logstd f4 [4]
000000 a6 50 8a bf 3a 52 b8 bf 42 88 b7 bf bb 8a 73 bf
       -1.0805862 -1.4400094 -1.4338458 -0.9513356

shared.0.weight f4 [128, 24]
000000 9f 8d 3b 3e c2 df c3 bd 83 a7 ef 3e 7a 41 30 be
       0.18315743 -0.09564163 0.4680749 -0.17212477
000010 3c 03 ec 3d b6 63 c1 3e 88 35 37 3e 0d 72 f8 3d
       0.115240544 0.37771386 0.17891514 0.121311285
000020 3b a3 08 3d 14 ae 1e bd 0e 5c 55 3e ba 7f 3d 3e
       0.033358794 -0.038740233 0.20835897 0.18505755
000030 60 c4 9c bc 70 6d 4c 3e 32 0c 20 3e d2 db c8 3d
       -0.019136608 0.19963622 0.15629652 0.098075524
000040 b4 75 e1 3c 8c 28 22 3d f0 4b 3b 3e 78 cb 37 3e
       0.027521946 0.03958945 0.18290687 0.17948711
000050 7f b4 58 3d b8 5d 38 3e 3b 7d 3b bb 12 f5 45 3e
       0.05290651 0.18004501 -0.0028608579 0.19331768
000060 08 53 84 3d dd 03 a5 be c6 13 0d 3c 83 31 f8 be
       0.064611495 -0.3222951 0.008610671 -0.48475274
000070 aa 35 ba be 42 c4 97 be 42 d1 aa 3e 4e c8 ff bd
       -0.36369067 -0.2964192 0.33362776 -0.12489377
000080 4d 28 16 3e 9e b5 ba 3e 44 ab 74 be d0 0d 52 3d
       0.14663811 0.36466688 -0.23893458 0.051282704
000090 1d c1 84 bc 7a 04 04 bd 06 14 a7 3d f1 9b ed 3d
       -0.016205365 -0.03223083 0.08158116 0.11602009
0000a0 4e 1f 03 3e 72 51 07 3e 36 ca 6b 3b 84 2c 41 3e
       0.1280491 0.13214663 0.0035978681 0.18864638
0000b0 4a 66 0f 3d 99 99 10 3e 21 62 a1 3d a8 3c 0f 3e
       0.03500966 0.14121093 0.07880045 0.13987982
0000c0 32 d9 82 bc 74 7f 30 be 1d ac 6c 3e e3 5c 06 bf
       -0.015972707 -0.1723612 0.23112531 -0.52485484
0000d0 1a 79 f1 bd 04 42 fa 3d 26 29 9e 3e 66 8a e8 3d
       -0.117906764 0.12219623 0.3089077 0.113545224
0000e0 c9 5a 23 be 4b 41 8d 3e 06 ac 02 3e 13 aa ca bc
       -0.159526 0.27588877 0.12760934 -0.0247393
0000f0 8f d9 dc 3d 24 ec 4f 3e 3c 2c d4 3d 10 91 71 bd
       0.107836835 0.20304924 0.103599995 -0.058976233
000100 a9 89 67 bd 7e 39 54 3d 41 19 cc bd 45 2c d7 3c
       -0.056527767 0.05181264 -0.09965754 0.026266227
000110 f1 59 8b 3e 67 19 aa 3e ab 51 05 3e e2 56 79 3d
       0.27217057 0.33222505 0.13019435 0.060873874
000120 32 27 f1 bd d5 bf c8 3c 34 c6 3d 3e b1 9a 59 bc
       -0.11775054 0.024505535 0.1853264 -0.01328151
000130 81 0d 11 3e 8d 00 03 be 68 c1 26 3e 90 19 1a be
       0.14165308 -0.12793179 0.16284716 -0.15048814
000140 a2 9a 03 3e a9 6c 8f 3c 7b 45 0e be 31 80 e5 3d
       0.12851956 0.017507868 -0.13893692 0.11206091
000150 ee dd 8c 3e b4 f5 c3 3d a0 74 f9 bd f9 6c 55 3d
       0.2751307 0.095683485 -0.121804476 0.052105878
000160 bb c0 b1 3d 48 c6 a8 3d d3 50 f9 3d 23 55 f7 bd
       0.086793385 0.08240944 0.12173619 -0.120767854
000170 8e 51 41 3e 0e 46 21 3e 76 6f 96 3d 17 9d 98 bd
       0.18878767 0.1574938 0.07345478 -0.074518375
000180 f7 2d 00 3f 5d 91 9a 3f e9 2c 34 bf 47 2f 90 be
       0.50070137 1.2075611 -0.7038103 -0.2816107
000190 2c 7a ac bd 43 d7 81 bd be 36 ab bd 2e 46 ef bc
       -0.0842174 -0.06339886 -0.083600506 -0.029208269
0001a0 8f 8a 3c be 0c 64 59 3e 96 53 2d 3e 22 9a 01 3d
       -0.18412231 0.21229571 0.16926417 0.031641133
0001b0 ca f5 2c bc 05 53 2c 3c fb 7b dd 3d 27 ad 1d be
       -0.010556648 0.01051784 0.10814663 -0.15398084
0001c0 2e a7 0d 3e 2d 1e 3b 3e 5b 10 64 bd 70 86 6c 3d
       0.13833305 0.1827323 -0.05567966 0.057745397
0001d0 51 8b c6 3d d5 94 2d be 1f c9 04 3e a8 89 a9 bd
       0.09694541 -0.16951306 0.12967347 -0.08278209
0001e0 d8 ce 36 3e 85 ef bf be 6a 32 50 3d e0 89 b3 bd
       0.17852342 -0.37487426 0.05082933 -0.08766532
0001f0 cc fb e2 bc c4 d9 8f bd 0a f3 6a 3e 6b a9 54 bd
       -0.027707957 -0.07023957 0.22944275 -0.051919382
000200 76 18 80 bd e3 85 a1 3e 94 9d 22 3e 7f b7 5a 3e
       -0.062546656 0.3154746 0.15880424 0.2135906
000210 5f e8 7a be 5a fe 2d 3d e1 70 fa 3c 78 de 35 3d
       -0.24502705 0.042478897 0.030571403 0.044401616
000220 51 d7 4b bd 2d 80 29 3e b2 4b 81 3e de 0a 3e 3e
       -0.04976589 0.16552801 0.25253063 0.18558833
000230 a8 9b ab 3e 1b 24 97 3e 4e c4 a2 3c 89 cf 5b 3e
       0.33517194 0.29519734 0.019868996 0.21465887
000240 b6 d0 41 bd 6f 4f 7d be 25 43 0f 3e 16 a7 4a bf
       -0.047318183 -0.24737333 0.13990457 -0.791612
000250 88 a2 07 3e ae 68 9f bd 65 19 e5 bd f0 49 04 bd
       0.13245595 -0.07783638 -0.11186484 -0.032297075
000260 64 bf 4a 3c 4f a8 5f 3e 75 9d cf bd 4a 93 8b be
       0.012374733 0.21841548 -0.101374544 -0.2726081
000270 47 b1 02 3d fb ae 83 3d ca e8 09 3d 53 9b ae bc
       0.031907346 0.06429859 0.03366927 -0.021314299
000280 01 61 d7 ba 4c 39 08 be 2f 03 4c 3e cc 92 0a be
       -0.0016432108 -0.13303107 0.1992309 -0.13532561
000290 04 26 94 3c 95 85 18 3e f3 e5 24 3e d4 ab b1 3e
       0.018084534 0.14894708 0.16103344 0.34701407
0002a0 df 9d 8b 3e da ff ae 3d f1 29 32 be 17 47 3f bf
       0.27268884 0.085448936 -0.17398812 -0.7471785
0002b0 6b e2 2d be b3 75 b8 be 64 82 70 3e 18 03 31 be
       -0.16980903 -0.36027297 0.2348724 -0.17286336
0002c0 ad 97 4b 3d 23 95 02 3e 8e 20 7c be e5 7c e2 3b
       0.049705196 0.12752204 -0.24621794 0.0069118612
0002d0 8d 2a 1e 3e 0d d8 52 3e 88 24 7c 3d 3f 52 5b 3e
       0.1544592 0.2059023 0.061558276 0.21418093
0002e0 90 35 30 3e 9a 70 6f 3e 1d 72 4c 3d cc d2 d5 3d
       0.17207932 0.23382798 0.049913514 0.10440597
0002f0 8c 1e 6d 3e 6f 13 53 bd 0f 21 7a bc 7b 3b 5b 3e
       0.23156184 -0.051532205 -0.015266671 0.21409409
000300 14 b6 9a be 7c c3 f6 be 2f 82 92 3e 6f 69 b6 bc
       -0.3021704 -0.48196018 0.28614947 -0.022267072
000310 84 1a 2b 3a 32 b9 46 3d 2a 0d 3a 3e 04 97 71 3d
       0.00065270835 0.04851646 0.18169084 0.05898191
000320 ed 50 2a bd 5c 76 72 3d a9 09 03 bd d4 9f 25 be
       -0.041581083 0.059194908 -0.031991635 -0.16174251
000330 f4 51 7e bd 66 95 0b 3e 7d 3e 06 3e b9 84 ec bc
       -0.062089875 0.1363121 0.13109775 -0.02887188
000340 8d 56 49 bd e7 7c 06 3e 78 f6 72 ba 62 30 0d 3e
       -0.049154807 0.13133584 -0.0009268294 0.13787988
000350 85 27 2d ba 25 66 65 3e 66 99 54 bd 9c b2 81 3d
       -0.0006605315 0.22402246 -0.051904105 0.06332895
000360 f1 62 4c bf af c0 b6 bf 99 88 c2 3e f7 69 17 3f
       -0.7983847 -1.4277552 0.3799484 0.59146065
000370 0b 7b b8 be cb 1d 07 be 4a 31 8c bd 52 7c 28 3d
       -0.36031374 -0.13194959 -0.06845339 0.041134186
000380 7e 9d bc 3d 8b 6e 20 bd 39 4b 06 be 8d 1d 9f 3d
       0.09209727 -0.039167922 -0.13114633 0.07769308
000390 13 c2 24 bd 3f dd db bd f5 a5 71 3e dd 7b a3 3d
       -0.040224146 -0.10735559 0.23598464 0.079826094
0003a0 da 0c 5b 3e 23 0b d8 3d 42 57 08 be 8d 34 3a 3d
       0.21391621 0.10548999 -0.13314536 0.045460273
0003b0 43 a0 01 3c 2e 54 b7 3d 3d bb ec 3d 2f 48 22 be
       0.0079117445 0.08951603 0.1155915 -0.15847848
0003c0 9e 84 06 bd 1e 26 db 3e 3e e6 7f bd f5 49 ba 3e
       -0.032841317 0.4280252 -0.062475435 0.3638455
0003d0 c0 65 2c be 66 a6 17 3c de 1b 54 be 6f 30 c9 bd
       -0.1683569 0.009255981 -0.20713755 -0.09823691
0003e0 cd 45 07 3e 64 c8 21 bd 0f 4d 0f be 71 fe 3f 3f
       0.1321022 -0.039497748 -0.1399424 0.7499762
0003f0 eb 01 24 3f bb e8 6f bd b7 d8 2b 3e d3 7b d2 bd
       0.64065427 -0.05857156 0.16781889 -0.10277524

shared.0.bias f4 [128]
000000 95 c7 1b 3d ff 91 a9 3e b4 25 c3 3d 1b 73 19 3e
       0.038032133 0.331192 0.09528676 0.14985316
000010 d9 ae 7f be 6a d4 38 bd 1a 6d 8f 3d df 94 a5 3e
       -0.24969043 -0.04512445 0.07003231 0.32340142
000020 04 d8 98 bc 58 9f 86 be f7 29 e2 bd f3 42 19 be
       -0.018657692 -0.26293445 -0.110431604 -0.14966945
000030 d8 cf 25 be 8d f4 21 be ab 81 8a be f4 50 82 bc
       -0.16192567 -0.15815945 -0.27052054 -0.015907742
000040 fe 07 83 3e a9 8b 95 3a d6 f1 9d 3e f2 9a 0f 3d
       0.25592035 0.001140942 0.3084857 0.035059877
000050 85 90 d3 bd 3b 10 47 be ec 86 26 bc 57 93 26 be
       -0.10330299 -0.19439785 -0.010164004 -0.16267143
000060 46 3a ac 3d ed 78 85 3d e9 cc 17 3c 14 71 af bc
       0.08409552 0.065172054 0.009265163 -0.021416225
000070 46 f6 ba bd 33 7a 8d 3e b3 c7 da ba 48 30 29 be
       -0.09129004 0.27632293 -0.0016691595 -0.16522324
000080 53 49 81 be 7c 15 9a bd b3 a7 9b be 07 37 44 bd
       -0.25251254 -0.07523629 -0.30401382 -0.04790404
000090 c0 d8 6d be 00 d2 a2 3e f9 d7 3d 3d b5 31 28 be
       -0.23227215 0.31800842 0.046348546 -0.16425212
0000a0 ae 31 67 3d fc 40 f2 bd be 62 98 be 73 d7 5f be
       0.056443863 -0.11828801 -0.29762834 -0.21859531
0000b0 b2 b6 51 be 66 fd 20 bd e5 88 b8 3d 05 d6 9c 3e
       -0.20479849 -0.03930416 0.090104856 0.30632034
0000c0 34 50 7e be 0b 98 19 bd 3e d3 d9 3b f3 db a5 3e
       -0.24835283 -0.037498515 0.0066474965 0.3239437
0000d0 27 62 43 3c b3 96 b6 3e 67 0b ca 3d c4 db f4 bd
       0.011925257 0.3566185 0.09865456 -0.119559795
0000e0 cd 55 20 be 64 25 61 be 36 f0 89 3e a5 44 a4 3e
       -0.1565773 -0.2198692 0.2694108 0.32083622
0000f0 59 d7 8c 3e b6 9d 4d 3e 02 d4 90 3e 79 66 0c be
       0.27508047 0.20079693 0.2828675 -0.13710965
000100 4e d0 2a be 08 93 f7 3c 77 51 50 3e 34 54 f9 bd
       -0.16681024 0.030221477 0.20343576 -0.121742636
000110 bc f0 f1 bd bf 5e 92 be 19 f2 a6 3e 89 0e 4f 3e
       -0.118134946 -0.2858791 0.3260658 0.20220388
000120 29 29 73 3e 73 0d 24 3d fb 88 4a bc 64 91 8c be
       0.2374617 0.04005189 -0.01236176 -0.27454674
000130 1d 18 01 be e6 ab 39 3e 7f 74 99 3e 72 94 53 be
       -0.12606855 0.1813198 0.29971692 -0.20662096
000140 a5 fd 4c bd 6a 40 67 bd b7 fc a5 3e c8 b3 94 bd
       -0.05004658 -0.056457914 0.3241937 -0.07260853
000150 7a 83 12 3e 0f cc c3 bc 0a 6e 20 3e 28 85 b7 3c
       0.14307967 -0.023901014 0.15666977 0.022402361
000160 d0 61 89 be cd b0 08 bd fe 84 38 be 38 22 8c 3e
       -0.26832438 -0.033371735 -0.18019482 0.27369857
000170 02 84 bb 3c 45 30 99 3e 46 1b 8b be 1d fd f9 3d
       0.022890095 0.2991964 -0.27169245 0.12206481
000180 27 3e d9 bd 6f 82 69 be 4c 7d 95 be 2b 80 d7 3d
       -0.10607558 -0.22803663 -0.29197156 0.10522493
000190 b6 9c 71 3e d2 9b 8a 3e e7 d7 f4 3c de d6 11 3d
       0.23594937 0.27072006 0.029888107 0.035605304
0001a0 c1 d1 45 3d 12 bc 34 bb 9d 67 6f be 97 93 1a 3d
       0.04829574 -0.002757792 -0.23379369 0.03773841
0001b0 e8 2a 28 bc d9 a2 57 be ba b3 2b 3e 01 91 70 3c
       -0.010264136 -0.21058215 0.16767779 0.014683009
0001c0 6a 0f 08 3e 64 14 36 3e 5d 81 5c be c9 21 67 be
       0.1328713 0.17781216 -0.21533723 -0.22571482
0001d0 a9 18 f5 bd fb eb 2a 3b 60 69 d2 3d ab 2a dd bd
       -0.11967594 0.0026080597 0.10274005 -0.10799154
0001e0 a7 72 8f bc 7a 47 51 3d 55 2a a7 3e f1 86 cf bd
       -0.017510725 0.051093556 0.32649484 -0.1013316
0001f0 42 ae b3 be 55 b8 0f 3d 64 5f 70 be b9 5d 62 3e
       -0.35093886 0.035087902 -0.23473889 0.22106065

shared.2.weight f4 [128, 128]
000000 9d 8c 0d 3e fe dd f8 3d 02 32 37 3e 9d a9 03 3b
       0.13823171 0.12151717 0.1789017 0.002009011
000010 65 96 93 3d 78 e7 86 3d 1f f4 1f bc af ce c0 3d
       0.0720642 0.06587118 -0.009762793 0.09414422
000020 83 4f 23 3e f5 96 af be 0a f9 01 be 19 60 d8 3c
       0.159483 -0.3429486 -0.12692657 0.02641301
000030 86 f9 c4 3d a8 81 6e 3e 83 77 41 3d b6 15 85 3d
       0.09617905 0.23291647 0.047233116 0.06498282
000040 88 73 8d bc 62 9d 54 3d 65 94 f4 3d 35 d2 c6 3e
       -0.017267004 0.051907904 0.119423665 0.3883225
000050 89 15 5a 3e bc dd 28 bc 0e 35 6b be 18 e2 0b 3d
       0.21297278 -0.010306772 -0.22969458 0.034151167
000060 97 38 5e 3e 80 bf 6a 3e 49 c6 66 be 88 ff e4 3e
       0.21701275 0.22924614 -0.22536577 0.44726205
000070 e9 e1 0c 3e 8e 7e e4 3d 0e 15 bb 3d 92 f2 a1 be
       0.13758053 0.11156951 0.09134875 -0.3163038
000080 24 d2 1b be 90 25 17 bf 2f bc 86 3e 0c 4f e5 3d
       -0.15216881 -0.5904169 0.26315448 0.111967176
000090 bb f6 d2 be 9f b0 79 3d 04 89 83 3e 05 ea bb be
       -0.41203865 0.060959455 0.25690472 -0.3670198
0000a0 4d 3c a1 3d 49 7c 53 3e fd 98 88 be 9c a9 a4 3d
       0.078728296 0.2065288 -0.2667922 0.08040163
0000b0 52 1d de 3d 96 e6 3b 3e 71 0a 01 3f fa ad 06 3e
       0.10845436 0.1834968 0.5040656 0.13152304
0000c0 7a 07 2b 3e a6 66 77 3e 6b 33 2f be 6c e5 53 bb
       0.16702071 0.24160251 -0.17109458 -0.003233279
0000d0 99 4f 56 be 31 72 bb 3d 2f e5 22 3d d6 da 85 3e
       -0.20928802 0.0915264 0.039769348 0.2614352
0000e0 39 1d 1b 3e 9d 79 0b be 32 1b 9c 3d 06 d8 3a 3d
       0.15147866 -0.1362061 0.076223746 0.045616172
0000f0 c6 af c0 bd 25 ef 00 3d d1 d6 a7 3e 37 bc 9a 3d
       -0.09408526 0.031478066 0.3278108 0.075554304
000100 0b a7 f1 3d 7d 72 32 3e 2c bb 58 3e f1 be 88 3d
       0.11799439 0.17426486 0.2116515 0.06677044
000110 9f c6 2d 3e 00 cc c4 3e 81 60 28 3d ae 66 20 bd
       0.16970299 0.3843689 0.04110766 -0.039160423
000120 8c 32 18 3c 2a 75 a5 3c dd ab ac 3e 0c 52 c4 3e
       0.009289395 0.02019747 0.3372487 0.38343847
000130 35 76 8f 3d bb d0 dd 3e 4d a5 4a be 0b 89 1d 3e
       0.07004968 0.4332331 -0.1978962 0.15384309
000140 6f 14 21 3d 38 39 26 3e 7f 52 8d bd 49 3e 05 3f
       0.039326128 0.16232765 -0.069005005 0.52048165
000150 1c 9c 1e bb 7c 86 a3 3d aa 97 18 3f e9 ec 43 bd
       -0.0024201935 0.07984635 0.5960642 -0.047833357
000160 63 6e dd bb 53 73 1c 3e 59 eb 27 3d 2d 67 8f bc
       -0.006757544 0.15278368 0.04099593 -0.017505253
000170 47 fa fd 3d 57 81 e1 3d 8d ea 5c bf d0 02 7e 3e
       0.12401252 0.11010998 -0.86295396 0.2480576
000180 84 84 a5 be 23 1a 71 3e 62 97 57 3e 8c 13 44 3d
       -0.32327664 0.23545127 0.21053842 0.047870204
000190 0b 51 98 3d dc c3 4f 3e f5 e0 a1 be b4 20 82 3e
       0.07437333 0.20289558 -0.3161694 0.25415576
0001a0 f2 e6 53 3e 67 e3 c3 3e 12 08 50 3e a5 43 9e 3e
       0.20693567 0.38259432 0.20315579 0.30910984
0001b0 66 ae 33 be e7 62 f4 3e 87 c5 4c 3d e9 bb c1 bd
       -0.17546996 0.47731707 0.049993064 -0.09459669
0001c0 44 08 14 3e 53 7c 55 3c cf 82 65 be 36 30 c0 3e
       0.14456278 0.0130301295 -0.22413181 0.37536782
0001d0 f4 b3 db 3d 67 4c 10 3d 4c 75 ed 3d 9c 70 c1 be
       0.10727683 0.035229113 0.11594638 -0.37781227
0001e0 47 51 a5 3d 60 da 17 3a f2 0f 3e bd 91 05 1b 3e
       0.08072143 0.0005792733 -0.046401925 0.15138842
0001f0 04 87 de 3e cb 74 1f 3e 7b 3d a1 3d d4 73 9b 3d
       0.43462384 0.15571897 0.078730546 0.07590452
000200 20 84 30 3d ec 1a bf 3d 23 1e 82 3e 62 4c 17 bd
       0.043094754 0.09331307 0.25413617 -0.03693808
000210 63 84 cf bc d7 ed 41 3d ab 53 37 bd 7e d9 6d 3d
       -0.025331682 0.047345962 -0.044757526 0.058068745
000220 a2 2b 47 3e 53 31 d4 be 69 ff b4 bc 92 5e a0 bc
       0.19450238 -0.4144388 -0.022094445 -0.019576345
000230 dc 96 3a 3e 5c 67 c8 3e 0c 95 8b 3d 44 9d 03 3e
       0.18221611 0.39141357 0.06815538 0.12852961
000240 c2 b0 ec bd 13 ef 86 3e cc 5b 39 3d 3d 23 01 3f
       -0.115571514 0.26354274 0.04525356 0.50444394
000250 32 46 11 3e 11 57 71 3d f5 da 66 3d 79 21 d0 3d
       0.14186934 0.058920924 0.056361157 0.101626344
000260 ea 1b 96 3e 12 ef 3c 3e de 64 5a 3d 23 d2 ba 3e
       0.29318172 0.18450573 0.05331885 0.36488447
000270 24 9a 8d 3e e9 5a cd 3d 00 40 f7 bc 44 bb 05 bf
       0.27656662 0.10027105 -0.030181885 -0.5223887
000280 f3 57 ae be 3e 58 31 bf 12 26 80 3e f0 57 e2 3e
       -0.34051475 -0.6927527 0.25029045 0.44207716
000290 61 db cd be 69 7f 40 3c e4 da 46 3e ef 4d e8 be
       -0.40206435 0.011749127 0.19419438 -0.4537196
0002a0 d6 97 15 3d 58 7a a3 3e bb c4 9e be 37 39 b2 bd
       0.036521755 0.31929278 -0.31009468 -0.08702319
0002b0 cb 94 03 3e a8 d9 84 3e 6a b5 02 3f a4 73 55 3c
       0.12849729 0.2594731 0.51058066 0.013028059
0002c0 d0 44 8a 3d d6 f4 e5 3e da 6a 1e 3e 26 b5 f1 3c
       0.06751406 0.44913357 0.15470448 0.029505324
0002d0 4b af cd bd 84 08 9f bc 59 4b e5 3d be 75 43 3e
       -0.100432 -0.01941324 0.11196012 0.19087884
0002e0 b3 55 7b 3d a0 50 16 be cb e9 ab 3e dd 04 1a 3e
       0.061361026 -0.14679193 0.33576807 0.15040918
0002f0 ff cb a7 bc 32 5c cf bd 83 1d 60 3e 5b 04 7e 3d
       -0.020483015 -0.10125007 0.21886258 0.062015872
000300 78 7a a9 3a 91 9c 62 3d ad 92 c1 3e c7 0d c2 3e
       0.0012930175 0.055325095 0.37807217 0.37901136
000310 ef 59 85 3e 08 78 db 3e e3 e8 65 3d d8 2a ab 3d
       0.26045176 0.42865014 0.0561303 0.08357781
000320 2b ed 37 3e c3 19 27 3e f2 c4 28 3e d7 92 a6 3e
       0.17961566 0.16318421 0.16481379 0.32533905
000330 02 d9 5c 3d 77 f7 14 3f 01 96 8f 3e fd ec 3a 3e
       0.053917892 0.581901 0.2804413 0.18254466
000340 ab 93 67 3d f7 ef 11 3e 6a 9a aa bc ae d6 c0 3e
       0.05653731 0.14251696 -0.020825583 0.37663788
000350 e2 7a 91 bd 6a d9 8f 3d 79 be 78 3e cf 29 55 bd
       -0.07103516 0.0702389 0.2429141 -0.052041825
000360 ba 95 c5 bd 59 4e 59 3e 9c e4 e7 3d 23 79 de 3d
       -0.09647699 0.21221294 0.11322901 0.10862949
000370 85 4a a3 3d a2 8b a3 3e f6 9e 4c bf dc 85 a8 3e
       0.07973198 0.3194247 -0.79930055 0.32914627
000380 86 e0 51 3e 26 54 c6 bd d3 51 f2 3e 72 8c 2a 3e
       0.20495805 -0.09684019 0.47328052 0.16655138
000390 aa 5b bc 3d 1c d3 ed 3d de 27 11 bd a4 5e f0 bd
       0.09197171 0.116125315 -0.03543841 -0.11736801
0003a0 b7 c9 b4 3b 76 df 39 3d da f1 0e 3e 24 04 42 3e
       0.0055172103 0.045379125 0.13959447 0.18946892
0003b0 20 2d cb 3c 1a 56 fb 3e a1 ac 2d 3c ea 53 3e be
       0.02480179 0.49089128 0.01060024 -0.18586698
0003c0 49 26 5e 3e 75 f3 95 3d 43 a4 f1 bd 74 70 ef 3e
       0.21694292 0.07321826 -0.117989086 0.46765482
0003d0 0c e7 e1 3d c9 5a 06 bd fe 51 4d 3c 33 7b ee bd
       0.11030397 -0.032801423 0.0125317555 -0.11644592
0003e0 63 14 5e 3e ed f6 35 3e e9 15 ea 3c a2 1d 06 3e
       0.21687464 0.17769976 0.0285749 0.13097242
0003f0 7a 58 b6 3e 6f bb 04 bd 17 5d 66 3d 79 e6 31 3e
       0.35614377 -0.032405313 0.05624112 0.17373075

shared.2.bias f4 [128]
000000 21 cd d3 bb d0 13 e6 bc 08 56 7a 3d 81 b1 c9 bd
       -0.0064636623 -0.02808562 0.061117202 -0.09848309
000010 03 af 1a 3d 57 57 11 3e 92 f7 08 3e 25 cd a4 3d
       0.03776456 0.14193474 0.1337569 0.08046941
000020 cf 12 97 bd 2c 94 08 bd 08 96 f7 3d eb a9 ad 3a
       -0.07376634 -0.033344433 0.12089163 0.0013249492
000030 48 07 b6 3c 40 10 ce 3d 3c 34 0a bd 68 4b 89 bd
       0.022220269 0.10061693 -0.03374122 -0.06703836
000040 a4 73 5b 3d b9 f1 36 bc ef 1a 5b 3b 2a 6c c5 3c
       0.05357708 -0.01116603 0.0033432802 0.024099428
000050 61 9e 00 3d 73 08 94 3d 75 1c 1a 3e ea b8 c8 3d
       0.031401042 0.07228174 0.15049918 0.098008946
000060 bb ab 26 3d 64 f4 a2 bb d1 d2 18 3e b8 57 9d 3d
       0.04069112 -0.0049729813 0.1492417 0.07682747
000070 db ff 4c 3d eb 33 62 bc df 4b 88 3d 89 4e 33 3e
       0.05004869 -0.0138063235 0.06655096 0.17510428
000080 da 68 98 bc b6 26 93 bd f6 58 ec 3a 46 55 e9 3d
       -0.018604685 -0.07185118 0.0018031884 0.11393218
000090 cd ef 8f 3d 8f ab a9 bd 8d 61 67 3d e6 6f 0a 3e
       0.0702816 -0.08284675 0.056489516 0.13519248
0000a0 bd e3 aa bc c9 7b 78 bd 77 ff 40 3e 64 6c a7 bc
       -0.020860547 -0.060664926 0.18847452 -0.020437427
0000b0 20 76 24 3e cf cc d0 bc 63 c7 7c 3d 58 7b a2 3c
       0.16060686 -0.025488285 0.061713587 0.019834206
0000c0 82 c4 ea 3d c0 72 03 bd 54 c2 a6 3d 68 3c 39 3d
       0.11463262 -0.032091856 0.08142534 0.045223624
0000d0 6f a0 96 3d 16 38 68 3b de f2 24 3e 3b 3c e1 bd
       0.07354819 0.003543382 0.16108271 -0.10997816
0000e0 e1 bb 95 3d 7a dd b3 3d 09 91 de ba d3 ef 63 bc
       0.07311226 0.08782478 -0.001698048 -0.013912159
0000f0 13 9d e6 bd 17 c8 1f 3c 35 b4 b5 bc 4d 94 aa 3d
       -0.11260428 0.009752295 -0.022180656 0.083290674
000100 df 1b 8f bd cb d6 8e bd 18 9b 08 3e b4 f5 69 3d
       -0.06987738 -0.06974562 0.13340414 0.057119086
000110 ce 5d f4 3c a9 81 2f bd ad c9 8a 3d ad 28 2a bd
       0.029829886 -0.042848263 0.06776748 -0.041542698
000120 0b 93 89 39 dd bb a6 bd 9e de a7 be f1 eb d3 3d
       0.00026240232 -0.08141301 -0.3278703 0.103477366
000130 4a 24 ae bd e7 5d 3b 3e bf 57 fe 3c 68 ea ca bd
       -0.08503015 0.1829754 0.0310477 -0.09907991
000140 1c 60 f6 3d 8d f8 0e bc 62 bf 1c bd bf ac d1 3d
       0.1203005 -0.008726251 -0.038268454 0.10238027
000150 d2 d8 e5 bd df ed 7e 3c 87 86 49 3d 34 f8 02 3d
       -0.11222996 0.015559643 0.04920056 0.031974986
000160 ed e6 eb ba de 34 cc 3d 2d 72 a9 3d 4f 19 f5 3c
       -0.0017997898 0.09971021 0.082737304 0.029919295
000170 a9 c7 5e 3c 1f eb 1f 3d a9 be d0 bc b2 8c ce bc
       0.013597407 0.03904259 -0.025481539 -0.025213573
000180 c4 9c 61 bd 58 71 03 bd 34 2d a5 bd 1c b3 89 bd
       -0.055081144 -0.032090515 -0.080652624 -0.067236155
000190 5f de a9 bd 88 c4 2a 3d 31 9d 5a bd 95 4a 7c 3d
       -0.08294367 0.041691333 -0.053372566 0.061594564
0001a0 09 06 69 3d 21 2e cf 3d 8f f0 d3 bc fa b8 54 3d
       0.05689052 0.1011622 -0.025871543 0.05193422
0001b0 4f 6d c8 3d cf e4 14 3e ce a8 90 3e 1d 49 1d bd
       0.09786474 0.14540409 0.28253788 -0.038399804
0001c0 99 57 8c 3d 1a 20 a4 bc c4 57 9a bb 5b 66 14 3e
       0.068526454 -0.020034838 -0.0047101695 0.1449217
0001d0 dc 34 60 3c 53 e0 78 3d dc a9 c5 3d 89 7d b6 bd
       0.013684478 0.060760807 0.09651539 -0.08910663
0001e0 79 32 58 3e e7 1b 2e 3d ed 1d a6 bc 69 d0 44 3e
       0.21113004 0.04250708 -0.020277942 0.19220127
0001f0 92 8e 43 be 01 dc 5b 3d b5 2f 82 bd 35 44 2d 3d
       -0.19097355 0.05367661 -0.06356756 0.042301375

policy_mean.weight f4 [4, 128]
000000 50 ff 42 3d a0 56 07 be e3 f3 21 3d 70 07 21 bd
       0.047606766 -0.13216639 0.03953923 -0.039313734
000010 dc 5d 0d bd d2 65 ae bd 39 1b d1 bd be fa 01 be
       -0.03451334 -0.085155144 -0.102102704 -0.12693307
000020 58 c3 59 3b 15 39 e3 bd b9 88 26 3e c5 b1 78 bd
       0.0033228006 -0.11094872 0.16263093 -0.06071641
000030 0f df c0 bc 21 b6 22 3e 98 b7 9e 3d 3e 36 2c 3d
       -0.023543863 0.15889789 0.077498615 0.042043917
000040 8d 4f db bd ca 82 96 3d be 98 52 3d fc 20 08 bd
       -0.107085325 0.07349165 0.051415198 -0.03323458
000050 7d c5 3f bd 46 68 87 bd 4d 40 0e be 9d 35 41 bb
       -0.0468192 -0.066116855 -0.13891716 -0.002948142
000060 c7 00 a7 bc 21 41 89 3d 9b a0 89 bd af 56 b3 3d
       -0.020386113 0.067018755 -0.06720086 0.08756768
000070 25 13 0b 3d 78 b7 d8 bd 96 ee 22 3d 80 45 c5 bc
       0.033953805 -0.10581869 0.039778315 -0.024080992
000080 c6 ef 3a 3c bd 31 c3 bc 0a 66 cf bd 70 dd f5 3b
       0.0114097055 -0.023827428 -0.10126884 0.007503204
000090 86 94 15 3c f3 e1 b8 bd b4 ee 18 bd c1 7f 30 3d
       0.009129649 -0.090274714 -0.03733702 0.043090586
0000a0 89 6e ec 3d 24 52 d5 3d bc b7 7a bd 78 03 cb 3d
       0.115445204 0.10416058 -0.06121038 0.09912771
0000b0 a1 44 f9 bc 6b 48 f2 bc 6d 97 31 3d dc cc 33 bd
       -0.030428233 -0.029575547 0.0433573 -0.04389654
0000c0 bc 41 9b bb 75 32 6d bd cb 89 33 bd 82 ce c0 3e
       -0.0047380608 -0.057909448 -0.04383258 0.37657553
0000d0 e8 21 b6 bd 04 35 32 3e d7 f6 88 3c 55 04 74 bd
       -0.08893186 0.17403036 0.016719265 -0.059574444
0000e0 9e 7e 90 3c 0e de 1a 3c 81 9e e4 bc 8c ae 29 3d
       0.0176385 0.009452356 -0.027907612 0.041426226
0000f0 c8 61 28 bd da ad c9 bb b6 26 50 3d 51 cd 44 3d
       -0.041108876 -0.006154758 0.050818168 0.048047367
000100 51 34 23 be f9 9f 3f 38 65 96 2c be f4 fb cc 3d
       -0.15937926 4.5686935e-05 -0.16854246 0.10008994
000110 6b 61 34 bd 85 9b d6 bc a7 a7 20 3d 19 4a 93 38
       -0.044038218 -0.026197204 0.039222386 7.023308e-05
000120 75 87 1f bd 3f d7 c8 3d 7f 35 b2 3b 26 3b 23 bb
       -0.03894754 0.0980668 0.005438506 -0.0024907081
000130 52 4c f4 be 39 f1 5c 3d 8e 71 54 bd 7b 6b 5b bd
       -0.47714478 0.053940985 -0.051866107 -0.0535693
000140 25 a1 e1 3d 8a 77 85 bd c0 bf 8c 3d 01 de 6f 3d
       0.11017064 -0.06516941 0.06872511 0.05856133
000150 e4 49 36 3c 5b 54 a6 3d fd 22 8a 3d ab 81 49 bd
       0.011126015 0.08121558 0.06744955 -0.049195927
000160 91 0c 0c 3d 49 13 2a 3d e7 09 c4 bc bf 15 4d 3d
       0.03419167 0.041522298 -0.023930503 0.050069567
000170 e3 9a 83 3c 0c bb fa 3d 95 97 74 3d 37 57 8b bd
       0.016065067 0.122427076 0.059714872 -0.06803744
000180 32 08 8c 3d 16 7b 33 3d e5 d1 45 bd 12 7c 60 bd
       0.06837501 0.043818556 -0.048295874 -0.054805823
000190 05 25 7f 3d 0e 32 1e 3e c4 01 ee bc 26 27 02 bd
       0.062291164 0.15448782 -0.029053576 -0.031775616
0001a0 60 bf e6 bd b2 0a 0a 3c 9f f7 a2 3d 48 95 0c 3d
       -0.11266971 0.0084254015 0.07957386 0.034322053
0001b0 44 4c dc bb ad 07 c9 3b f4 39 a7 3d 95 4b 17 3d
       -0.0067229588 0.006134948 0.081653506 0.036937315
0001c0 9d 08 87 bb 05 8c 80 3d ef c9 c6 bd 86 e7 1a bd
       -0.0041209 0.062767066 -0.097064845 -0.037818454
0001d0 d9 2a 1c bc 4b 08 45 3d 97 f3 ba 3d 04 79 3c 3d
       -0.0095317 0.048103612 0.09128492 0.046013847
0001e0 74 c7 fd 3b bf 80 26 3d ec 61 b7 bd e0 22 49 3d
       0.007744724 0.040650126 -0.08954224 0.049105525
0001f0 9a 3d fd bd 44 8b 31 bd 00 cd 82 3d 75 88 9d 3d
       -0.12365265 -0.043345705 0.06386757 0.07692043
000200 27 8f b1 3d b7 7d cd bc 7b 8d 96 bd 8b b4 93 3d
       0.08669882 -0.02508436 -0.07351204 0.0721217
000210 54 81 d6 3d 04 3e 34 bd 23 9b 97 bd 06 9b ac 3d
       0.10473886 -0.044004455 -0.07402637 0.08428006
000220 c2 08 1d 3d ec a2 ff 3d a5 24 6b 3a 63 e9 c2 bc
       0.03833843 0.12482247 0.0008969999 -0.023792928
000230 3f fc bf 3d 31 1d 80 bd 1c 43 a5 3d 6c 82 ca 3d
       0.09374284 -0.06255568 0.08069441 0.09888157
000240 ec b6 ab bd 39 71 e5 bd 30 54 d4 3d cc 13 cc 3d
       -0.08384499 -0.11203236 0.1036762 0.099647135
000250 ca 3e 2a 3c 57 71 21 3c 1c d3 c2 3d 7b be b2 3d
       0.010390947 0.0098536825 0.09512922 0.087277375
000260 46 2c 42 bd b5 c9 c5 bd f0 ca 13 3c de 07 c1 bc
       -0.047405504 -0.09657613 0.009020552 -0.023563322
000270 16 fc 07 3e 9e d6 61 3c 09 02 37 bd 7c ad 28 be
       0.13279757 0.013784079 -0.044679675 -0.16472429
000280 d4 97 eb bd f3 39 84 bc b7 a1 82 bd 4e 0e a0 3b
       -0.11503568 -0.016140914 -0.06378501 0.0048845178
000290 1c 2f d5 bd bc e9 9e 3d 16 d9 c5 bd f7 8a 8c bd
       -0.10409376 0.07759425 -0.096605465 -0.06862443
0002a0 55 93 04 b9 a0 fa 86 3d b4 b4 d2 bd a5 2a c1 3d
       -0.00012643386 0.06590772 -0.10288373 0.09431962
0002b0 d9 69 09 be 24 43 ca 3d d1 06 f8 3d f2 d5 df bc
       -0.13419284 0.09876087 0.12110675 -0.027323697
0002c0 07 a1 0c be b2 99 3b 3d 0b d3 52 bd aa b7 69 3e
       -0.13733302 0.045800872 -0.051470798 0.22823969
0002d0 74 b9 bd bd 7f e1 9a bc 22 72 80 bc 89 93 92 bd
       -0.09263888 -0.018906353 -0.015679423 -0.07157046
0002e0 27 72 9f 3d 78 5f b7 3d f0 68 fa 3c c3 92 94 bb
       0.07785445 0.08953756 0.030567616 -0.004534097
0002f0 ad d8 14 3c 58 f7 9d bb 2f 5f 7f bc 66 51 85 3c
       0.009084863 -0.0048207454 -0.015586658 0.016274165
000300 2a 15 38 3d a3 92 ad 3d 80 59 31 bd bc 21 a8 3d
       0.04494206 0.08475234 -0.043298244 0.08209559
000310 a1 74 20 bd 89 e5 1a 3d 91 c6 60 bd 5e 73 15 3d
       -0.039173726 0.037816558 -0.054876868 0.036486976
000320 09 04 a2 3d cc 23 34 3d 63 dd 93 3e a0 88 72 3d
       0.07910926 0.04397945 0.28879842 0.059212327
000330 6c 1b 54 be f4 3c 8c bc 01 dd fc bc ef 7f 2f 3d
       -0.20713586 -0.017118908 -0.030867102 0.042846616
000340 a7 ec f6 bb a7 58 c8 3d 50 ba a9 bd eb d9 bb 3d
       -0.0075355354 0.09782534 -0.082874894 0.09172424
000350 64 da 3a bd 24 e2 71 3d b1 ac 3a bc 6b f1 ea 3b
       -0.04561843 0.059053555 -0.011393712 0.0071698925
000360 81 2e 04 be 49 cc 73 bd 98 48 12 3e 95 1e 37 bc
       -0.12908365 -0.059520993 0.14285505 -0.011176725
000370 06 88 1a 3d e2 bb 98 bd f0 6d a3 3d be 33 0f bc
       0.03772738 -0.07457711 0.07979953 -0.008740364
000380 63 da 1c bd 89 55 13 3c 36 24 83 bd 0a be dc bc
       -0.038294207 0.008992561 -0.06403391 -0.026946086
000390 5a 40 e4 38 b2 79 6e 3d 86 8c 39 bd 5b 6d 91 3d
       0.000108838736 0.058221526 -0.04530003 0.07100936
0003a0 a4 56 eb 3d 75 99 8a bd 1a 8e 6f 3d 6e 96 b3 bd
       0.11491135 -0.06767551 0.058485128 -0.087689266
0003b0 13 2e 1a be 01 1e e3 bd 8d 5e 6d 3c c8 75 90 3d
       -0.15056638 -0.11089707 0.014487875 0.07053715
0003c0 ce 17 e2 3d 96 6d 86 bd f6 d8 e6 3d 11 27 f2 bd
       0.11039697 -0.065638706 0.11271851 -0.118238576
0003d0 04 22 17 3d 28 fb 4f b8 3c 56 71 bd f0 18 aa 3d
       0.036897674 -4.9586553e-05 -0.05892013 0.08305538
0003e0 4b ec 1c bd bf 35 e8 bd b7 ac 9a 3d 65 f9 b3 bd
       -0.038311284 -0.11338376 0.07552474 -0.087878026
0003f0 3f c7 c6 3d df ba e6 3d 6e fe 17 bb cb 93 28 3d
       0.09705972 0.112661116 -0.0023192423 0.04115657

policy_mean.bias f4 [4]
000000 0b f4 d0 3d 26 44 2c 3d 9d 3b 50 3d 2c 86 db 3d
       0.102027975 0.04205718 0.0508381 0.10718951

value_head.weight f4 [1, 128]
000000 13 86 a0 be 1e 3a ba be 4e 18 b4 be 93 f2 95 be
       -0.3135229 -0.36372465 -0.35174793 -0.29286632
000010 f7 05 99 be 8c 5c ab 3f ef 5f 9b be ed 50 99 3f
       -0.29887363 1.3387618 -0.3034663 1.1977822
000020 4e 30 ac 3f 78 59 84 be 9a af ae 3f a1 b4 8d be
       1.3452241 -0.2584951 1.3647339 -0.2767687
000030 cc fd a5 be 17 e0 a9 3f c7 35 82 3c e9 f5 c3 be
       -0.32420194 1.3271512 0.015894784 -0.38273552
000040 e6 5c 9e be e8 48 9e be ed b6 b5 3f c5 3a c8 be
       -0.3093025 -0.30914998 1.419645 -0.39107338
000050 3d ab b7 be c2 f9 a0 be 42 e6 8e 3f 61 f8 ab be
       -0.35872832 -0.3144055 1.1164019 -0.33587936
000060 a6 6d a5 be 72 6b a0 be f7 c4 a3 3f 1d eb b9 3f
       -0.32310218 -0.31331974 1.2794484 1.4524876
000070 48 e4 a5 3f 73 5d b9 be 0a e5 a3 3f 78 2c 89 3f
       1.2960291 -0.3620411 1.2804272 1.0716696
000080 ab 33 9f be 5c 38 87 be d5 57 bc be 3c c3 a8 3f
       -0.31094107 -0.26410186 -0.3678576 1.3184581
000090 d2 a9 78 be a3 35 b0 be a2 de 99 be d5 96 8a be
       -0.24283531 -0.34415922 -0.30052668 -0.270682
0000a0 f3 b3 af be 96 ac 96 be de bb 94 3f fd b2 b3 be
       -0.34316978 -0.29428548 1.1619833 -0.35097495
0000b0 81 29 9d 3f 19 a1 b2 be 89 cc 9f be ad 46 ae 3f
       1.2278291 -0.34888533 -0.31210735 1.3615319
0000c0 86 4b a7 be 61 91 ad be 4c 83 95 3c 4f ab 34 bd
       -0.32674807 -0.33899978 0.018251084 -0.044108685
0000d0 4e d9 62 be 8c 9d a3 bf ff 8c 7b be 95 57 b3 be
       -0.22153208 -1.2782454 -0.24565504 -0.35027757
0000e0 a1 40 9e be 45 46 b2 3f 85 d3 83 be 6c d7 c4 be
       -0.30908683 1.3927695 -0.25747314 -0.38445604
0000f0 88 8b a0 be e2 a0 8b be f3 cb c2 be 49 75 94 be
       -0.31356454 -0.2727118 -0.38046226 -0.2899573
000100 9e 1c ae be 46 80 b2 be 6c 18 95 3f 08 c3 a5 3f
       -0.34006208 -0.3486349 1.1648078 1.2950144
000110 2d cb bb 3f eb 77 5f be 40 9f 73 3d 1f 4a a1 be
       1.4671379 -0.21823089 0.059478045 -0.31501862
000120 cf 8d aa bb 83 83 9b be 26 f3 a1 3f 01 a3 b3 3f
       -0.005204893 -0.30373773 1.2652328 1.403412
000130 45 ba 6c 3d a6 5c 6a 3f ec 5b b4 3f 4a ce 8f be
       0.057794828 0.9154762 1.4090552 -0.28087074
000140 46 0f af 3f 90 80 a5 be cb 3a c9 be c8 fa 57 be
       1.3676536 -0.32324648 -0.39302668 -0.21091759
000150 50 5c 88 be 05 2a a1 be bd 2e 88 be 22 f2 b5 3f
       -0.2663293 -0.3147737 -0.26598158 1.4214518
000160 e5 b3 79 be a6 ee b6 be cf 24 91 3f 1b 22 65 3d
       -0.2438503 -0.3572895 1.1339358 0.05594073
000170 18 e3 a8 3f 4f b9 8c be 80 2a 9b 3d bb f4 53 3d
       1.3194304 -0.2748513 0.075764656 0.051747065
000180 ab 12 69 3d fa 75 92 be 24 67 53 3d ce 62 7b 3c
       0.05690257 -0.28605634 0.051612034 0.015343381
000190 ad 99 97 3d 74 a4 9c 3f 36 3a 90 be 47 c4 93 3c
       0.07402358 1.2237687 -0.2816941 0.018037928
0001a0 d6 9f 93 be b7 2e a6 3f c7 4c 96 be b6 dc a8 be
       -0.28832883 1.2983006 -0.2935545 -0.3298089
0001b0 56 fa ac 3f 61 6a b1 be 42 57 78 3f ea 74 a4 be
       1.3513896 -0.34651473 0.97008145 -0.32120448
0001c0 bb f0 a8 3f 40 1d 25 3d 05 18 88 be 66 ab 84 3f
       1.3198465 0.040311098 -0.26580825 1.0364807
0001d0 c8 89 71 be 8c 6a b5 be db 22 89 be 60 c0 d3 be
       -0.23587716 -0.3543285 -0.26784405 -0.41357708
0001e0 74 81 ab 3f 89 27 95 be f8 a4 9f be 41 6f 94 3f
       1.3398881 -0.29131725 -0.3118055 1.1596452
0001f0 ce 37 94 3f 8b 38 81 be 11 02 aa 3c 4c 75 86 be
       1.157953 -0.2523845 0.020752938 -0.26261365
