policy_ckpt/BipedalWalker-v3/06-05-25_03:09:03/epoch970_reward310.00.pt (torch, 85659 bytes, 8 tensors)

policy_logstd f4 [4]
0	0xbf8bf905	-1.093537
1	0xbfb8092e	-1.4377801
2	0xbfbc61cd	-1.4717346
3	0xbf7f1d3f	-0.99654

shared.0.weight f4 [128, 24]
0	0x3e36d716	0.17855486
1	0xbdb1969c	-0.086713046
2	0x3ef348b4	0.47516406
3	0xbe14104c	-0.14459342
4	0x3df346d7	0.11878746
5	0x3ebdeca6	0.3709461
6	0x3e39db35	0.18150027
7	0x3e039891	0.12851168
8	0x3d4bed16	0.04978665
9	0xbd09b73d	-0.033622015
10	0x3e4e1853	0.20126466
11	0x3e334cd8	0.17509782
12	0xbc69c4e7	-0.014268137
13	0x3e4cc4a2	0.19996884
14	0x3e275f01	0.16344835
15	0x3dd8b902	0.105821624
16	0x3d11c202	0.03558541
17	0x3d4275a4	0.047475472
18	0x3e431f42	0.19054893
19	0x3e3f6d6e	0.18694088
20	0x3d7ec6ab	0.062201183
21	0x3e419674	0.1890505
22	0xba12b317	-0.00055961445
23	0x3e4be667	0.1991211
24	0x3d4bd374	0.049762204
25	0xbec1ee50	-0.3787713
26	0x3c58ed9f	0.013240247
27	0xbeeebb1a	-0.46627122
28	0xbeb9b530	-0.36271048
29	0xbea2353a	-0.31681234
30	0x3eacfa72	0.33784825
31	0xbdde35fd	-0.10850141
32	0x3e0fe5c0	0.14052486
33	0x3eb5b86c	0.35492265
34	0xbe763609	-0.2404405
35	0x3d3ca75c	0.046058044
36	0x3bc5c5e6	0.006035554
37	0xbd047802	-0.03234101
38	0x3dadd1a0	0.084872484
39	0x3df4a9e0	0.119464636
40	0x3e06db0f	0.13169502
41	0x3e0b55f1	0.13607003
42	0x3c0364ca	0.008019635
43	0x3e460cee	0.1934087
44	0x3d273290	0.040819705
45	0x3e189ab8	0.1490277
46	0x3da73246	0.08163886
47	0x3e114b86	0.14188966
48	0xbd2e0121	-0.042481545
49	0xbe1d2d8b	-0.15349405
50	0x3e7aaa15	0.24478944
51	0xbf0357a2	-0.5130559
52	0xbdd32e23	-0.10311534
53	0x3d9a224f	0.07526075
54	0x3ea172a4	0.31532776
55	0x3e1f6b23	0.15568213
56	0xbdfca68e	-0.12336455
57	0x3e85340d	0.26016274
58	0x3dfe3746	0.12412886
59	0xbd23a4ee	-0.03995221
60	0x3dc7e9b3	0.097613715
61	0x3e4e683e	0.20156953
62	0x3df7e496	0.12104146
63	0xbd2c6296	-0.042086206
64	0xbd238dbd	-0.039930094
65	0x3d8c6dd1	0.06856883
66	0xbda991b1	-0.082797416
67	0x3d301215	0.042985994
68	0x3e92af01	0.28649142
69	0x3eafd9e2	0.3434592
70	0x3e18e57a	0.14931288
71	0x3d9f1309	0.077673025
72	0xbdd54f54	-0.10415521
73	0x3d6e3439	0.058155272
74	0x3e428ae7	0.189983
75	0xbc36a6af	-0.011148139
76	0x3e126f2a	0.14300218
77	0xbe20c160	-0.15698767
78	0x3e25c091	0.1618674
79	0xbe2ad3b0	-0.16682315
80	0x3e047bc1	0.12937833
81	0x3bd22054	0.006412545
82	0xbe0ad34e	-0.13557169
83	0x3dd91fcc	0.10601768
84	0x3e8b365f	0.2718992
85	0x3dca525b	0.09878989
86	0xbdf54ecb	-0.11977919
87	0x3d5efde2	0.05444134
88	0x3db71785	0.08940033
89	0x3dae9118	0.08523768
90	0x3dff4b6c	0.124655575
91	0xbdf0adb4	-0.11751881
92	0x3e44db0a	0.19224182
93	0x3e23bd3c	0.15990156
94	0x3d966ec0	0.07345343
95	0xbd93e273	-0.07220926
96	0x3efd5673	0.49480018
97	0x3f92d993	1.1472648
98	0xbf2ba60a	-0.6705023
99	0xbea4493a	-0.32087117
100	0xbdc7f28d	-0.0976306
101	0xbd0df7f3	-0.03466029
102	0xbd995a46	-0.074879214
103	0xbd0a1d22	-0.03371919
104	0xbe3c8a8f	-0.18412231
105	0x3e5247c3	0.20535187
106	0x3e2d8e0a	0.16948715
107	0x3d9c7eee	0.076413974
108	0xbd06d447	-0.032917287
109	0x3cf7850f	0.030214814
110	0x3dce5755	0.10075251
111	0xbe25462a	-0.16140047
112	0x3e060cc5	0.13090809
113	0x3e337d02	0.17528155
114	0xbd8159e4	-0.063159734
115	0x3d4d6936	0.050149165
116	0x3db6cd48	0.08925873
117	0xbe356a15	-0.17716248
118	0x3dfc85de	0.12330221
119	0xbdb5a785	-0.088698424
120	0x3e343c28	0.17601073
121	0xbeaed920	-0.34150028
122	0x3d576822	0.052589543
123	0xbdb6959e	-0.08915256
124	0xbcb427d3	-0.021991646
125	0xbdb215ce	-0.08695565
126	0x3e6c3287	0.2306615
127	0xbd2c5dd6	-0.042081676
128	0xbd78fa0b	-0.060785335
129	0x3ea07231	0.3133712
130	0x3e25e3a9	0.16200127
131	0x3e571789	0.21005072
132	0xbe79d277	-0.24396692
133	0x3d3b013f	0.045655485
134	0x3d086713	0.033301424
135	0x3d3fccdc	0.04682623
136	0xbd4265f0	-0.047460496
137	0x3e2be142	0.16785148
138	0x3e828e53	0.2549921
139	0x3e4037b8	0.18771255
140	0x3eac1f37	0.33617565
141	0x3e977e3f	0.29588506
142	0x3cbffdab	0.023436388
143	0x3e5f1077	0.21783625
144	0xbd8ea891	-0.06965745
145	0xbe90fddd	-0.28318682
146	0x3e12d342	0.14338401
147	0xbf43db75	-0.7650674
148	0x3e05cbc6	0.13066015
149	0xbd898bcb	-0.067161165
150	0xbddaf925	-0.10692052
151	0xbc4e1fe1	-0.012580843
152	0x3cd7b93f	0.02633345
153	0x3e63e17f	0.22253989
154	0xbdda66c8	-0.10664135
155	0xbe8b0471	-0.27151826
156	0x3d077e00	0.033079147
157	0x3d77f1b9	0.06053326
158	0x3d19400c	0.037414595
159	0xbc8c5ed6	-0.017135065
160	0x3b2e6efd	0.0026616447
161	0xbe04121f	-0.12897538
162	0x3e500d54	0.20317584
163	0xbe068872	-0.13137987
164	0x3cc8c2aa	0.024506886
165	0x3e2133ea	0.1574246
166	0x3e26b10a	0.16278473
167	0x3eb2829d	0.34865275
168	0x3e85bd18	0.2612083
169	0x3becab6e	0.0072225844
170	0xbe28a215	-0.1646808
171	0xbf37f372	-0.71855843
172	0xbe2a0e22	-0.16606954
173	0xbec5fd90	-0.38670015
174	0x3e7815d0	0.24227071
175	0xbe1b2013	-0.15148954
176	0x3d52684e	0.051369004
177	0x3dd4c52f	0.10389172
178	0xbe75f412	-0.24018887
179	0xbb51eb22	-0.003203102
180	0x3e2a3d92	0.1662505
181	0x3e52797a	0.20554152
182	0x3d926877	0.07148831
183	0x3e659c35	0.2242287
184	0x3e3a8f0d	0.18218632
185	0x3e79fd9f	0.24413155
186	0x3d788b2f	0.06067961
187	0x3ded6419	0.11591358
188	0x3e7a3e8d	0.24437924
189	0xbd1708e8	-0.036873728
190	0xbbddf544	-0.0067736227
191	0x3e6364fa	0.22206488
192	0xbe995659	-0.2994869
193	0xbeefd743	-0.4684392
194	0x3e9096e9	0.28240135
195	0xbd17e8b2	-0.03708715
196	0x3bd608b7	0.0065318006
197	0x3d1c3e80	0.038145542
198	0x3e387a9e	0.18015525
199	0x3d8f9ebc	0.07012698
200	0xbd08415f	-0.033265468
201	0x3d60ce32	0.054884143
202	0xbd07d7bd	-0.03316473
203	0xbe220869	-0.1582352
204	0xbd86d3a4	-0.06583336
205	0x3e0b2dfa	0.13591757
206	0x3e07d36f	0.1326425
207	0xbce9069e	-0.028445538
208	0xbd4a74e1	-0.04942787
209	0x3e062c0a	0.13102737
210	0xbaa53f56	-0.0012607377
211	0x3e0c8d6a	0.1372582
212	0xbba36957	-0.0049869227
213	0x3e5ef5ce	0.21773455
214	0xbd39bd60	-0.045346618
215	0x3d878c4a	0.06618555
216	0xbf484241	-0.78226095
217	0xbfae050d	-1.3595291
218	0x3ead289b	0.33820042
219	0x3f0d2efa	0.55149806
220	0xbec2f996	-0.38081044
221	0xbdbbac72	-0.09163751
222	0xbd827486	-0.06369881
223	0x3d35448e	0.044254832
224	0x3d6a9af8	0.057276696
225	0xbc022fd3	-0.0079459725
226	0xbe1036fa	-0.14083472
227	0x3de98543	0.11402371
228	0xbcc96096	-0.024582189
229	0xbdb45e2f	-0.088070266
230	0x3e4e00d2	0.201175
231	0x3d3927da	0.04520402
232	0x3e37fc98	0.1796745
233	0x3d921772	0.07133378
234	0xbe2b74fd	-0.16743846
235	0x3c2f861d	0.010713127
236	0xbcdeaa0a	-0.02718069
237	0x3d6772e1	0.05650604
238	0x3da458ed	0.08024774
239	0xbe47f95a	-0.19528714
240	0xbc2c484c	-0.010515284
241	0x3ee9b1e0	0.4564352
242	0xbd8064b3	-0.06269207
243	0x3eb2f18c	0.3494991
244	0xbe302cff	-0.17204665
245	0x3bafd0ab	0.0053654513
246	0xbe49ebdd	-0.19718881
247	0xbdbccec9	-0.09219129
248	0x3e0833c1	0.13300993
249	0xbd2d4953	-0.042306256
250	0xbe05abd9	-0.13053836
251	0x3f356c1f	0.70868105
252	0x3f235f42	0.63817227
253	0xbd672304	-0.056429878
254	0x3e2971e3	0.1654735
255	0xbdd5ebd6	-0.10445373

shared.0.bias f4 [128]
0	0x3d3401dd	0.04394709
1	0x3eaa9ac7	0.3332121
2	0x3de57785	0.11204437
3	0x3e1be2a7	0.1522318
4	0xbe82e679	-0.25566462
5	0xbd2bbb65	-0.04192676
6	0x3d92c481	0.071663864
7	0x3ea9b552	0.3314615
8	0xbc8194e0	-0.01581806
9	0xbe997466	-0.29971617
10	0xbde5a6ae	-0.11213432
11	0xbe1743ba	-0.1477193
12	0xbe22805c	-0.15869278
13	0xbe29741e	-0.16548201
14	0xbe8b188e	-0.2716717
15	0xbcbc9a0f	-0.02302268
16	0x3e830a1b	0.25593647
17	0x3c0d85c5	0.00863785
18	0x3e9f2feb	0.31091246
19	0x3d0f9af2	0.035059877
20	0xbdb9c9e3	-0.0907171
21	0xbe3e555d	-0.18587251
22	0xbc41c5e8	-0.01182697
23	0xbe269357	-0.16267143
24	0x3db54c54	0.08852449
25	0x3da4a1a1	0.08038641
26	0x3b9a79c6	0.0047142236
27	0xbcfed40b	-0.03110697
28	0xbda60eed	-0.081083156
29	0x3e91c0fb	0.28467545
30	0xbc125df9	-0.008933538
31	0xbe349266	-0.17633972
32	0xbe83e8e5	-0.25763622
33	0xbda98fec	-0.08279404
34	0xbe9e7097	-0.30945274
35	0xbd187ae9	-0.03722659
36	0xbe7da146	-0.24768552
37	0x3ea6374b	0.3246406
38	0x3d681c0c	0.056667373
39	0xbe3c0b6d	-0.18363734
40	0x3d7b2175	0.061311204
41	0xbdf50b9a	-0.119651034
42	0xbe95c9cb	-0.29255518
43	0xbe60cbcb	-0.21952741
44	0xbe51b6b2	-0.20479849
45	0xbd23ce1b	-0.03999148
46	0x3de477f0	0.11155689
47	0x3ea15776	0.3151204
48	0xbe823966	-0.25434417
49	0xbcbc6c89	-0.023000972
50	0x3c0d5976	0.008627286
51	0x3ea66b3b	0.32503685
52	0x3c395972	0.011312829
53	0x3eb81929	0.35956696
54	0x3ddbeefc	0.10738942
55	0xbde1d816	-0.11027543
56	0xbe1bba83	-0.15207867
57	0xbe69b7b0	-0.22823977
58	0x3e8c26b2	0.27373272
59	0x3ea5efe8	0.32409596
60	0x3e8f6093	0.28003368
61	0x3e4ecf28	0.20196211
62	0x3e9283df	0.28616235
63	0xbe0c6679	-0.13710965
64	0xbe376b52	-0.17912033
65	0x3d12724e	0.03575354
66	0x3e529410	0.20564294
67	0xbde70472	-0.11280145
68	0xbe0bae0f	-0.13640617
69	0xbe9511f1	-0.2911525
70	0x3ea82d46	0.3284704
71	0x3e4e71e4	0.20160633
72	0x3e6f3460	0.23359823
73	0x3d1f57a8	0.038901955
74	0xbc4e4071	-0.012588606
75	0xbe8eb98c	-0.27875936
76	0xbde4e0d1	-0.11175693
77	0x3e49647a	0.19667235
78	0x3e989d69	0.29807594
79	0xbe5b717a	-0.21430007
80	0xbd45867e	-0.048223965
81	0xbd5e1be3	-0.054225814
82	0x3ea53bc4	0.3227216
83	0xbd9115ac	-0.07084212
84	0x3e1342ab	0.143809
85	0xbb4959bc	-0.0030723652
86	0x3e20596f	0.15659116
87	0x3c09d82d	0.008413357
88	0xbe89140a	-0.267731
89	0xbd62f802	-0.0554123
90	0xbe3f61ae	-0.18689606
91	0x3e8a0dae	0.26963562
92	0x3cf5bb56	0.029996555
93	0x3ea3560e	0.31901592
94	0xbe92de5a	-0.28685266
95	0x3e02d9c7	0.12778388
96	0xbdd835ae	-0.105571136
97	0xbe6ee696	-0.23330149
98	0xbe9a5b20	-0.30147648
99	0x3dfcae06	0.1233788
100	0x3e77bf84	0.24194151
101	0x3e910c5b	0.2832974
102	0x3cdc457e	0.026888605
103	0x3d1d9945	0.038476247
104	0x3d549992	0.05190427
105	0x39a64c16	0.00031718676
106	0xbe759b51	-0.2398503
107	0x3cb6bc21	0.022306504
108	0xbc89a70b	-0.016803285
109	0xbe5b6b06	-0.21427545
110	0x3e2d2922	0.16910222
111	0x3c646661	0.013940425
112	0x3dec2738	0.11530918
113	0x3e40105f	0.18756245
114	0xbe60198b	-0.21884744
115	0xbe74e5e7	-0.23915826
116	0xbe116602	-0.14199069
117	0x3b5f4aff	0.00340718
118	0x3dd60bb7	0.10451453
119	0xbde25a8e	-0.11052428
120	0x3a3c39d4	0.0007180248
121	0x3d4a094a	0.049325265
122	0x3eab1a63	0.3341857
123	0xbdd6751b	-0.10471555
124	0xbebdcf8a	-0.37072402
125	0x3d1d7103	0.038437854
126	0xbe7568fe	-0.23965833
127	0x3e641c36	0.22276387

shared.2.weight f4 [128, 128]
0	0x3e0e4c77	0.13896357
1	0x3dfc0351	0.1230532
2	0x3e382a44	0.17984873
3	0x3b3eff55	0.002914389
4	0x3d6c4016	0.057678305
5	0x3d8a0fae	0.06741272
6	0xbbf19580	-0.007372558
7	0x3dc451f2	0.09585942
8	0x3e2554c1	0.16145612
9	0xbea76420	-0.32693577
10	0xbe14321f	-0.14472245
11	0x3c9f981d	0.019481713
12	0x3dd76773	0.10517778
13	0x3e6324f0	0.2218206
14	0x3da2fa9a	0.07957955
15	0x3d72f81a	0.05931864
16	0xbc6e247f	-0.0145350685
17	0x3d7696da	0.060202457
18	0x3df749da	0.12074633
19	0x3ec6d235	0.3883225
20	0x3e6be4a3	0.23036437
21	0xbbd91629	-0.006624956
22	0xbe6f0a8d	-0.23343869
23	0x3d0be218	0.034151167
24	0x3e79c7c6	0.24392614
25	0x3e748768	0.23879778
26	0xbe5fd78c	-0.21859568
27	0x3edafe44	0.42772114
28	0x3dcf8275	0.101323046
29	0x3de90919	0.11378688
30	0x3db3a9b8	0.08772606
31	0xbe9b0794	-0.3027922
32	0xbe31e29f	-0.17371605
33	0xbf1518a3	-0.5824072
34	0x3e8d25b9	0.27567843
35	0x3de59bfb	0.112113915
36	0xbecfe837	-0.40606853
37	0x3d836f38	0.06417698
38	0x3e8417b4	0.25799334
39	0xbeb460e5	-0.35230175
40	0x3da2d36b	0.07950481
41	0x3e5352cf	0.20637058
42	0xbe8b4e30	-0.2720809
43	0x3d31bc51	0.043392483
44	0x3dde1d52	0.10845436
45	0x3e3e9f9a	0.1861557
46	0x3f0434f2	0.5164329
47	0x3e08f29d	0.133738
48	0x3e15cfac	0.14630002
49	0x3e881118	0.26575541
50	0xbe287013	-0.16449003
51	0xb97c5d59	-0.00024067367
52	0xbe6b52c9	-0.22980799
53	0x3dbfbd02	0.09362222
54	0x3d2b7df8	0.04186818
55	0x3e80d271	0.25160554
56	0x3e1c1308	0.15241635
57	0xbe0d0857	-0.13772713
58	0x3dab066e	0.08350836
59	0x3d428911	0.047493998
60	0xbdb89ba3	-0.0901406
61	0x3d0a1851	0.033714596
62	0x3ea56cce	0.32309574
63	0x3d9abc37	0.075554304
64	0x3dc2c8c4	0.09510949
65	0x3e33de0f	0.17565177
66	0x3e5b5bf4	0.21421796
67	0x3d9a8152	0.07544197
68	0x3e5093b0	0.20368838
69	0x3ea358de	0.31903738
70	0x3d2ec008	0.042663604
71	0xbcc19c31	-0.023634048
72	0x3c70df9d	0.014701751
73	0x3c959fea	0.01826473
74	0x3eadae92	0.3392225
75	0x3ec4af35	0.38414922
76	0x3dd1292d	0.10212932
77	0x3ede6a15	0.4344031
78	0xbe41e5ba	-0.1893529
79	0x3e0475b6	0.12935528
80	0x3d499a61	0.049219493
81	0x3e1d8be3	0.15385394
82	0xbd852a32	-0.06502189
83	0x3f08a7ac	0.53380847
84	0xba12376e	-0.00055777177
85	0x3dda475f	0.10658144
86	0x3f0f7742	0.5604135
87	0xbd7495ce	-0.059713177
88	0xbc9db3e1	-0.019250812
89	0x3e185855	0.14877446
90	0x3cf227e1	0.029560031
91	0xbc3529d8	-0.01105734
92	0x3dfecb55	0.12441126
93	0x3e085319	0.13312949
94	0xbf5ff151	-0.87477595
95	0x3e844ad5	0.25838342
96	0xbe9f677a	-0.31133634
97	0x3e84aeab	0.2591451
98	0x3e4b7827	0.19870053
99	0x3d8aabe9	0.067710705
100	0x3d9ad605	0.07560352
101	0x3e51090c	0.20413607
102	0xbea0bc5b	-0.31393704
103	0x3e7d0e70	0.24712539
104	0x3e565614	0.20931274
105	0x3ec1664f	0.37773368
106	0x3e50ece6	0.2040287
107	0x3e9907d7	0.29888794
108	0xbe311dac	-0.17296475
109	0x3f036022	0.5131856
110	0x3d54707e	0.051865093
111	0xbddd8925	-0.10817174
112	0x3e120931	0.14261319
113	0x3c64ce94	0.013965268
114	0xbe6a5765	-0.22884901
115	0x3eb13b93	0.34615764
116	0x3dacaaa7	0.08430987
117	0x3d157cab	0.036495846
118	0x3dece9c3	0.11568024
119	0xbebe8106	-0.37207812
120	0x3da4c6a3	0.080456994
121	0x3b4ce4d0	0.0031264313
122	0xbd3a1c18	-0.04543695
123	0x3e18d679	0.14925565
124	0x3edd490d	0.43219796
125	0x3e2229e5	0.15836294
126	0x3da8843b	0.08228346
127	0x3da8f2ab	0.0824941
128	0x3d374ab9	0.044748995
129	0x3dca8aab	0.0988973
130	0x3e823be3	0.25436315
131	0xbd0a4750	-0.033759415
132	0xbcd23637	-0.025660617
133	0x3d441020	0.04786694
134	0xbd260684	-0.040533558
135	0x3d79fef2	0.06103415
136	0x3e4814f3	0.19539241
137	0xbeba5efe	-0.36400598
138	0x3b008afc	0.001961409
139	0xbcb59cdd	-0.022169525
140	0x3e3b7b0c	0.18308657
141	0x3ec23920	0.37934208
142	0x3d1a3273	0.03764577
143	0x3e13efbe	0.14446923
144	0xbde3dd84	-0.11126235
145	0x3e867500	0.2626114
146	0x3d42d2db	0.04756437
147	0x3f01233d	0.50444394
148	0x3e22ed80	0.15910912
149	0x3daea4e5	0.08527545
150	0x3d7a0e17	0.061048593
151	0x3dd02179	0.101626344
152	0x3eabe914	0.33576262
153	0x3e482c2d	0.19548102
154	0x3d8890f2	0.06668271
155	0x3ec758ab	0.38934836
156	0x3ea65c1b	0.32492146
157	0x3dd0d063	0.101959966
158	0xbd0721c3	-0.032991182
159	0xbf010e06	-0.50412023
160	0xbeafa711	-0.3430715
161	0xbf2ee718	-0.6832137
162	0x3e62fa25	0.22165735
163	0x3ee3937a	0.44448453
164	0xbec39188	-0.3819697
165	0x3c6755e5	0.0141196
166	0x3e4e7378	0.20161235
167	0xbeda620a	-0.42652923
168	0x3d15dc81	0.036587242
169	0x3ea20d69	0.31650856
170	0xbe9fd203	-0.31214914
171	0xbdb438c3	-0.08799889
172	0x3e0394cb	0.12849729
173	0x3e85cf81	0.26134875
174	0x3f0a08e5	0.5391982
175	0x3c6a2b22	0.01429251
176	0x3d5abb2d	0.05340116
177	0x3ee728dc	0.4514836
178	0x3e1d92e4	0.15388066
179	0x3d08f00a	0.033432044
180	0xbdddae8a	-0.10824306
181	0xbc8c700d	-0.017143274
182	0x3deaf94d	0.114733316
183	0x3e376d9c	0.17912906
184	0x3d8d8081	0.06909276
185	0xbe1b8b0d	-0.15189762
186	0x3eaf357a	0.34220487
187	0x3e202136	0.15637669
188	0xbc9f7c37	-0.01946841
189	0xbdc5a96f	-0.096514575
190	0x3e7c7f8b	0.24658029
191	0x3d7e045b	0.062015872
192	0x3c51fcaf	0.012816592
193	0x3d68a517	0.056798067
194	0x3ec6df11	0.3884206
195	0x3ed09720	0.407403
196	0x3e87932e	0.26479477
197	0x3ec9e650	0.39433527
198	0x3d70de9f	0.058806058
199	0x3d9d7604	0.07688525
200	0x3e3d7e86	0.18505296
201	0x3e1ebe18	0.15502203
202	0x3e2f621d	0.17127271
203	0x3ea5be9e	0.32371992
204	0x3d2b8505	0.041874904
205	0x3f150ef0	0.5822592
206	0x3e91faf1	0.28511766
207	0x3e26ed56	0.16301474
208	0x3d95e33b	0.073187314
209	0x3e261875	0.16220267
210	0xbc8d282f	-0.017231075
211	0x3ec01ddc	0.3752278
212	0xbd8ddea6	-0.069272324
213	0x3db71f86	0.089415595
214	0x3e99289d	0.29913798
215	0xbcf8763d	-0.030329818
216	0xbddbfaf1	-0.10741223
217	0x3e54f382	0.20796016
218	0x3dc2ef98	0.09518355
219	0x3de4ffba	0.111815885
220	0x3da832c7	0.0821281
221	0x3eaaf2a2	0.3338824
222	0xbf482d8b	-0.78194493
223	0x3eb04012	0.34423882
224	0x3e4743e1	0.19459487
225	0xbdda1686	-0.10648827
226	0x3ef561a2	0.4792605
227	0x3e451995	0.1924804
228	0x3dc8a193	0.09796443
229	0x3df4ba90	0.119496465
230	0xbd0de94f	-0.03464633
231	0xbe119e40	-0.14220524
232	0x3becefb2	0.0072307223
233	0x3d2874cb	0.041127007
234	0x3e1e90d3	0.15484934
235	0x3e5cc938	0.21561134
236	0x3d3e2286	0.046419643
237	0x3f045479	0.51691395
238	0x3c6386f4	0.013887156
239	0xbe3b6aee	-0.18302509
240	0x3e654615	0.22390015
241	0x3d9b3276	0.07577984
242	0xbe02a778	-0.12759197
243	0x3edf3ac1	0.43599513
244	0x3da9dfbf	0.08294629
245	0xbcfc4ca3	-0.030798262
246	0x3c552dd1	0.013011412
247	0xbded3e20	-0.11584115
248	0x3e68a202	0.22718051
249	0x3e3a6d0b	0.18205659
250	0x3cfa9bba	0.030591834
251	0x3e0e5082	0.13897899
252	0x3eb7a1f2	0.35865742
253	0xbcf4474b	-0.029819151
254	0x3d55b113	0.052170824
255	0x3e381afa	0.1797904

shared.2.bias f4 [128]
0	0xbb2e5723	-0.002660223
1	0xbcc1fc21	-0.023679795
2	0x3d8365e4	0.064159185
3	0xbdc29120	-0.09500337
4	0x3d244b6d	0.040110994
5	0x3e121c86	0.14268693
6	0x3e0a8cf7	0.13530336
7	0x3dac381a	0.08409138
8	0xbd92b79f	-0.07163929
9	0xbcfba1ba	-0.030716766
10	0x3df8c7b2	0.12147464
11	0x3bb6099f	0.005555346
12	0x3cc62ea9	0.024192171
13	0x3dc69fe9	0.09698469
14	0xbd0a343c	-0.03374122
15	0xbd81b633	-0.0633358
16	0x3d64e152	0.055878945
17	0xbc187e65	-0.009307479
18	0x3b3e36c2	0.0029024337
19	0x3cdd5a52	0.027020607
20	0x3d170690	0.036871493
21	0x3da13a58	0.07872456
22	0x3e19c816	0.15017733
23	0x3dcf5899	0.101243205
24	0x3d3bcc21	0.04584897
25	0xbb14278f	-0.0022606587
26	0x3e1960b6	0.14978299
27	0x3d9fc6c8	0.078015864
28	0x3d5ab4de	0.053395145
29	0xbc2770e5	-0.010219787
30	0x3d8b70dc	0.068086356
31	0x3e306223	0.17224936
32	0xbc82b0f7	-0.015953524
33	0xbd8e100b	-0.06936654
34	0x3ba9e01c	0.0051841866
35	0x3deb7cdc	0.114984244
36	0x3d9420f5	0.072328486
37	0xbda2c133	-0.07947006
38	0x3d7205ed	0.059087683
39	0x3e0cffb2	0.13769415
40	0xbc8971f7	-0.016777975
41	0xbd6bcd6c	-0.057568952
42	0x3e3f842c	0.18702763
43	0xbc91db57	-0.017804785
44	0x3e201a83	0.15635113
45	0xbcb5cb94	-0.0221918
46	0x3d822dd5	0.06356398
47	0x3ca08dc6	0.019598853
48	0x3dee0926	0.11622839
49	0xbcef9d40	-0.029249787
50	0x3da6c254	0.08142534
51	0x3d3c98fb	0.04604433
52	0x3d99f2e5	0.075170316
53	0x3c789df1	0.015174375
54	0x3e2694c7	0.16267692
55	0xbdd9c011	-0.10632337
56	0x3d9afeaf	0.07568108
57	0x3db29547	0.08719879
58	0x3a741ed5	0.00093124557
59	0xbc1e371d	-0.009656695
60	0xbddf9eb0	-0.10918939
61	0x3c31998f	0.010839834
62	0xbca27c4f	-0.019834666
63	0x3db2f7c1	0.087386616
64	0xbd867164	-0.06564596
65	0xbd866d2a	-0.0656379
66	0x3e099cc6	0.1343871
67	0x3d719f3a	0.05898974
68	0x3cfcf3b8	0.030877933
69	0xbd26e13d	-0.040742148
70	0x3d8ac9ad	0.06776748
71	0xbd1b430e	-0.037905745
72	0x3989930b	0.00026240232
73	0xbd9fdfdf	-0.07806372
74	0xbea4a412	-0.32156426
75	0x3dd507b3	0.10401859
76	0xbdb01949	-0.08598573
77	0x3e34dc23	0.176621
78	0x3d05dd44	0.03268172
79	0xbdc1b55f	-0.09458422
80	0x3df2c9b0	0.11854875
81	0xbbb7531a	-0.0055946233
82	0xbd0cf7da	-0.034416057
83	0x3dd435ba	0.1036181
84	0xbddee947	-0.10884338
85	0x3c8ffb68	0.017575935
86	0x3d4fc20b	0.050722163
87	0x3d066300	0.032809258
88	0x396ebada	0.00022767056
89	0x3dd4db4d	0.10393391
90	0x3dafae3b	0.08578154
91	0x3cf5194f	0.029919295
92	0x3c8b7c58	0.017027065
93	0x3d2788d9	0.040901992
94	0xbcd0bea9	-0.025481539
95	0xbcce8cb2	-0.025213573
96	0xbd619cc4	-0.055081144
97	0xbcf123c4	-0.029436
98	0xbda52d34	-0.080652624
99	0xbd89b31c	-0.067236155
100	0xbda9de5f	-0.08294367
101	0x3d1d38f7	0.038384404
102	0xbd4affd4	-0.049560383
103	0x3d7c4a95	0.061594564
104	0x3d723399	0.05913124
105	0x3dd307f1	0.10304249
106	0xbcb431a6	-0.02199633
107	0x3d643f1e	0.055724256
108	0x3dc87639	0.09788174
109	0x3e177231	0.14789654
110	0x3e8dedd5	0.27720514
111	0xbd133b4b	-0.035945218
112	0x3d8ffd95	0.07030789
113	0xbca4201a	-0.020034838
114	0xbb0e35ef	-0.0021699627
115	0x3e0ed3d0	0.13947988
116	0x3c898abb	0.016789785
117	0x3d811129	0.06302101
118	0x3dc8986e	0.09794699
119	0xbdaeadb5	-0.08529226
120	0x3e556cab	0.20842235
121	0x3d397013	0.045272898
122	0xbc961603	-0.018321043
123	0x3e4148d3	0.18875436
124	0xbe6c6569	-0.2308556
125	0x3d6405a4	0.05566944
126	0xbd822fb5	-0.06356756
127	0x3d3ad2b1	0.045611087

policy_mean.weight f4 [4, 128]
0	0x3d3eb298	0.04655704
1	0xbe08860c	-0.13332385
2	0x3d1cd93e	0.038293116
3	0xbd217be6	-0.0394248
4	0xbd0ff874	-0.035149053
5	0xbdac96e1	-0.08427215
6	0xbdd19bf6	-0.10234825
7	0xbdfd96f6	-0.12382309
8	0x3ba361ac	0.0049860086
9	0xbde39ab8	-0.11113495
10	0x3e28bc8f	0.1647818
11	0xbd7c5293	-0.061602186
12	0xbcba8168	-0.022766784
13	0x3e23a297	0.15979992
14	0x3d9eb798	0.077498615
15	0x3d29bbf8	0.041439027
16	0xbddd4586	-0.10804276
17	0x3d95ff79	0.07324118
18	0x3d5f863f	0.054571386
19	0xbd06d000	-0.032913208
20	0xbd44fda4	-0.048093453
21	0xbd885375	-0.06656543
22	0xbe09b0b6	-0.13446316
23	0xbb670108	-0.0035248417
24	0xbcad16de	-0.021129068
25	0x3d861f15	0.06548897
26	0xbd827545	-0.06370024
27	0x3dbb9da9	0.09160931
28	0x3d1d1d2d	0.038357902
29	0xbdd891c3	-0.10574677
30	0x3d319ecb	0.043364327
31	0xbcc960e5	-0.024582336
32	0x3c253b10	0.010084882
33	0xbcd07e1c	-0.025450759
34	0xbdd1d10f	-0.10244953
35	0x3c3e884d	0.011629176
36	0x3c026bbd	0.007960257
37	0xbdb9033c	-0.0903382
38	0xbd1a3a7f	-0.037653442
39	0x3d2c8410	0.042118132
40	0x3de8cb15	0.1136686
41	0x3dd3b95f	0.10338091
42	0xbd6d1ebf	-0.05789065
43	0x3dc9e544	0.09858182
44	0xbd00108f	-0.03126579
45	0xbcf120f7	-0.029434664
46	0x3d2ed503	0.042683613
47	0xbd229ae9	-0.039698515
48	0xbbadb5f7	-0.005301233
49	0xbd6c60a5	-0.057709355
50	0xbd3389cb	-0.04383258
51	0x3ebf588e	0.3737225
52	0xbdb650f1	-0.08902157
53	0x3e2485a7	0.1606661
54	0x3c839284	0.016061075
55	0xbd76896e	-0.060189657
56	0x3c89ce35	0.01682196
57	0x3c5c284f	0.013437345
58	0xbceac6a0	-0.028659165
59	0x3d26df5e	0.040740363
60	0xbd2bbab3	-0.041926097
61	0xbbf3515a	-0.0074254693
62	0x3d4f7c63	0.050655734
63	0x3d40df38	0.047087878
64	0xbe236e67	-0.15960084
65	0xba017f0c	-0.0004939891
66	0xbe2a14b5	-0.16609462
67	0x3dd5eff4	0.10446158
68	0xbd25351a	-0.040333845
69	0xbcde0673	-0.027102685
70	0x3d20a7a7	0.039222386
71	0xba2dd0f6	-0.0006630564
72	0xbd1f8775	-0.03894754
73	0x3dc60d4b	0.09670504
74	0x3c5fb184	0.013653163
75	0x3af4abf2	0.0018666966
76	0xbef2f85e	-0.47455114
77	0x3d5b56e8	0.053549677
78	0xbd423780	-0.04741621
79	0xbd5e3675	-0.054251153
80	0x3de93a1e	0.11388038
81	0xbd85e1d6	-0.065372154
82	0x3d89c75d	0.06727479
83	0x3d6c9be9	0.057765875
84	0x3c2b0f31	0.010440634
85	0x3da47ea7	0.080319695
86	0x3d861bcf	0.06548273
87	0xbd381d0c	-0.044949576
88	0x3d06725c	0.032823905
89	0x3d2585d6	0.04041084
90	0xbcbbf79c	-0.022945218
91	0x3d4d15bf	0.050069567
92	0x3ca5d679	0.02024387
93	0x3dfa1242	0.12210514
94	0x3d749795	0.059714872
95	0xbd8b5737	-0.06803744
96	0x3d8c0832	0.06837501
97	0x3d334cf4	0.04377456
98	0xbd45d1e5	-0.048295874
99	0xbd607c12	-0.054805823
100	0x3d7f2505	0.062291164
101	0x3e1d20db	0.15344565
102	0xbcf13734	-0.029445268
103	0xbd022726	-0.031775616
104	0xbde7ffc7	-0.113280825
105	0x3c13e659	0.009027087
106	0x3da1482c	0.07875094
107	0x3d090771	0.033454362
108	0xbb3bbfb7	-0.0028648206
109	0x3ba7567f	0.0051067467
110	0x3da46eca	0.08028944
111	0x3d145794	0.036216334
112	0x3a3eacd8	0.00072736805
113	0x3d808c05	0.062767066
114	0xbdc687e1	-0.096938856
115	0xbd1b1b84	-0.037868038
116	0xbc2c7f10	-0.010528341
117	0x3d456834	0.04819508
118	0x3db896ae	0.09013115
119	0x3d370cf3	0.044690084
120	0x3c12fdb2	0.0089716185
121	0x3d22436e	0.039615087
122	0xbdb6fbb3	-0.089347266
123	0x3d4942b1	0.049135868
124	0xbe0105cc	-0.12599868
125	0xbd334fc6	-0.04377725
126	0x3d82cd00	0.06386757
127	0x3d9aaa71	0.0755204
128	0x3db00fd9	0.08596773
129	0xbccd62ca	-0.02507152
130	0xbd95a6e1	-0.0730722
131	0x3d9350e9	0.07193167
132	0x3dd3979e	0.10331653
133	0xbd33c2ff	-0.043887135
134	0xbd97ac15	-0.07405869
135	0x3da98ef3	0.082792185
136	0x3d18e843	0.037330877
137	0x3dfd79df	0.12376761
138	0x3a0b5228	0.00053146714
139	0xbcc79ff1	-0.024368258
140	0x3dbfd907	0.093675666
141	0xbd78d865	-0.060753245
142	0x3da5431c	0.08069441
143	0x3dc9a9ee	0.09846865
144	0xbdacb1c9	-0.08432347
145	0xbde34c4a	-0.11098535
146	0x3dd204b6	0.10254805
147	0x3dcb6b49	0.099325724
148	0x3c1c69f5	0.0095467465
149	0x3c16c9e5	0.009203409
150	0x3dbf7f73	0.09350481
151	0x3db12e95	0.08651463
152	0xbd422e44	-0.047407404
153	0xbdc3fbb6	-0.095694944
154	0x3bf21a86	0.0073884157
155	0xbcc80a2e	-0.024418917
156	0x3e056973	0.13028507
157	0x3c5fc27c	0.0136572085
158	0xbd36c48e	-0.044621043
159	0xbe27fff7	-0.16406237
160	0xbdea03bd	-0.11426494
161	0xbc8a5d30	-0.016890138
162	0xbd833ec0	-0.06408453
163	0x3b65aa79	0.0035044237
164	0xbdd562b1	-0.104192145
165	0x3d9dc2d3	0.077031754
166	0xbdc51eaa	-0.09624989
167	0xbd8b36db	-0.06797572
168	0x3a0cfede	0.00053785543
169	0x3d862aa1	0.065510996
170	0xbdd27f9d	-0.102782466
171	0x3dc102bc	0.0942435
172	0xbe08c77b	-0.13357346
173	0x3dc8b806	0.09800725
174	0x3df6455e	0.120249495
175	0xbce21487	-0.027597679
176	0xbe0b4ca5	-0.13603456
177	0x3d3b0093	0.045654844
178	0xbd52d30b	-0.051470798
179	0x3e64fbeb	0.22361724
180	0xbdbd8b0c	-0.09255037
181	0xbc8a4d82	-0.016882662
182	0xbc853040	-0.016258359
183	0xbd92f682	-0.07175924
184	0x3d9d723d	0.07687805
185	0x3db659bb	0.089038335
186	0x3cf0d9ed	0.02940079
187	0xbb8c96c9	-0.004290436
188	0x3c01ad86	0.007914906
189	0xbb9c6ff1	-0.0047740866
190	0xbc6f1f72	-0.0145948995
191	0x3c814d7f	0.015784023
192	0x3d34fc26	0.04418578
193	0x3dacce67	0.084378056
194	0xbd35b03a	-0.044357516
195	0x3da3f8f0	0.080064654
196	0xbd240aca	-0.04004935
197	0x3d1447c0	0.03620124
198	0xbd60c691	-0.054876868
199	0x3d14107d	0.036148537
200	0x3da20409	0.07910926
201	0x3d33354f	0.04375201
202	0x3e8e4520	0.27787113
203	0x3d6f2de8	0.05839339
204	0xbe579e1e	-0.2105641
205	0xbc8ba96e	-0.017048564
206	0xbd0311c3	-0.03199936
207	0x3d2af651	0.041738812
208	0xbc0249ef	-0.007952197
209	0x3dc6b1e6	0.097019
210	0xbda95cc4	-0.08269647
211	0x3db9d001	0.09072877
212	0xbd3c9635	-0.046041686
213	0x3d70d202	0.05879403
214	0xbc4ea8f5	-0.012613525
215	0x3bc5bc01	0.0060343747
216	0xbe03a196	-0.12854609
217	0xbd729d70	-0.059232175
218	0x3e116760	0.1419959
219	0xbc371e95	-0.011176725
220	0x3d1110ab	0.035416286
221	0xbd9822e7	-0.07428532
222	0x3da36df0	0.07979953
223	0xbc0f33be	-0.008740364
224	0xbd1cda63	-0.038294207
225	0x3c176415	0.00924017
226	0xbd832436	-0.06403391
227	0xbcdcbe0a	-0.026946086
228	0x38e4405a	0.000108838736
229	0x3d70ed59	0.058820102
230	0xbd38430d	-0.04498582
231	0x3d916d5b	0.07100936
232	0x3de83ccb	0.1133972
233	0xbd8b624e	-0.068058595
234	0x3d6e2b49	0.05814675
235	0xbdb245d3	-0.08704724
236	0xbe19fd48	-0.15038025
237	0xbde1ce97	-0.11025732
238	0x3c66aa3d	0.014078674
239	0x3d8fac55	0.070152916
240	0x3ddde2c0	0.10834265
241	0xbd866d96	-0.065638706
242	0x3de498fa	0.111619905
243	0xbdf2a3fd	-0.118476845
244	0x3d11af79	0.035567734
245	0x39a4581d	0.00031346167
246	0xbd7402f5	-0.059573133
247	0x3da84820	0.08216882
248	0xbd1a7b76	-0.037715398
249	0xbde7b455	-0.113136925
250	0x3d9acd14	0.07558647
251	0xbdb4722e	-0.088108405
252	0x3d8518ed	0.06498895
253	0x3de49793	0.11161723
254	0xbb17fe6e	-0.0023192423
255	0x3d26b505	0.040699977

policy_mean.bias f4 [4]
0	0x3dcfb695	0.10142247
1	0x3d2cdcd6	0.042202793
2	0x3d4eeb37	0.050517287
3	0x3dd9b1e0	0.1062963

value_head.weight f4 [1, 128]
0	0xbea33463	-0.31875905
1	0xbebef1a1	-0.37293723
2	0xbeb801b6	-0.35938805
3	0xbe99304b	-0.29919657
4	0xbe9ce24a	-0.30641395
5	0x3fab618b	1.3389143
6	0xbea08741	-0.3135319
7	0x3f99719e	1.1987798
8	0x3fac6f66	1.3471496
9	0xbe887a34	-0.26655734
10	0x3faedc6d	1.3661019
11	0xbe911146	-0.2833349
12	0xbea97537	-0.3309724
13	0x3faa0c07	1.328492
14	0x3c8235c7	0.015894784
15	0xbec70f9d	-0.388791
16	0xbea228f0	-0.31671858
17	0xbea1a981	-0.31574634
18	0x3fb5b3d0	1.41955
19	0xbecb9f3c	-0.39769924
20	0xbebb0755	-0.3652903
21	0xbea4cf0b	-0.3218921
22	0x3f8e6fdd	1.1127888
23	0xbeafa6e1	-0.34307006
24	0xbea9457b	-0.33060822
25	0xbea411bb	-0.32044777
26	0x3fa3469c	1.2755923
27	0x3fb9afb0	1.450674
28	0x3fa57e2a	1.2929127
29	0xbebda07c	-0.37036502
30	0x3fa377fb	1.277099
31	0x3f88d550	1.0690098
32	0xbea2f83e	-0.3183002
33	0xbe8acf0d	-0.27111092
34	0xbec03562	-0.37540728
35	0x3fa838cc	1.3142333
36	0xbe7f8e3d	-0.24956603
37	0xbeb38aac	-0.35066736
38	0xbe9da976	-0.3079335
39	0xbe8e2765	-0.2776443
40	0xbeb2b177	-0.3490102
41	0xbe99575d	-0.29949465
42	0x3f93d211	1.1548482
43	0xbeb66c3f	-0.3562946
44	0x3f9d25a9	1.2277118
45	0xbeb5ae4c	-0.3548454
46	0xbea3866d	-0.31938496
47	0x3faddb7a	1.3582604
48	0xbeaadbe7	-0.33370897
49	0xbeb18b57	-0.3467662
50	0x3c95834c	0.018251084
51	0xbd43a979	-0.047769044
52	0xbe6ba1d5	-0.23010953
53	0xbfa4c598	-1.2872801
54	0xbe81aeb6	-0.25328606
55	0xbeb68a10	-0.35652208
56	0xbea1d02d	-0.31604138
57	0x3fb1e070	1.3896618
58	0xbe879432	-0.26480252
59	0xbec7391d	-0.3891076
60	0xbea39ac1	-0.31954005
61	0xbe90a629	-0.2825177
62	0xbec5f1d0	-0.3866105
63	0xbe9808cd	-0.29694214
64	0xbeb25890	-0.34833193
65	0xbeb52430	-0.3537917
66	0x3f94fd2d	1.1639763
67	0x3fa5bc8e	1.2948167
68	0x3fbb93f9	1.4654533
69	0xbe6711d2	-0.22565392
70	0x3d739f40	0.059478045
71	0xbea5185f	-0.32245156
72	0xbbaa8dcf	-0.005204893
73	0xbe9dc01a	-0.30810624
74	0x3fa26bb4	1.2689118
75	0x3fb34646	1.4005821
76	0x3d75fa47	0.060053136
77	0x3f69055d	0.9102381
78	0x3fb42353	1.407328
79	0xbe9323dc	-0.28738296
80	0x3faecc4f	1.36561
81	0xbea93022	-0.33044535
82	0xbecc2444	-0.39871418
83	0xbe60fb8d	-0.21970959
84	0xbe8b2eec	-0.27184236
85	0xbea469d0	-0.3211198
86	0xbe8b68ba	-0.27228338
87	0x3fb5b029	1.4194385
88	0xbe80b39a	-0.25137025
89	0xbeba2a81	-0.36360553
90	0x3f910ec6	1.1332633
91	0x3d65221b	0.05594073
92	0x3fa8c68a	1.3185589
93	0xbe8ffa18	-0.28120494
94	0x3d9b2a80	0.075764656
95	0x3d53f4bb	0.051747065
96	0x3d6912ab	0.05690257
97	0xbe95e160	-0.2927351
98	0x3d536724	0.051612034
99	0x3c7b62ce	0.015343381
100	0x3d9799ad	0.07402358
101	0x3f9ce822	1.2258341
102	0xbe9393d8	-0.28823733
103	0x3c93c447	0.018037928
104	0xbe979468	-0.29605412
105	0x3fa60a8d	1.297197
106	0xbe990164	-0.29883873
107	0xbeac092f	-0.33600757
108	0x3fac9f8e	1.3486192
109	0xbeb54691	-0.354054
110	0x3f773a81	0.96573645
111	0xbea777ae	-0.32708496
112	0x3fa88d34	1.3168092
113	0x3d251d40	0.040311098
114	0xbe8c700e	-0.2742924
115	0x3f845219	1.0337554
116	0xbe77bd8f	-0.24193405
117	0xbeb8b9e4	-0.36079323
118	0xbe8c71ab	-0.27430472
119	0xbed623f3	-0.41824302
120	0x3fab0958	1.3362226
121	0xbe985967	-0.2975571
122	0xbea36dbe	-0.31919664
123	0x3f946754	1.1594033
124	0x3f90f686	1.1325233
125	0xbe853f32	-0.26024777
126	0x3caa0211	0.020752938
127	0xbe88d635	-0.26725927
