policy_ckpt/Humanoid-v5/06-06-25_19:08:43/epoch3730_reward6089.30.pt (torch, 912518 bytes, 14 tensors)

policy_logstd f4 [17]
-0.59096116 -0.6770611 -0.7194072 -0.57278824 -0.7655572 -1.1558315 -1.4175123 -0.619837
-0.6808523 -1.1418653 -4.953839 -0.49951124 -0.48540485 -0.43797252 -0.4204254 -0.47541142
-0.41744882
00000000: 3b49 17bf e053 2dbf 122b 38bf 40a2 12bf
00000010: 8ffb 43bf 49f2 93bf 0b71 b5bf a3ad 1ebf
00000020: 564c 2ebf a428 92bf d985 9ec0 f0bf ffbe
00000030: fc86 f8be ef3d e0be ff41 d7be 2069 f3be
00000040: dabb d5be

shared.0.weight f4 [256, 348]
0.1515061 0.0023401612 -0.31319776 0.08225156 -0.38219857 -0.38967884 -0.0177488 0.28481856
0.27997833 -0.76312757 0.755945 0.5200349 0.13513951 0.2731845 0.1494332 -0.21644266
0.073434666 -0.0032943087 -0.02402334 0.10487674 0.01618014 -0.047092907 -0.14221221 0.25890693
0.06638428 -0.068497226 -0.040166132 0.040424775 -0.025793638 -0.07460942 -5.8389218e-05 0.0049510677
-0.019856248 0.012806774 0.057170246 0.014007895 0.07656128 -0.033652887 -0.05003214 0.06739369
0.0011513478 0.04356341 -0.0009667277 0.0022910947 0.020840595 0.034592174 0.07913988 -0.075684294
-0.075325206 0.028069718 -0.5059273 -0.018282054 0.4046416 0.018363906 0.0018637582 -0.013042972
0.01529919 -0.33958024 -0.3173937 0.060321078 -0.19474831 -0.05157946 0.15157571 -0.034592614
0.002191331 -0.23191193 -0.18986008 -0.2806591 -0.13799948 -0.5249272 -0.08447126 -0.082398124
-0.038496103 -0.12474277 0.039494745 -0.001954841 -0.03770736 0.05289247 -0.17503075 -0.5965483
-0.059810292 -0.42739716 -0.1237 0.060354568 0.023184555 0.09975029 0.09702881 0.024792355
0.13706331 -0.16420989 -0.006422589 -0.15415779 -0.011384615 0.024178363 0.0425901 0.19728367
0.2021709 -0.20505717 0.33468398 0.1923201 0.058946837 0.26113355 -0.023904912 -0.11384528
0.038984884 -0.04974949 0.10200628 -0.24161547 0.1233205 1.088158 -0.13726372 0.73033375
-0.15559447 -0.13716808 0.041375518 -0.048509184 0.037237868 -0.4386594 0.65715873 0.14755216
-0.3127714 0.23815192 -0.36961922 -0.016929463 -0.0030813906 -0.046107333 -0.044488333 -0.51110095
0.65974635 -0.0023276669 -0.2642444 -0.042222243 -0.1419942 -0.008319791 0.033582713 0.08371606
0.10308041 -0.0759783 0.74010533 -0.03990248 0.014894075 -0.06831332 0.03170091 0.02229016
0.046427574 -0.018048909 0.061549995 -0.013490842 0.1440057 -0.03340938 -0.15768375 -0.0053616636
0.18736024 0.1149715 0.05295487 0.021361597 -0.0019934115 0.0692348 0.23724277 -0.01850476
-0.19182648 0.18492544 0.10004168 0.0047660912 -0.00418134 0.03490485 -0.052544773 0.05084305
0.52404433 0.0030554489 -0.04596488 0.12014365 0.095186956 -0.09322025 0.044829644 -0.034294065
-0.006699628 -0.042132556 -0.07284163 0.112947516 -0.28344557 -0.16026461 -0.0083839735 0.012536136
0.011989443 0.14781016 -0.18531586 0.0069720885 0.029240636 -0.08845577 -0.004632721 0.22074562
-0.1374604 -0.08284686 0.05334833 -0.026975859 -0.05572481 -0.0033886489 -0.045728516 -0.025492344
0.0338587 -0.0009308135 -0.027328923 0.06960323 0.040700257 0.03186574 -0.0015071919 0.098670915
-0.065878615 0.09907606 0.033286784 -0.13640538 0.01559998 0.0396735 0.00095095264 -0.19070025
-0.2080033 -0.06479333 0.0023390946 0.032303985 0.029929211 -0.071995 -0.06768263 0.0085837245
0.024873901 -0.014568074 0.0045239823 -0.10338941 -0.038190957 -0.041383684 -0.016960196 0.016352663
-0.050444856 0.10356513 -0.19211248 -0.031632602 0.010856035 -0.012588108 0.0013192516 0.116620004
-0.041409522 -0.010219791 -0.021810832 -0.049581144 0.0051894533 -0.03447599 -0.03210819 0.023266537
0.010311328 0.07706051 0.0192947 0.12220106 -0.03890297 0.0027442384 0.0027661086 -0.0061309584
00000000: 6a24 1b3e 645d 193b 755b a0be 8273 a83d
00000010: 88af c3be fc83 c7be ee65 91bc bdd3 913e
00000020: 5259 8f3e 545c 43bf 9d85 413f 0221 053f
00000030: 0362 0a3e d7de 8b3e 0405 193e 25a3 5dbe
00000040: ea64 963d 54e5 57bb 98cc c4bc 9ec9 d63d
00000050: 378c 843c 7ee4 40bd 14a0 11be 738f 843e
00000060: 7bf4 873d 4648 8cbd 3e85 24bd 7394 253d
00000070: 2e4d d3bc d3cc 98bd f2e6 74b8 913c a23b
00000080: 92a9 a2bc 81d3 513c 592b 6a3d 5f81 653c
00000090: 29cc 9c3d 9cd7 09bd 80ee 4cbd b405 8a3d
000000a0: d2e8 963a 8c6f 323d ff6b 7dba 3126 163b
000000b0: e5b9 aa3c 86b0 0d3d 1714 a23d 5e00 9bbd
000000c0: 1a44 9abd 77f2 e53c 7484 01bf 3fc4 95bc
000000d0: 2f2d cf3e e76f 963c 5949 f43a 31b2 55bc
000000e0: 74a9 7a3c 76dd adbe 6d81 a2be 3c13 773d
000000f0: 1a6c 47be fc44 53bd aa36 1b3e fcb0 0dbd
00000100: 6f9c 0f3b 527a 6dbe ae6a 42be 8db2 8fbe
00000110: bc4f 0dbe a161 06bf 45ff acbd 59c0 a8bd
00000120: 17ae 1dbd 2379 ffbd 3ec5 213d ca1c 00bb
00000130: 0873 1abd c6a5 583d 433b 33be 64b7 18bf
00000140: a3fb 74bd cdd3 dabe 6d56 fdbd 5a36 773d
00000150: 89ed bd3c e149 cc3d 0ab7 c63d 5619 cb3c
00000160: 535a 0c3e a326 28be 9574 d2bb 8adb 1dbe
00000170: 8986 3abc b411 c63c f572 2e3d bb04 4a3e
00000180: e305 4f3e 82fa 51be b35b ab3e 8fef 443e
00000190: 3d72 713d 4cb3 853e 3cd4 c3bc b727 e9bd
000001a0: 9dae 1f3d 1fc6 4bbd abe8 d03d 0c6a 77be
000001b0: 758f fc3d c348 8b3f dc8e 0cbe 27f7 3a3f
000001c0: 2854 1fbe ca75 0cbe 6079 293d 91b1 46bd
000001d0: bc86 183d f797 e0be 8e3b 283f ea17 173e
000001e0: 9323 a0be 19de 733e bb3e bdbe a8af 8abc
000001f0: 28f1 49bb 0bdb 3cbd 6639 36bd 83d7 02bf
00000200: 23e5 283f c58b 18bb 0b4b 87be 3bf1 2cbd
00000210: ed66 11be bc4f 08bc 078e 093d 5373 ab3d
00000220: d21b d33d 839a 9bbd 8b77 3d3f c870 23bd
00000230: 4706 743c dbe7 8bbd d0d8 013d db99 b63c
00000240: d72a 3e3d 4edb 93bc d91b 7c3d b108 5dbc
00000250: 3b76 133e 46d8 08bd d977 21be e5b0 afbb
00000260: 5ddb 3f3e 2e76 eb3d 35e7 583d 84fe ae3c
00000270: e5a3 02bb faca 8d3d c5ef 723e 4b97 97bc
00000280: 296e 44be 185d 3d3e a7e2 cc3d df2c 9c3b
00000290: 9f03 89bb 63f8 0e3d 3039 57bd cd40 503d
000002a0: c527 063f ed3d 483b ac45 3cbd e00d f63d
000002b0: 61f1 c23d 42ea bebd 4a9f 373d ef77 0cbd
000002c0: 8e88 dbbb 3093 2cbd fe2d 95bd 0751 e73d
000002d0: c71f 91be 681c 24be ef5c 09bc 5e64 4d3c
000002e0: 5e6f 443c 8c5b 173e 71c3 3dbe 1e76 e43b
000002f0: 0f8a ef3c 4c28 b5bd 15ce 97bb 240b 623e
00000300: 6bc2 0cbe 9dab a9bd c783 5a3d 7afc dcbc
00000310: b33f 64bd 1814 5ebb d34d 3bbd 52d5 d0bc
00000320: 6caf 0a3d d601 74ba e8e0 dfbc 238c 8e3d
00000330: 50b5 263d a685 023d f88c c5ba fa13 ca3d
00000340: 5eeb 86bd 64e8 ca3d b957 083d daad 0bbe
00000350: 0f97 7f3c ae80 223d 5a49 793a ed46 43be
00000360: d1fe 54be 5eb2 84bd 7f4b 193b 2f51 043d
00000370: 1b2e f53c 1d72 93bd 319d 8abd c0a2 0c3c
00000380: 5ac4 cb3c eeae 6ebc ea3d 943b d4bd d3bd
00000390: 1f6e 1cbd f081 29bd 1cf0 8abc 05f6 853c
000003a0: 449f 4ebd f419 d43d 22b9 44be 3091 01bd
000003b0: 83dd 313c 5a3e 4ebc bdea ac3a 78d6 ee3d
000003c0: 089d 29bd e970 27bc a1ac b2bc 9915 4bbd
000003d0: 4a0c aa3b b236 0dbd e183 03bd 7799 be3c
000003e0: d8f0 283c e7d1 9d3d eb0f 9e3c 8d44 fa3d
000003f0: b858 1fbd aed8 333b 9a47 353b 35e6 c8bb

shared.0.bias f4 [256]
0.018795913 0.0040631527 0.047523886 -0.07248034 0.060275774 0.0020690458 -0.0055422876 -0.029703414
0.01191085 0.026105575 -0.0020186787 0.058748856 0.023816176 -0.008463529 -0.011887474 0.07191644
0.009828045 -0.0044337553 0.0022040403 0.027626652 -0.005532995 -0.03671481 -0.00020271476 -0.025056558
0.02574424 0.024680562 -0.024445493 0.026494058 0.009919807 -0.012693021 -0.04352055 0.0038381042
-0.02959638 0.0030112434 0.04573416 -0.031084696 0.03965921 -0.0026741882 -0.03850503 0.035279214
-0.05677473 0.0089754695 0.0051267 -0.04817466 -0.046610214 0.029452287 0.05049114 -0.027973467
0.04555046 0.02473054 0.02637236 0.028139729 0.0071191 0.03028712 -0.0022206209 0.0011274801
0.03882484 -0.0019963433 -0.022676092 0.041379016 0.01121045 0.01426301 0.05960363 -0.036959756
-0.0003121171 -0.025412893 -0.014401584 0.013041216 0.021149311 0.01573952 0.01979184 -0.02809818
0.024394797 0.0067712055 -0.016107513 -0.019870505 -0.002509278 -0.04723504 0.06113003 0.043943092
0.041199904 0.050053317 0.017635427 -0.026996193 -0.068355806 0.059036314 -0.05139785 0.048074666
0.004225276 -0.017318139 -0.050478574 0.0051055783 0.0651486 -0.04066022 -0.048897304 -0.006893773
-0.021498894 0.041030988 0.023075163 0.024954116 0.077338845 0.020621795 0.03586181 -0.005949308
0.03601018 -0.022259165 -0.04160929 -0.006606567 -0.022497142 -0.02253928 0.011049501 -0.0011345352
0.011043664 -0.008196595 0.015796758 -0.052491166 -0.00901709 -0.080175586 -0.050012305 0.052174773
-0.019268582 0.041635916 -0.043610126 -0.055612497 -0.01240835 -0.029424118 -0.0020642837 -0.01724645
-0.0033880346 -0.046891488 -0.034742948 0.015573654 -0.055675708 0.033299938 -0.00804416 -0.050796766
-0.07356533 0.011326 0.07200088 0.06013749 0.02543976 -0.06801389 0.05853813 0.02198175
-0.05602969 0.014217817 0.049600422 -0.06506717 -0.01969361 0.008646243 0.05171853 0.051750094
0.06879952 0.02043485 0.026273303 -0.021331338 0.01605091 0.05023792 0.00531396 0.018585676
0.0079745995 -0.004782101 0.015502467 -0.036547437 -0.011903309 0.049090993 -0.013138174 -0.020923799
-0.026358768 0.009573176 -0.026889028 -0.02442622 -0.0012510412 -0.06493737 -0.0036808741 0.0014049638
-0.06662872 -0.022089465 0.006991275 0.0073319064 -0.037194103 -0.041306082 0.025585119 -0.019853145
-0.023626404 -0.06305785 -0.04455443 -0.015976243 0.037104566 -0.008773864 -0.021854687 0.014439216
-0.023184666 0.003357953 0.03655635 -0.013086925 -0.033772625 -0.024364589 -0.032141566 0.0105636725
0.030640513 -0.0436222 0.033607405 -0.0069737807 -0.016686453 -0.000368188 -0.046674836 0.02785943
-0.0464603 -0.024332166 -0.02418074 -0.009551306 0.029051501 0.034977403 0.004799636 0.006339048
-0.007315437 -0.0044635423 0.03994773 -0.05917899 -0.018673897 0.04194951 -0.026063634 -0.049973488
0.0013432803 -0.037424125 0.045914195 -0.07044056 0.08933898 -0.008170465 0.029681886 -2.1587408e-05
0.035188347 0.019627739 0.004476625 -6.127812e-05 0.060628403 -0.04722746 0.0029167403 -0.016522262
0.036382705 -0.036047388 -0.04871647 -0.0074442476 -0.052384384 0.023927448 0.01710989 -0.054608155
0.014189489 0.029713653 0.0032162105 0.064510934 -0.01249518 -0.026734613 0.06956125 0.040240377
00000000: e3f9 993c 3224 853b 68a8 423d 9370 94bd
00000010: bbe3 763d d498 073b 149c b5bb 9354 f3bc
00000020: ba25 433c 5cdb d53c cf4b 04bb a4a2 703d
00000030: 241a c33c 9daa 0abc aec3 42bc ed48 933d
00000040: cf05 213c 0949 91bb a971 103b 4a51 e23c
00000050: 204e b5bb 4562 16bd d48f 54b9 6943 cdbc
00000060: 96e5 d23c e42e ca3c ea41 c8bc 110a d93c
00000070: b086 223c 64f6 4fbc 9b42 32bd b488 7b3b
00000080: 1c74 f2bc 4858 453b be53 3b3d 55a5 febc
00000090: b271 223d 6f41 2fbb 73b7 1dbd f080 103d
000000a0: 9f8c 68bd d90d 133c e0fd a73b cb52 45bd
000000b0: 5aea 3ebd ec45 f13c cccf 4e3d 9d28 e5bc
000000c0: 1f93 3a3d b497 ca3c d90a d83c 4a85 e63c
000000d0: 5747 e93b b21c f83c d687 11bb f4c7 933a
000000e0: cc06 1f3d 15d5 02bb 36c3 b9bc 0b7d 293d
000000f0: 09ac 373c 66af 693c f022 743d 1d63 17bd
00000100: a6a3 a3b9 b32e d0bc 9ff4 6bbc d3aa 553c
00000110: 5241 ad3c 2af0 803c 7f22 a23c 282e e6bc
00000120: 99d7 c73c fde0 dd3b e7f3 83bc 78c7 a2bc
00000130: b372 24bb 8879 41bd 7b63 7a3d acfd 333d
00000140: 3bc1 283d b504 4d3d 2c78 903c 1f27 ddbc
00000150: 21fe 8bbd 10d0 713d 8d86 52bd f1e9 443d
00000160: 2f74 8a3b c5de 8dbc 9fc2 4ebd b24c a73b
00000170: a16c 853d 558b 26bd 8a48 48bd 29e5 e1bb
00000180: 731e b0bc 1c10 283d 2008 bd3c 936c cc3c
00000190: d463 9e3d 0aef a83c d5e3 123d 6af2 c2bb
000001a0: 697f 133d da58 b6bc 816e 2abd e77b d8bb
000001b0: ed4b b8bc 4ca4 b8bc f708 353c afb4 94ba
000001c0: 7cf0 343c 034b 06bc 3468 813c fa00 57bd
000001d0: 6bbc 13bc 1933 a4bd b4d9 4cbd 37b5 553d
000001e0: 25d9 9dbc 6c8a 2a3d 88a0 32bd eec9 63bd
000001f0: 644c 4bbc d90a f1bc ef48 07bb 6d48 8dbc
00000200: ca09 5ebb 4a11 40bd 9f4e 0ebd a428 7f3c
00000210: 360c 64bd 8465 083d a7cb 03bc 4510 50bd
00000220: 6ba9 96bd b090 393c 3375 933d bb52 763d
00000230: 0b67 d03c de4a 8bbd aec5 6f3d 1213 b43c
00000240: 637f 65bd d9f1 683c d029 4b3d f041 85bd
00000250: 7e54 a1bc f9a8 0d3c cfd6 533d e8f7 533d
00000260: c3e6 8c3d fd66 a73c 1c3b d73c 0fbf aebc
00000270: 337d 833c 47c6 4d3d ba20 ae3b fd40 983c
00000280: e5a7 023c 2cb3 9cbb 0ffe 7d3c c4b2 15bd
00000290: 1906 43bc a313 493d 7f41 57bc 6368 abbc
000002a0: 58ee d7bc cfd8 1c3c 6146 dcbc 7f19 c8bc
000002b0: faf9 a3ba e2fd 84bd d23a 71bb c326 b83a
000002c0: a374 88bd f7f4 b4bc 1117 e53b 7d40 f03b
000002d0: d858 18bd 9130 29bd e297 d13c 10a3 a2bc
000002e0: 298c c1bc 7924 81bd b57e 36bd 9ce0 82bc
000002f0: f5fa 173d 41c0 0fbc 9a08 b3bc 7692 6c3c
00000300: c5ed bdbc 1a11 5c3b 1cbc 153d 8b6a 56bc
00000310: 2a55 0abd 3f98 c7bc e0a6 03bd 4113 2d3c
00000320: d001 fb3c 31ad 32bd eba7 093d 5084 e4bb
00000330: 07b2 88bc 5b09 c1b9 1d2e 3fbd 7639 e43c
00000340: 284d 3ebd 4054 c7bc b016 c6bc 157d 1cbc
00000350: 6afd ed3c 7744 0f3d 4446 9d3b cab7 cf3b
00000360: 55b6 efbb e842 92bb 3ba0 233d ab65 72bd
00000370: 00fa 98bc 40d3 2b3d 6783 d5bc 00b1 4cbd
00000380: 0211 b03a 0a4a 19bd 8610 3c3d 2443 90bd
00000390: 5bf7 b63d 6add 05bc 6d27 f33c 9b16 b5b7
000003a0: a821 103d 5aca a03c a7b0 923b 7182 80b8
000003b0: 7d55 783d 9571 41bd c826 3f3b b259 87bc
000003c0: 0806 153d 6da6 13bd ec8a 47bd e0ee f3bb
000003d0: 0291 56bd 7f03 c43c 0a2a 8c3c cdac 5fbd
000003e0: 087b 683c 0c6a f33c 0fc7 523b 4f1e 843d
000003f0: 95b8 4cbc 8c02 dbbc 2176 8e3d 18d3 243d

shared.1.weight f4 [256]
1.0616053 0.9605574 0.96423376 0.9204712 0.99097735 1.0132245 1.0132232 0.9830751
0.96601015 0.9588068 1.0243243 1.042586 0.98277986 0.96966684 1.0136385 1.2313882
0.98710966 0.97449404 0.9740294 1.0771152 1.0013318 1.2305948 0.9584569 0.9785061
0.97931993 0.95548433 1.0038347 0.9695725 0.97363514 1.0104473 0.98237646 1.0158873
0.9978192 1.0241848 1.0952832 0.9708982 0.98228353 1.0344895 1.0389817 1.0379827
0.94367945 1.0312849 0.97873324 1.0076914 0.96163076 1.0221261 1.0185473 1.0034459
0.9296084 0.96952623 0.96914226 1.0410234 1.0052738 1.0120357 0.9975888 0.9796281
0.9763169 1.0243968 1.0106254 0.9984293 0.97012174 1.0222627 0.9308852 1.0058371
0.93708986 0.9687592 0.9736774 1.0255653 0.97165334 1.0002536 0.9970235 0.9629733
0.95254827 1.0329322 1.0196422 0.9763886 1.0104114 0.9623063 0.9763457 0.97934866
1.0502949 1.0019478 0.9548688 0.9717436 1.0092323 0.9499997 0.9866604 0.9934549
0.99835753 0.9710948 0.9888398 0.9391799 1.3356619 0.98868155 1.0213454 1.3216304
0.9809335 1.0852281 1.0305897 0.96936864 1.0067006 1.0074254 0.9754138 1.029059
1.0279068 0.98183316 0.97309214 1.0386208 1.012604 1.0101683 0.99257886 1.0350319
1.0714371 0.97406185 0.9335779 0.95085716 1.0146952 0.97943467 0.982837 0.9851639
0.96960574 0.971122 0.9689142 0.9826504 0.9724857 1.0719362 0.98074275 0.96027374
1.0481802 0.9546842 0.95006275 0.9790948 0.989945 1.0205958 0.98258954 0.9851716
0.9930081 0.96446186 1.0461004 1.2626945 1.0069124 0.9452063 1.0137457 0.966978
1.0373925 1.0014734 0.9755655 0.98778707 1.0065217 1.0058197 1.0663687 1.1140723
0.96762776 0.9652708 0.97705954 0.9996458 1.0325061 0.9731886 0.9992209 1.0758125
1.0041531 1.0101167 0.9947794 1.0040996 0.9776375 1.0296965 0.97304595 1.0236087
0.9575816 1.0106782 1.043076 0.99675775 0.9859218 0.97749394 1.0877293 0.9973737
0.95224285 0.9267503 0.9835971 1.0585672 0.9938787 0.9923816 0.99256307 0.992007
1.0071043 0.98678553 1.03531 1.0857133 1.0083268 0.98689485 1.0044295 0.95628476
0.9937857 1.1049552 1.0306146 0.9804581 0.9836861 0.9999767 1.029935 0.9891124
1.0415533 0.95582694 1.0115217 1.1466825 0.9810664 1.0033667 1.04462 1.0900708
1.0278935 1.1306825 1.178997 1.0324835 0.96972317 1.0502579 0.9501415 1.083368
0.9510701 0.985925 0.9593901 1.1394885 0.9807837 0.9837807 1.0048457 0.9953805
0.9936359 0.96361786 1.0059463 1.0082614 1.1336113 1.031997 0.98880684 0.9888112
1.018937 0.927479 0.95899475 1.0063616 0.9804273 0.96507984 0.9735008 0.96532196
1.3507826 0.9462909 0.9932492 0.980673 0.97028244 0.9915374 0.98965025 0.9396541
1.0065862 0.9531493 0.9747095 1.128967 1.0163417 0.9783286 0.9943271 0.9811395
00000000: afe2 873f 17e7 753f 06d8 763f 00a4 6b3f
00000010: b1b0 7d3f 57b1 813f 4cb1 813f cfaa 7b3f
00000020: 714c 773f 5d74 753f 0f1d 833f 7573 853f
00000030: 7697 7b3f 163c 783f e8be 813f 219e 9d3f
00000040: 38b3 7c3f 7178 793f fe59 793f e9de 893f
00000050: a42b 803f 2184 9d3f 6e5d 753f 607f 7a3f
00000060: b6b4 7a3f 9f9a 743f a87d 803f e735 783f
00000070: 2740 793f 5656 813f 067d 7b3f 9808 823f
00000080: 1471 7f3f 7d18 833f 3d32 8c3f c98c 783f
00000090: ef76 7b3f 276a 843f 5afd 843f 9edc 843f
000000a0: fa94 713f 2501 843f 438e 7a3f 08fc 803f
000000b0: 6f2d 763f 07d5 823f c25f 823f ea70 803f
000000c0: d1fa 6d3f df32 783f b519 783f 4140 853f
000000d0: d0ac 803f 638a 813f fb61 7f3f e8c8 7a3f
000000e0: e8ef 793f 6f1f 833f 2c5c 813f 1099 7f3f
000000f0: e659 783f 81d9 823f 7e4e 6e3f 45bf 803f
00000100: 1fe5 6f3f 9a00 783f ec42 793f b945 833f
00000110: 46be 783f 4f08 803f ef3c 7f3f 6b85 763f
00000120: 34da 733f 1f37 843f a383 823f 9af4 793f
00000130: 2955 813f b559 763f cbf1 793f 98b6 7a3f
00000140: 1070 863f d33f 803f 4872 743f 30c4 783f
00000150: 862e 813f 2e33 733f c795 7c3f 0f53 7e3f
00000160: 5c94 7f3f ab99 783f 9b24 7d3f 186e 703f
00000170: f8f6 aa3f 3c1a 7d3f 72bb 823f 2f2b a93f
00000180: 751e 7b3f c1e8 8a3f 5dea 833f 8b28 783f
00000190: 91db 803f 51f3 803f b8b4 793f 35b8 833f
000001a0: 7392 833f 6b59 7b3f 911c 793f 87f1 843f
000001b0: 029d 813f 324d 813f a619 7e3f ed7b 843f
000001c0: da24 893f 1e5c 793f f6fe 6e3f 606b 733f
000001d0: 88e1 813f 3bbc 7a3f 359b 7b3f b433 7c3f
000001e0: 1538 783f 749b 783f c30a 783f fa8e 7b3f
000001f0: d3f4 783f 3535 893f f511 7b3f 80d4 753f
00000200: c52a 863f 2f66 743f 5037 733f f5a5 7a3f
00000210: 096d 7d3f e2a2 823f fd8a 7b3f 3534 7c3f
00000220: c735 7e3f f9e6 763f 9ee6 853f f99f a13f
00000230: 81e2 803f 0af9 713f 6bc2 813f df8b 773f
00000240: 47c9 843f 4830 803f a9be 793f 9ddf 7c3f
00000250: b4d5 803f b3be 803f c57e 883f ec99 8e3f
00000260: 74b6 773f fd1b 773f 9320 7a3f cae8 7f3f
00000270: 2929 843f e322 793f f1cc 7f3f 39b4 893f
00000280: 1788 803f 814b 813f dda9 7e3f 5686 803f
00000290: 7446 7a3f 18cd 833f 8a19 793f 9c05 833f
000002a0: 1124 753f e75d 813f 8483 853f 842b 7f3f
000002b0: 5f65 7c3f 0b3d 7a3f b73a 8b3f e253 7f3f
000002c0: 30c6 733f 823f 6d3f 05cd 7b3f 217f 873f
000002d0: d66e 7e3f b80c 7e3f 9d18 7e3f 2cf4 7d3f
000002e0: cbe8 803f fa9d 7c3f 0a85 843f a7f8 8a3f
000002f0: da10 813f 24a5 7c3f 2591 803f 14cf 743f
00000300: bd68 7e3f 2c6f 8d3f 2eeb 833f 4dff 7a3f
00000310: dad2 7b3f 79fe 7f3f e9d4 833f 7836 7d3f
00000320: 9e51 853f 13b1 743f 8b79 813f 7ec6 923f
00000330: 2b27 7b3f 526e 803f 1cb6 853f 7187 8b3f
00000340: 0492 833f 34ba 903f 60e9 963f 6b28 843f
00000350: c73f 783f da6e 863f 793c 733f cdab 8a3f
00000360: 5479 733f 9565 7c3f 979a 753f c2da 913f
00000370: a414 7b3f 0dd9 7b3f c99e 803f 42d1 7e3f
00000380: ec5e 7e3f a9af 763f d9c2 803f b60e 813f
00000390: 2d1a 913f 7a18 843f 7222 7d3f bb22 7d3f
000003a0: 876c 823f 446f 6d3f ae80 753f 75d0 803f
000003b0: 49fd 7a3f 790f 773f 5937 793f 571f 773f
000003c0: 72e6 ac3f 1f40 723f 9445 7e3f 630d 7b3f
000003d0: 6e64 783f 65d5 7d3f b859 7d3f 2c8d 703f
000003e0: d1d7 803f 9801 743f 9086 793f fe81 903f
000003f0: 7c17 823f be73 7a3f 398c 7e3f f52b 7b3f

shared.1.bias f4 [256]
-0.033468816 -0.031614367 0.012642903 -0.072592326 0.0032685006 -0.050705817 -0.047596287 -0.005816342
-0.07861583 -0.050951526 -0.009858726 -0.055860348 -0.03328817 -0.041291427 -0.070398554 -0.008006681
-0.071889065 -0.008762477 -0.02973174 -0.069518775 -0.023358693 0.01839782 -0.016695283 -0.034671992
-0.031761926 -0.0622521 0.005685093 -0.043898776 -0.042927556 -0.035037886 -0.021364328 -0.063599266
-0.055955302 -0.008057773 0.020542523 -0.13111447 -0.034063466 0.01825153 -0.00864617 0.007510364
-0.0664212 -0.01685239 -0.05793393 -0.02476261 -0.033262968 -0.06188449 -0.030409902 -0.03214006
-0.0628048 -0.022166643 -0.044496674 -0.0137770455 -0.021493645 -0.121630326 -0.05668075 -0.0424924
-0.045683037 -0.041760188 -0.047039773 -0.021793367 -0.034472767 -0.0030877723 -0.09050778 -0.06152133
-0.07316278 -0.01847205 -0.051759627 -0.06507138 -0.009698588 0.0058851233 -0.04919383 -0.028505255
-0.027083226 0.0006411417 -0.0110015385 -0.014530722 -0.04939712 -0.09420658 -0.021983147 -0.04188914
0.016414009 0.0038623654 -0.04566632 -0.03777229 -0.11892337 -0.072185785 -0.07740655 -0.05050697
-0.0856593 -0.031186445 -0.025136627 -0.0860749 -0.0010207403 -0.0596059 -0.055314288 -0.0061457823
-0.051991742 -0.13481559 0.014561393 -0.023819499 -0.0030298436 -0.046266653 -0.033490222 -0.036680873
0.014932963 -0.025308458 -0.021733876 -0.007164356 -0.05799631 0.0055555915 -0.03845099 -0.0108446805
-0.054792505 -0.015991643 -0.039051678 -0.050020088 -0.051955577 -0.011883352 -0.0080034435 -0.034422558
-0.03867699 -0.0689635 -0.015530872 -0.04773311 -0.026249295 -0.09568139 -0.0034924205 -0.060079653
-0.06449593 -0.04184928 -0.05603668 -0.01114837 -0.032847535 -0.07066517 -0.022306891 -0.0047656214
-0.0054818396 -0.061173595 0.016246064 -0.01124556 -0.014025882 -0.11236663 -0.014088627 -0.03721651
-0.0042415927 -0.009691123 -0.041136924 -0.022119397 -0.09883524 -0.049962707 -0.0027380912 -0.036100198
-0.018295504 -0.024555672 -0.062803686 -0.003165477 -0.022652663 -0.04090007 -0.016594056 -0.14545994
-0.010830058 -0.017784707 -0.007313594 -0.021403447 -0.03665659 -0.039238244 -0.054437306 0.0060522053
-0.046170335 -0.00728552 -0.05052224 -0.040823553 -0.026852945 -0.024478357 -0.08085051 -0.0584375
-0.031830456 -0.037175383 -0.01355908 -0.07900267 -0.06951847 -0.035857636 -0.061773613 -0.030283483
-0.0239923 -0.044275653 -0.012510126 0.0113350935 -0.011755292 -0.014383321 0.000585352 -0.04771607
-0.047764882 -0.106469244 -0.03314164 -0.06191671 -0.080270186 -0.03381203 -0.065031946 -0.010721812
0.015075749 -0.02899909 -0.049098868 -0.06407364 -0.024287412 -0.021178927 -0.038000725 0.009557791
-0.039327744 -0.027471762 -0.15609021 -0.012803622 -0.03652102 -0.043638967 -0.06335543 -0.089587756
-0.029210309 -0.022617022 -0.012244735 0.0347699 -0.046231385 -0.016467337 -0.054176647 -0.055239856
-0.023346387 -0.022076825 -0.0019071401 -0.015373951 0.006028694 -0.0050394097 -0.018169174 -0.017486509
-0.00034245467 -0.051218994 -0.040895395 -0.083556436 -0.050249137 -0.022436934 -0.05554406 -0.03877797
0.0007406025 -0.011734467 -0.022231322 -0.033984218 -0.06382425 -0.039469384 -0.031104343 -0.08284384
-0.03256658 -0.048110064 -0.063450225 -0.027201155 0.0063527073 -0.022284359 -0.03311052 -0.06734347
00000000: 9916 09bd 117e 01bd 2e24 4f3c 49ab 94bd
00000010: 5734 563b e7b0 4fbd 53f4 42bd 0397 bebb
00000020: 5601 a1bd 8cb2 50bd 7e86 21bc d2cd 64bd
00000030: 2d59 08bd 3321 29bd 1e2d 90bd 742e 03bc
00000040: 933a 93bd 7e90 0fbc fa8f f3bc dc5f 8ebd
00000050: bb5a bfbc 06b7 963c 8cc4 88bc 3804 0ebd
00000060: cb18 02bd 0ffc 7ebd 044a ba3b 34cf 33bd
00000070: ced4 2fbd e383 0fbd 3e04 afbc 5540 82bd
00000080: 6331 65bd c004 04bc cb48 a83c df42 06be
00000090: 2286 0bbd 3c84 953c aaa8 0dbc 8019 f63b
000000a0: d707 88bd 060e 8abc 214c 6dbd f5da cabc
000000b0: c03e 08bd 977a 7dbd 301e f9bc 4ca5 03bd
000000c0: ce9f 80bd d296 b5bc 2542 36bd 1eb9 61bc
000000d0: 7113 b0bc 5219 f9bd 132a 68bd 830c 2ebd
000000e0: 231e 3bbd bb0c 2bbd c7ac 40bd 0188 b2bc
000000f0: 5133 0dbd 395c 4abb 255c b9bd cafd 7bbd
00000100: 5ed6 95bd b252 97bc e701 54bd 2544 85bd
00000110: d4e6 1ebc fed7 c03b 787f 49bd da83 e9bc
00000120: a4dd ddbc 4b12 283a cc3f 34bc 4412 6ebc
00000130: a254 4abd 61ef c0bd 0016 b4bc f293 2bbd
00000140: ac76 863c bd1f 7d3b 9b0c 3bbd 1eb7 1abd
00000150: 198e f3bd 24d6 93bd 5387 9ebd 66e0 4ebd
00000160: 256e afbd b77a ffbc 54eb cdbc 0a48 b0bd
00000170: 5cca 85ba 5125 74bd 3c91 62bd 8f62 c9bb
00000180: 4bf5 54bd 190d 0abe e992 6e3c 1c21 c3bc
00000190: 5790 46bb 1a82 3dbd 0b2d 09bd af3e 16bd
000001a0: 63a9 743c af53 cfbc 3e0b b2bc f9c2 eabb
000001b0: 8a8d 6dbd ae0b b63b c97e 1dbd e3ad 31bc
000001c0: 1b6e 60bd e800 83bc a7f4 1fbd dde1 4cbd
000001d0: 5fcf 54bd 64b2 42bc e020 03bc abfe 0cbd
000001e0: c36b 1ebd bc3c 8dbd 3375 7ebc cb83 43bd
000001f0: c308 d7bc 9bf4 c3bd 18e1 64bb 1516 76bd
00000200: 7116 84bd 276a 2bbd b886 65bd a7a7 36bc
00000210: 238b 06bd e7b8 90bd f1bc b6bc ee28 9cbb
00000220: 01a1 b3bb 2a91 7abd 7716 853c 4c3f 38bc
00000230: d0cc 65bc 7a20 e6bd fcd3 66bc 5770 18bd
00000240: 0ffd 8abb 84c7 1ebc 317f 28bd bd33 b5bc
00000250: 216a cabd b2a5 4cbd 8c71 33bb cddd 13bd
00000260: 74e0 95bc fa28 c9bc 389f 80bd e473 4fbb
00000270: 1492 b9bc d586 27bd 42f0 87bc 73f3 14be
00000280: 8e70 31bc 3cb1 91bc e0a6 efbb 4856 afbc
00000290: 3825 16bd 48b8 20bd a7f9 5ebd 9451 c63b
000002a0: 1b1d 3dbd 5fbb eebb 69f0 4ebd 9936 27bd
000002b0: b5fa dbbc d686 c8bc f494 a5bd 295c 6fbd
000002c0: a760 02bd 3745 18bd e726 5ebc 27cc a1bd
000002d0: b35f 8ebd 75df 12bd 5406 7dbd 1115 f8bc
000002e0: 808b c4bc 635a 35bd 46f7 4cbc d4b6 393c
000002f0: 4599 40bc 05a8 6bbc 4f72 193a ed71 43bd
00000300: 1ca5 43bd 8c0c dabd 87bf 07bd 609c 7dbd
00000310: b264 a4bd 7c7e 0abd 782f 85bd 8aaa 2fbc
00000320: 4600 773c 808f edbc e51b 49bd 0a39 83bd
00000330: 65f6 c6bc 6e7f adbc a6a6 1bbd 4898 1c3c
00000340: 2116 21bd 760c e1bc 1dd6 1fbe 48c6 51bc
00000350: 1197 15bd c6be 32bd 7ec0 81bd c979 b7bd
00000360: 754a efbc 5547 b9bc 249e 48bc e26a 0e3d
00000370: 1f5d 3dbd 82e6 86bc 55e8 5dbd 3043 62bd
00000380: ec40 bfbc 75da b4bc 01f9 f9ba 06e3 7bbc
00000390: 5a8c c53b a221 a5bb 85d7 94bc de3f 8fbc
000003a0: 7d8b b3b9 02cb 51bd ee81 27bd a31f abbd
000003b0: 0ad2 4dbd a9cd b7bc 2b82 63bd a6d5 1ebd
000003c0: fe24 423a ec41 40bc 761e b6bc 0933 0bbd
000003d0: 4ab6 82bd a6aa 21bd 89ce febc 08aa a9bd
000003e0: 8964 05bd 0f0f 45bd 31f2 81bd f5d4 debc
000003f0: 5f2a d03b b08d b6bc e69e 07bd 60eb 89bd

shared.3.weight f4 [256, 256]
-0.014505377 0.04265173 0.039448272 -0.021845927 -0.04440577 -0.050298408 0.063637026 0.0039455676
0.030840412 0.012737057 -0.0777614 0.0086123925 0.04413073 0.03231272 0.041554272 0.023290595
0.0017401216 0.05591222 -0.06548277 -0.023551697 0.0002720609 0.0831506 -0.08272596 -0.066741325
0.05977429 0.08838015 -0.006477407 0.0019125132 -0.004470778 0.022469312 -0.0022955777 0.06191952
-0.018981555 0.040790018 0.03907058 -0.04695099 -0.054880448 0.09843062 0.021319447 -0.033557273
-0.02534469 0.026051113 -0.03987234 -0.05135333 0.024316086 0.033152822 0.03128858 -0.03788225
0.06546205 -0.042295814 0.041591495 -0.06120801 -0.011827731 0.013735678 0.0031330239 0.0066293045
-0.010015661 0.052174613 0.010599813 0.084730245 0.029150095 -0.003188873 -0.0034287649 -0.019096874
0.08673628 -0.06062222 -0.037821926 0.03527125 -0.07173652 -0.0509075 0.081567585 0.021207297
-0.048588116 0.006211776 0.0010973349 0.056900017 -0.014831654 -0.013202514 0.00810266 -0.016776685
0.023916071 0.037488192 0.08053688 0.024706852 -0.030574748 -0.019453531 0.022844473 -0.06178202
-0.022415118 -0.015273416 0.010219202 -0.03663243 -0.041534018 -0.027590528 -0.014986154 0.03935925
-0.04773907 0.04545132 0.03726138 0.025642395 0.01889154 0.029629288 -0.03164089 -0.032374628
0.02823055 0.014528675 0.07723531 -0.008685417 -0.010580035 0.05280506 0.0038544394 -0.0016565805
0.0076436764 0.00067579426 -0.031719197 0.028681662 0.047414206 -0.04352116 0.025008982 -0.009871655
0.0024236871 0.061272107 -0.022830404 0.052835885 0.06332563 -0.068442054 -0.030675013 -0.057484612
0.052810255 0.016056955 -0.0004266975 -0.012273729 -0.036325514 0.023703499 0.040297538 -0.010843664
-0.033470917 0.0435325 0.07364932 0.03000036 -0.012298036 0.0355965 0.0022528127 -0.035524365
0.031137237 0.0056036785 -0.056181524 0.02476819 -0.06844382 -0.009242956 0.100104496 0.051915616
0.047966175 -0.018429196 0.006609589 0.045289967 -0.027530272 -0.026358254 -0.013986768 -0.01830117
0.019250803 0.036239438 -0.03396652 -0.034413796 0.055143483 -0.03986087 -0.067927524 -0.08938159
-0.046684086 0.00767139 -0.07050065 0.04432145 -0.008011507 -0.063946806 0.024470268 -0.04768417
0.06626957 0.07033429 -0.058420796 -0.005681773 -0.07048093 0.02231416 0.017272066 -0.05104172
-0.02567749 -0.04410028 -0.023560148 -0.005753057 -0.006146895 0.04129119 -0.012204187 0.027680984
0.00051453925 0.057363648 0.016761642 0.033754963 0.09506877 0.044717796 -0.05423157 0.07251675
0.020895325 -0.041948482 0.011373452 0.030601207 -0.06986173 -0.034129027 -0.0065602544 0.07283028
-0.08577234 0.020240383 0.0439379 -0.05213403 -0.004402057 -0.029310625 -0.025650885 0.06387947
0.029845975 -0.05851962 -0.020134635 0.06250601 0.022798102 -0.0903544 0.035421092 -0.033256568
-0.027263012 -0.05173967 -0.04240313 -0.0567326 0.0070994524 -0.014454797 0.035130564 -0.03004753
-0.034589984 0.08704179 0.07029824 0.07856156 0.009527452 -0.03912236 -0.018834176 0.0023085035
-0.044674385 0.038912218 0.015669467 -0.012014287 -0.0124314455 0.011909785 -0.01979565 -0.0841206
-0.059403274 0.0409028 -0.01741961 -0.07665761 0.01846231 -0.058617715 -0.0140295 -0.0005814843
00000000: f6a7 6dbc 95b3 2e3d 8394 213d 3bf6 b2bc
00000010: d3e2 35bd b405 4ebd 2154 823d d249 813b
00000020: 08a5 fc3c 17af 503c 5e41 9fbd fe1a 0d3c
00000030: 6dc2 343d 585a 043d d034 2a3d ebcb be3c
00000040: cb14 e43a 3604 653d d51b 86bd 7def c0bc
00000050: 65a3 8e39 dd4a aa3d 3a6c a9bd adaf 88bd
00000060: e3d5 743d a700 b53d 6e40 d4bb 4bad fa3a
00000070: 9b7f 92bb 9011 b83c 6771 16bb 539f 7d3d
00000080: 357f 9bbc 6f13 273d 7908 203d ae4f 40bd
00000090: 52ca 60bd fe95 c93d 1fa6 ae3c 5a73 09bd
000000a0: ab9f cfbc 2569 d53c 2e51 23bd df57 52bd
000000b0: 8732 c73c 41cb 073d 7428 003d 6b2a 1bbd
000000c0: f810 863d 603e 2dbd d85b 2a3d 40b5 7abd
000000d0: 19c9 41bc 9c0b 613c 6b53 4d3b a33a d93b
000000e0: ba18 24bc 0cb5 553d d7aa 2d3c 0d87 ad3d
000000f0: 2ecc ee3c 69fc 50bb 21b5 60bb 0c71 9cbc
00000100: caa2 b13d 014f 78bd 2aeb 1abd 9678 103d
00000110: 99ea 92bd 6284 50bd e80c a73d edba ad3c
00000120: 5504 47bd 278c cb3b 73d4 8f3a fe0f 693d
00000130: 7700 73bc 5b4f 58bc 05c1 043c 426f 89bc
00000140: a3eb c33c 388d 193d 85f0 a43d 0666 ca3c
00000150: e577 fabc 035d 9fbc 5524 bb3c 250f 7dbd
00000160: e99f b7bc 5a3d 7abc 716e 273c e30b 16bd
00000170: 931f 2abd 8805 e2bc 7c88 75bc 2a37 213d
00000180: 0b8a 43bd 2a2b 3a3d 649f 183d 0010 d23c
00000190: 6ec2 9a3c 1fb9 f23c e199 01bd 429b 04bd
000001a0: c143 e73c ae09 6e3c 8c2d 9e3d 474d 0ebc
000001b0: e257 2dbc 1e4a 583d c39a 7c3b 9e21 d9ba
000001c0: ce77 fa3b c927 313a fdeb 01bd cef5 ea3c
000001d0: 6635 423d 3e43 32bd a3df cc3c b9bc 21bc
000001e0: b9d6 1e3b 76f8 7a3d d406 bbbc 716a 583d
000001f0: deb0 813d 592b 8cbd 2a4a fbbc fc74 6bbd
00000200: 914f 583d e089 833c 5eb6 dfb9 c017 49bc
00000210: 10ca 14bd d72d c23c 080f 253d a0a9 31bc
00000220: cd18 09bd 224f 323d 74d5 963d 51c3 f53c
00000230: b47d 49bc a3cd 113d eda3 133b ff81 11bd
00000240: 8513 ff3c 109f b73b 991e 66bd a9e6 ca3c
00000250: 462c 8cbd c46f 17bc 9603 cd3d 78a5 543d
00000260: 2e78 443d d3f8 96bc 4095 d83b f981 393d
00000270: 2a87 e1bc 44ed d7bc c228 65bc 56ec 95bc
00000280: dcb3 9d3c ce6f 143d 7a20 0bbd 7bf5 0cbd
00000290: 22de 613d 2745 23bd 961d 8bbd b20d b7bd
000002a0: d037 3fbd 4960 fb3b a562 90bd 698a 353d
000002b0: b242 03bc 8bf6 82bd df75 c83c 7a50 43bd
000002c0: 57b8 873d 6d0b 903d a54a 6fbd 2b2e babb
000002d0: 4e58 90bd 2fcc b63c 267e 8d3c 1f11 51bd
000002e0: 9959 d2bc 7fa2 34bd 3601 c1bc 2484 bcbb
000002f0: e46b c9bb f320 293d 12f4 47bc 3bc3 e23c
00000300: 25e2 063a 25f6 6a3d b64f 893c a542 0a3d
00000310: 6ab3 c23d 022a 373d ec21 5ebd a983 943d
00000320: ac2c ab3c 2cd2 2bbd b757 3a3c 62af fa3c
00000330: ab13 8fbd e1ca 0bbd 67f7 d6bb 0b28 953d
00000340: 69a9 afbd 29cf a53c 3af8 333d 7e8a 55bd
00000350: 213f 90bb d61c f0bc ce21 d2bc 3dd3 823d
00000360: 8c7f f43c 45b2 6fbd 64f1 a4bc 2703 803d
00000370: 16c3 ba3c ba0b b9bd b515 113d 0a38 08bd
00000380: ae56 dfbc faec 53bd e8ae 2dbd 7160 68bd
00000390: 86a2 e83b d0d3 6cbc 11e5 0f3d 3d26 f6bc
000003a0: 3aae 0dbd f742 b23d 86f8 8f3d e2e4 a03d
000003b0: 0819 1c3c c53e 20bd 214a 9abc 434a 173b
000003c0: 7dfc 36bd 6b62 1f3d 415d 803c 92d7 44bc
000003d0: 43ad 4bbc 4221 433c 7d2a a2bc 6c47 acbd
000003e0: d950 73bd b289 273d 92b3 8ebc aafe 9cbd
000003f0: 453e 973c 2119 70bd fddb 65bc c06e 18ba

shared.3.bias f4 [256]
-0.0481235 -0.0691566 -0.011424988 0.05607465 0.016462917 -0.033860292 -0.061242606 -0.028612506
0.045549627 0.056062542 -0.029988552 0.054861337 0.023016931 -0.05004968 0.005889558 -0.017446527
0.001578478 -0.059420455 -0.037340257 0.0037437296 -0.01878505 0.014666312 -0.037762996 0.06580189
0.028450621 0.05766229 -0.0016317378 0.038906306 0.028007261 -0.02756837 -0.033491492 0.045641586
0.020089887 0.04914728 0.03696788 -0.032837223 0.04409701 0.034996044 -0.049670715 -0.052914802
0.028847475 0.03480001 -0.0064099017 0.028545337 -0.045878995 -0.027969431 -0.021556327 -0.032444317
0.04647905 0.0471588 0.018769786 0.05323373 0.032871675 -0.014438583 -0.020991767 0.020046769
-0.017397337 0.064982586 -0.058023542 0.011354719 -0.048286427 -0.05378286 -0.063419476 -0.044576142
0.036842477 -0.004778661 -0.05920325 0.020190269 0.008149007 0.053247496 -0.055878695 0.021859959
-0.035861693 -0.020885974 -0.027576184 -0.012401722 -0.04837895 -0.04303977 -0.024321945 0.015137261
-0.025851298 0.026981119 0.0056695715 -0.042524617 -0.039191727 0.05573355 0.054055735 5.6239103e-05
-0.033784613 0.0057958756 -0.02637786 0.034705453 0.041041933 0.0024141322 0.021214752 -0.045591827
0.016930396 0.041896567 -0.013036683 -0.019426227 -0.013332788 -0.021412265 0.030190043 0.010987702
-0.04516481 0.048116066 -0.025036184 -0.0023444402 -0.053542532 -0.018659065 -0.044427034 0.0378716
0.04001776 -0.02045417 -0.07733871 0.05286297 -0.022319203 0.0020902017 -0.024751745 0.039332826
0.058270406 0.026619254 -0.048013683 -0.050998326 -0.061667614 -0.012416745 -0.041517556 -0.051516153
0.030402806 0.020659072 -0.008357015 0.058255035 -0.040835798 0.0065957736 -0.012566641 0.010427168
-0.020786494 0.029410973 0.0007546153 -0.056292146 -0.051490743 0.04357856 -0.012042379 0.024227457
0.041387223 0.048241723 -0.04924282 0.036335465 -0.04523067 -0.0063828817 -0.0033458134 -0.015700642
-0.009581839 0.03544116 -0.036524434 -0.04299454 -0.011998518 0.008990737 0.051961303 -0.016195115
0.055475663 0.02795684 -0.025669765 0.016992018 -0.05945341 0.028968284 -0.04179764 0.015408086
-0.030930346 -0.059215553 -0.033123117 0.03498983 -0.03963678 0.020412618 0.021846248 -0.02012356
-0.04804665 0.054224044 -0.056379355 0.03621781 0.031425834 -0.04411133 -0.058031455 -0.0010295528
0.022809299 0.015270376 -0.055401627 -0.0013281615 0.054181803 -0.06430412 0.0585022 0.020366343
0.03979697 0.010814078 0.048757963 0.059705485 0.06210772 0.053616162 -0.014118408 -0.024932235
0.036907908 -0.058168553 0.0035849873 0.02278869 0.020203104 -0.0004318434 0.016873127 0.038424432
0.0071067596 0.05882715 -0.028916946 -0.032788057 -0.043186143 0.0026659768 -0.024061365 0.0028652973
-0.03414103 -0.0300985 -0.020051986 -0.0502116 0.046858273 -0.025370078 0.008640425 0.040099595
0.02021482 -0.043266013 -0.00090323895 0.005622088 0.05277351 -0.04867477 -0.058746483 -0.027268847
-0.03655963 -0.027267998 0.041967206 -0.04611143 0.010752716 -0.0338641 -0.030273493 -0.022530405
0.035747632 0.057157174 0.06079418 -0.04227367 -0.05969941 0.00854787 0.03513876 -0.022723006
-0.05152579 0.014776284 0.048769552 0.039789557 0.046385035 -0.052625436 -0.04248757 -0.016927179
00000000: 261d 45bd faa1 8dbd df2f 3bbc 88ae 653d
00000010: 3ddd 863c 17b1 0abd 87d9 7abd c664 eabc
00000020: 3f92 3a3d d6a1 653d 8daa f5bc 48b6 603d
00000030: 018e bc3c e500 4dbd 31fd c03b 05ec 8ebc
00000040: efe4 ce3a dd62 73bd 19f2 18bd 5c59 753b
00000050: 1be3 99bc f94a 703c 5fad 1abd 24c3 863d
00000060: 4711 e93c 4b2f 6c3d 09e0 d5ba 385c 1f3d
00000070: 7c6f e53c 10d7 e1bc 602e 09bd acf2 3a3d
00000080: 8c93 a43c a94e 493d a26b 173d 5380 06bd
00000090: 119f 343d 0358 0f3d 8573 4bbd 31bd 58bd
000000a0: 8a51 ec3c 758a 0e3d 270a d2bb e9d7 e93c
000000b0: 9deb 3bbd 2620 e5bc e596 b0bc 55e4 04bd
000000c0: d160 3e3d 9629 413d 18c3 993c 9d0b 5a3d
000000d0: 73a4 063d ce8f 6cbc edf6 abbc 1f39 a43c
000000e0: dc84 8ebc 9715 853d 18aa 6dbd 2509 3a3c
000000f0: fdc7 45bd 6b4b 5cbd 12e2 81bd 7995 36bd
00000100: 23e8 163d 5096 9cbb 1b7f 72bd 1066 a53c
00000110: 6a83 053c 0c1a 5a3d 0fe1 64bd a813 b33c
00000120: b6e3 12bd 1019 abbc 73e7 e1bc 9830 4bbc
00000130: 0229 46bd 784a 30bd d13e c7bc 4602 783c
00000140: 1ac6 d3bc 8207 dd3c d0c7 b93b 4b2e 2ebd
00000150: 8187 20bd dd48 643d 8c69 5d3d 47e2 6b38
00000160: bc61 0abd 54eb bd3b 6216 d8bc 4e27 0e3d
00000170: 961b 283d 6b36 1e3b 8fca ad3c 7fbe 3abd
00000180: 9db1 8a3c bc9b 2b3d d097 55bc c023 9fbc
00000190: c471 5abc c668 afbc 1c51 f73c c305 343c
000001a0: bcfe 38bd 5a15 453d af18 cdbc 2ea5 19bb
000001b0: 6a4f 5bbd e5da 98bc 1ff9 35bd 401f 1b3d
000001c0: aae9 233d 818f a7bc c263 9ebd d786 583d
000001d0: c3d6 b6bc c4fb 083b 2cc4 cabc 751b 213d
000001e0: f3ac 6e3d 9f10 da3c ffa9 44bd 9fe3 50bd
000001f0: 2e97 7cbd 9a6f 4bbc 500e 2abd 9a02 53bd
00000200: 4e0f f93c 373d a93c ddeb 08bc d59c 6e3d
00000210: 7043 27bd 5c21 d83b 50e4 4dbc b6d6 2a3c
00000220: 7048 aabc 48ef f03c 60d1 453a 9892 66bd
00000230: f5e7 52bd 6f7f 323d 664d 45bc a978 c63c
00000240: a685 293d 1d99 453d d7b2 49bd 7fd4 143d
00000250: cc43 39bd 7e27 d1bb 6f45 5bbb a29e 80bc
00000260: 25fd 1cbc c02a 113d a59a 15bd 0b1b 30bd
00000270: 6f95 44bc e24d 133c 60d5 543d 9eab 84bc
00000280: 733a 633d be05 e53c 6649 d2bc d832 8b3c
00000290: 6b85 73bd e54e ed3c 0134 2bbd 3272 7c3c
000002a0: a361 fdbc 028c 72bd 1bac 07bd 7f51 0f3d
000002b0: 2d5a 22bd 5d38 a73c e7f6 b23c 2ada a4bc
000002c0: 90cc 44bd 081a 5e3d 0aee 66bd 2059 143d
000002d0: 60b8 003d 15ae 34bd 64b2 6dbd 0ff2 86ba
000002e0: 91da ba3c 9930 7a3c d1ec 62bd b415 aeba
000002f0: bded 5d3d e1b1 83bd 01a0 6f3d 51d7 a63c
00000300: 2602 233d 882d 313c 6eb6 473d bd8d 743d
00000310: aa64 7e3d 9f9c 5b3d e550 67bc b03e ccbc
00000320: bf2c 173d 2642 6ebd 1bf2 6a3b 59af ba3c
00000330: fb80 a53c 0a69 e2b9 8339 8a3c f062 1d3d
00000340: d2df e83b bdf4 703d 3be3 ecbc c54c 06bd
00000350: f4e3 30bd abb7 2e3b 571c c5bc b6c7 3b3b
00000360: 77d7 0bbd 2191 f6bc 1044 a4bc aeaa 4dbd
00000370: 76ee 3f3d e9d4 cfbc 9290 0d3c 793f 243d
00000380: 8d99 a53c b437 31bd 57c7 6cba 7e39 b83b
00000390: 0929 583d 325f 47bd 27a0 70bd eb62 dfbc
000003a0: 8dbf 15bd 2361 dfbc cee5 2b3d 57df 3cbd
000003b0: 292c 303c 15b5 0abd 1e00 f8bc af91 b8bc
000003c0: 1c6c 123d a41d 6a3d 5103 793d 2827 2dbd
000003d0: 5e87 74bd 5e0c 0c3c a9ed 0f3d 9925 babc
000003e0: b50c 53bd 3a18 723c 95c2 473d 60fa 223d
000003f0: 3cfe 3d3d c58d 57bd 7207 2ebd deaa 8abc

shared.4.weight f4 [256]
1.1131476 1.0722977 1.3356562 1.1470766 1.1226631 1.1412153 1.2493695 1.1276428
1.129923 1.1443834 1.2345535 1.2756729 1.2387644 1.1043869 1.1146644 1.1003915
1.1920117 1.0902991 1.2097298 1.0889076 1.2751166 1.1863319 1.1182263 1.1966982
1.1042151 1.1779994 1.1268207 1.2462132 1.1980336 1.2194842 1.1295878 1.2395636
1.177389 1.1601408 1.3022199 1.1446007 1.1818783 1.1746858 1.1568867 1.1474663
1.2112024 1.1010836 1.1534096 1.1983837 1.1161692 1.2341717 1.1456842 1.1965859
1.1684395 1.1600786 1.2565601 1.2025551 1.1468372 1.1103454 1.1529499 1.2857746
1.0711057 1.1091461 1.1668537 1.0852586 1.2202421 1.2465563 1.1335024 1.1792587
1.1647844 1.2115399 1.2387791 1.1876678 1.0804577 1.1374757 1.2318279 1.2011198
1.2610965 1.2537224 1.1893939 1.2322804 1.1094096 1.2197791 1.1588562 1.1805539
1.133957 1.1674887 1.1549461 1.1820111 1.1915995 1.1383363 1.1716307 1.1406413
1.077952 1.3172129 1.1744566 1.184112 1.1060011 1.1450002 1.1410534 1.1489296
1.3084866 1.1816205 1.1125566 1.1623279 1.1220411 1.1619123 1.1063257 1.0816594
1.2008437 1.0719407 1.1148446 1.0905048 1.2191737 1.2972562 1.2347198 1.1054044
1.1122954 1.1737372 1.2993704 1.139197 1.1336095 1.2081518 1.2127851 1.1340793
1.1980572 1.0746199 1.2014844 1.2140517 1.1934274 1.1878992 1.2533506 1.2549088
1.1908561 1.164251 1.2623334 1.1572369 1.4609839 1.1796345 1.1592232 1.2720755
1.2026075 1.1079865 1.1968392 1.1393869 1.196022 1.137665 1.0920447 1.1465625
1.1206692 1.3338532 1.3260055 1.2581587 1.1706256 1.161075 1.1761981 1.2338593
1.1607196 1.1178305 1.23291 1.2186946 1.1436579 1.1415472 1.1996688 1.1449153
1.1451657 1.1763209 1.280646 1.0981811 1.162946 1.1108961 1.1379129 1.1564612
1.1832695 1.1582824 1.2537589 1.1670197 1.2275729 1.1289797 1.2137809 1.3599372
1.1170533 1.0981665 1.2684659 1.1765902 1.0919273 1.1916084 1.1413592 1.1544781
1.1103232 1.3099229 1.1853076 1.2016804 1.1710784 1.1647083 1.1602292 1.1199783
1.1079966 1.0876178 1.103326 1.1931883 1.2232082 1.1117756 1.2285553 1.2122681
1.3005056 1.320776 1.1131679 1.2334789 1.2126738 1.3676305 1.0561677 1.2789761
1.0739665 1.1310995 1.1539884 1.2824792 1.1472282 1.3202271 1.1622853 1.1685572
1.267006 1.108543 1.1436678 1.2059839 1.0889308 1.1816381 1.2638712 1.1338376
1.1500148 1.1870154 1.1274786 1.1140978 1.1221893 1.2670938 1.1387482 1.1115147
1.0948285 1.2837692 1.1387742 1.1196868 1.228105 1.2620717 1.2402529 1.1758299
1.0651891 1.2618275 1.137995 1.1589322 1.0771401 1.1716982 1.2368069 1.2131163
1.2819991 1.2050426 1.2654167 1.1412511 1.173517 1.2593459 1.1250713 1.2071308
00000000: 9f7b 8e3f 0d41 893f c8f6 aa3f 68d3 923f
00000010: 6db3 8f3f 5813 923f 57eb 9f3f 9956 903f
00000020: 51a1 903f 287b 923f d905 9e3f 4049 a33f
00000030: d58f 9e3f 8d5c 8d3f 53ad 8e3f a1d9 8c3f
00000040: d793 983f ec8e 8b3f 6dd8 9a3f 5361 8b3f
00000050: 0537 a33f b9d9 973f 0a22 8f3f 682d 993f
00000060: ec56 8d3f afc8 963f a93b 903f ea83 9f3f
00000070: 2a59 993f 0f18 9c3f 5596 903f 05aa 9e3f
00000080: afb4 963f 7e7f 943f 24af a63f 4782 923f
00000090: ca47 973f 1b5c 963f dd14 943f 2de0 923f
000000a0: ae08 9b3f 4ff0 8c3f eda2 933f a364 993f
000000b0: a2de 8e3f 57f9 9d3f c8a5 923f ba29 993f
000000c0: 6d8f 953f 757d 943f f6d6 a03f 53ed 993f
000000d0: 90cb 923f cc1f 8e3f dd93 933f 4394 a43f
000000e0: fe19 893f 80f8 8d3f 765b 953f c1e9 8a3f
000000f0: e530 9c3f 288f 9f3f 9b16 913f f3f1 963f
00000100: a817 953f bd13 9b3f 5090 9e3f 8005 983f
00000110: 704c 8a3f ce98 913f 89ac 9d3f 4bbe 993f
00000120: 9c6b a13f fa79 a03f 0f3e 983f 5dbb 9d3f
00000130: 2201 8e3f b921 9c3f 6655 943f 641c 973f
00000140: 8125 913f 4570 953f 46d5 933f 244c 973f
00000150: 5586 983f 01b5 913f fff7 953f 8900 923f
00000160: 55fa 893f 6f9a a83f 9854 963f fb90 973f
00000170: 7291 8d3f 5e8f 923f 0a0e 923f 2010 933f
00000180: 7d7c a73f 573f 973f 4168 8e3f 29c7 943f
00000190: 0b9f 8f3f 8bb9 943f 159c 8d3f d173 8a3f
000001a0: 3fb5 993f 5a35 893f 3ab3 8e3f a995 8b3f
000001b0: e20d 9c3f 7e0c a63f 4c0b 9e3f e47d 8d3f
000001c0: b25f 8e3f 053d 963f c551 a63f 35d1 913f
000001d0: 1e1a 913f b8a4 9a3f 8b3c 9b3f 8329 913f
000001e0: f059 993f 258d 893f 3eca 993f 0c66 9b3f
000001f0: 3bc2 983f 150d 983f cb6d a03f daa0 a03f
00000200: f96d 983f 2d06 953f 2494 a13f 5720 943f
00000210: 8501 bb3f 43fe 963f 6d61 943f 5fd3 a23f
00000220: 0bef 993f 80d2 8d3f 0732 993f 6ed7 913f
00000230: 4017 993f 029f 913f 1fc8 8b3f 8fc2 923f
00000240: 1772 8f3f b4bb aa3f 8cba a93f 580b a13f
00000250: 0fd7 953f 1b9e 943f a98d 963f 1aef 9d3f
00000260: 7692 943f 1215 8f3f ffcf 9d3f 2ffe 9b3f
00000270: 6263 923f 381e 923f bf8e 993f 968c 923f
00000280: ca94 923f af91 963f 35ec a33f 3391 8c3f
00000290: 6adb 943f d831 8e3f 21a7 913f ec06 943f
000002a0: 6075 973f 9942 943f 2c7b a03f e760 953f
000002b0: 1c21 9d3f 6882 903f 2c5d 9b3f 6c12 ae3f
000002c0: 9afb 8e3f b890 8c3f 175d a23f 829a 963f
000002d0: 46c4 8b3f a086 983f 0f18 923f f0c5 933f
000002e0: 121f 8e3f 8eab a73f 29b8 973f aad0 993f
000002f0: e6e5 953f 2915 953f 6482 943f 735b 8f3f
00000300: d5d2 8d3f 0f37 8b3f c939 8d3f 65ba 983f
00000310: 1692 9c3f aa4e 8e3f 4d41 9d3f 9a2b 9b3f
00000320: f876 a63f 300f a93f 497c 8e3f a3e2 9d3f
00000330: e538 9b3f 840e af3f 8130 873f 7db5 a33f
00000340: bc77 893f dec7 903f e4b5 933f 4728 a43f
00000350: 60d8 923f 34fd a83f c4c5 943f 4893 953f
00000360: 412d a23f bde4 8d3f b563 923f ae5d 9a3f
00000370: 1662 8b3f eb3f 973f 88c6 a13f 9721 913f
00000380: af33 933f 1ff0 973f 3851 903f c29a 8e3f
00000390: e6a3 8f3f 2130 a23f 80c2 913f 1d46 8e3f
000003a0: 5723 8c3f 8d52 a43f 5ac3 913f e651 8f3f
000003b0: 8b32 9d3f 918b a13f 9bc0 9e3f 9881 963f
000003c0: 1e58 883f 9083 a13f d2a9 913f e457 943f
000003d0: badf 893f 35fa 953f b04f 9e3f 6547 9b3f
000003e0: 8c18 a43f d63e 9a3f 2df9 a13f 8414 923f
000003f0: ce35 963f 3f32 a13f 5602 903f 4383 9a3f
