policy_ckpt/Humanoid-v5/06-06-25_19:08:43/epoch3765_reward5825.33.pt (torch, 912518 bytes, 14 tensors)

policy_logstd f4 [17]
0	0xbf19be6e	-0.600562
1	0xbf2e8410	-0.6817026
2	0xbf3b5595	-0.7317746
3	0xbf1441c0	-0.57912827
4	0xbf46de35	-0.7768281
5	0xbf952394	-1.1651483
6	0xbfb603f1	-1.4219953
7	0xbf23a444	-0.63922524
8	0xbf316fa0	-0.6931095
9	0xbf938627	-1.1525315
10	0xc09e6b01	-4.950562
11	0xbf0362a7	-0.51322407
12	0xbf004a0c	-0.50112987
13	0xbee3e531	-0.44510797
14	0xbeddfd57	-0.43357345
15	0xbef6fc52	-0.4823938
16	0xbed7a92a	-0.4212125

shared.0.weight f4 [256, 348]
0	0x3e1b293c	0.15152448
1	0x3b17ceca	0.0023164027
2	0xbea03ef1	-0.3129802
3	0x3dadaaa1	0.084798105
4	0xbec499e7	-0.38398668
5	0xbec57bce	-0.38571018
6	0xbc98f597	-0.018671794
7	0x3e918d8f	0.28428313
8	0x3e8ee6a4	0.2791034
9	0xbf43560b	-0.76303166
10	0x3f416ff2	0.7556144
11	0x3f053087	0.5202717
12	0x3e0985bb	0.1342992
13	0x3e8c535b	0.27407345
14	0x3e18fbda	0.14939824
15	0xbe5dada5	-0.21648271
16	0x3d98c4c4	0.07459405
17	0xbb56b194	-0.0032759653
18	0xbcc660c6	-0.024216067
19	0x3dd50cef	0.104028575
20	0x3c862927	0.016377045
21	0xbd41095c	-0.047128066
22	0xbe119861	-0.14218284
23	0x3e84687e	0.2586097
24	0x3d872ebf	0.06600713
25	0xbd9114cd	-0.070840456
26	0xbd230929	-0.039803658
27	0x3d2310c2	0.039810903
28	0xbcd6dc7d	-0.026228184
29	0xbd992183	-0.07477095
30	0x3a0fb40f	0.0005481848
31	0x3bb11933	0.0054046153
32	0xbca23fa2	-0.019805733
33	0x3c537000	0.012905121
34	0x3d6a4e3c	0.057203516
35	0x3c56078c	0.013063323
36	0x3d9a527e	0.075352654
37	0xbd0a3eca	-0.033751287
38	0xbd4de721	-0.05026925
39	0x3d86e309	0.06586272
40	0x3b463639	0.0030244722
41	0x3d324226	0.043520115
42	0xba7d7a40	-0.0009669401
43	0x3b22690b	0.0024781849
44	0x3cae92c3	0.021310216
45	0x3d0d2afa	0.034464814
46	0x3da1f83d	0.07908676
47	0xbd98dbea	-0.0746382
48	0xbd9d5cbf	-0.076837055
49	0x3cdae313	0.026719606
50	0xbf018d95	-0.5060666
51	0xbc8b2c42	-0.016988877
52	0x3ecf465b	0.40483364
53	0x3c958daa	0.018256027
54	0x3aeb68ea	0.0017960344
55	0xbc566ba5	-0.013087188
56	0x3c786da6	0.015162861
57	0xbeae1cc6	-0.34006327
58	0xbea349b6	-0.31892174
59	0x3d78d18f	0.060746726
60	0xbe482762	-0.19546273
61	0xbd54cbc0	-0.051952124
62	0x3e1c03ae	0.15235779
63	0xbd0ddad6	-0.034632526
64	0x3b0b2c5a	0.0021236152
65	0xbe6da380	-0.23206902
66	0xbe42af1d	-0.19012113
67	0xbe8fca1a	-0.2808388
68	0xbe0ecfe9	-0.13946499
69	0xbf066ad0	-0.5250673
70	0xbdac2c14	-0.08406845
71	0xbdae5066	-0.085114285
72	0xbd1abb44	-0.037776247
73	0xbdfdabc5	-0.12386278
74	0x3d217e53	0.039427113
75	0xbb07e330	-0.002073478
76	0xbd1aabfa	-0.037761666
77	0x3d59c47a	0.05316589
78	0xbe344291	-0.17603518
79	0xbf18e0c1	-0.5971795
80	0xbd74a258	-0.059725136
81	0xbedb8b02	-0.42879492
82	0xbdfd3fd5	-0.123656906
83	0x3d77c84f	0.060493764
84	0x3cbd5fda	0.023116995
85	0x3dcc3e26	0.099727914
86	0x3dc6d302	0.09708215
87	0x3ccd7976	0.025082331
88	0x3e0c6179	0.13709058
89	0xbe282512	-0.16420391
90	0xbbd26761	-0.006421015
91	0xbe1de8ec	-0.15420884
92	0xbc3a5fbf	-0.011375367
93	0x3cc68984	0.024235494
94	0x3d2e2c18	0.04252252
95	0x3e4a07e1	0.19729568
96	0x3e4f152c	0.2022292
97	0xbe51cfb1	-0.20489384
98	0x3eab6695	0.334767
99	0x3e44fdc0	0.19237423
100	0x3d719b4c	0.058985993
101	0x3e85b7db	0.26116833
102	0xbcc354c3	-0.023844128
103	0xbde915eb	-0.11381134
104	0x3d1f67bd	0.038917292
105	0xbd4d7cf4	-0.050167993
106	0x3dd0cdc6	0.10195498
107	0xbe775e07	-0.24156962
108	0x3dfe558a	0.12418659
109	0x3f8b3d24	1.0878034
110	0xbe0d903e	-0.13824555
111	0x3f3ae416	0.7300428
112	0xbe1fbf9d	-0.15600438
113	0xbe0c3e20	-0.13695574
114	0x3d293270	0.041307867
115	0xbd49d370	-0.04927391
116	0x3d17a8f6	0.037026368
117	0xbee0441d	-0.43801966
118	0x3f28d2e8	0.6594682
119	0x3e16847a	0.14698973
120	0xbea0810b	-0.31348452
121	0x3e733744	0.23751551
122	0xbebd69c7	-0.36994764
123	0xbc8783c8	-0.01654233
124	0xbb4e6145	-0.0031491083
125	0xbd40718c	-0.046983287
126	0xbd3794cc	-0.044819638
127	0xbf028c15	-0.50995
128	0x3f295bfa	0.6615597
129	0xbb1dc8be	-0.002407595
130	0xbe872e3f	-0.2640247
131	0xbd2efd8c	-0.04272227
132	0xbe10a3d2	-0.14124992
133	0xbbfeb96b	-0.0077735684
134	0x3d094727	0.03351512
135	0x3daac6a1	0.08338667
136	0x3dd26676	0.10273449
137	0xbd9c4dbc	-0.07632014
138	0x3f3d9ae6	0.7406448
139	0xbd1fde7d	-0.03903054
140	0x3c6dcb73	0.014513838
141	0xbd8d2e00	-0.068935394
142	0x3d026d0e	0.031842284
143	0x3cb49fc1	0.022048833
144	0x3d3de3f0	0.046359956
145	0xbc99641d	-0.018724496
146	0x3d79482d	0.060859848
147	0xbc5fcf47	-0.013660259
148	0x3e16171b	0.14657252
149	0xbd04bcce	-0.03240662
150	0xbe214ee9	-0.15752758
151	0xbbac75f0	-0.0052630827
152	0x3e3f8c6a	0.18705907
153	0x3de9be86	0.114132926
154	0x3d58a040	0.0528872
155	0x3cad8f37	0.021186454
156	0xbb0f0f90	-0.0021829344
157	0x3d8dcc2d	0.06923709
158	0x3e7273f2	0.23677042
159	0xbcb49fe1	-0.022048892
160	0xbe444142	-0.19165519
161	0x3e40b14d	0.18817635
162	0x3dccdce6	0.100030705
163	0x3b95cbda	0.00457142
164	0xbb8b3c0e	-0.0042491024
165	0x3d0cccc7	0.03437498
166	0xbd5af43a	-0.05345557
167	0x3d4f8c4c	0.050670907
168	0x3f062ff4	0.5241692
169	0x3b857fec	0.0040740874
170	0xbd391d5e	-0.045194022
171	0x3df8683c	0.12129256
172	0x3dc23ee8	0.09484655
173	0xbdc09443	-0.09403279
174	0x3d375855	0.044761974
175	0xbd0cd112	-0.034379072
176	0xbbd61d66	-0.0065342663
177	0xbd2f9c48	-0.04287365
178	0xbd952c8f	-0.072838895
179	0x3de6addb	0.11263629
180	0xbe913064	-0.28357232
181	0xbe23fda2	-0.16014722
182	0xbc0073b1	-0.007840083
183	0x3c43b039	0.01194387
184	0x3c4499a2	0.01199952
185	0x3e160ada	0.14652577
186	0xbe3ed751	-0.18636824
187	0x3bff070b	0.007782822
188	0x3cf4af5d	0.029868776
189	0xbdb67ad5	-0.08910147
190	0xbb97aa0f	-0.004628427
191	0x3e60f00d	0.21966572
192	0xbe0daf4a	-0.13836399
193	0xbda84af7	-0.082174234
194	0x3d5b9ede	0.053618304
195	0xbce606be	-0.028079387
196	0xbd644af5	-0.055735547
197	0xbbbe675e	-0.005810662
198	0xbd3f8692	-0.046759196
199	0xbccade2c	-0.024764143
200	0x3d0bb6c8	0.03410986
201	0xba5c747d	-0.0008409692
202	0xbce13c7a	-0.027494658
203	0x3d8f1363	0.069861196
204	0x3d24825d	0.040163387
205	0x3d0580f5	0.032593686
206	0xbaa49d15	-0.0012559021
207	0x3dca431a	0.0987608
208	0xbd874261	-0.06604458
209	0x3dcb6fa4	0.09933403
210	0x3d0624c6	0.032749914
211	0xbe0ac170	-0.13550353
212	0x3c7a44d9	0.015275204
213	0x3d24e22d	0.04025476
214	0x3a6f8e21	0.00091383053
215	0xbe44130d	-0.19147892
216	0xbe5494e7	-0.20759927
217	0xbd83e592	-0.064402714
218	0x3b1d6cb9	0.0024021103
219	0x3d01418f	0.031556662
220	0x3cf6080b	0.030033132
221	0xbd94d7c0	-0.072677135
222	0xbd8adc0c	-0.06780252
223	0x3c1309f1	0.008974538
224	0x3ccc4853	0.02493683
225	0xbc7aeda1	-0.015315444
226	0x3b97a5aa	0.004627903
227	0xbdd52377	-0.10407155
228	0xbd1cec04	-0.03831102
229	0xbd28dd0e	-0.04122644
230	0xbc8c620f	-0.017136602
231	0x3c7a2663	0.015267941
232	0xbd4e2cff	-0.05033588
233	0x3dd20cd4	0.10256353
234	0xbe459b7f	-0.19297598
235	0xbd022fba	-0.031783797
236	0x3c353913	0.011060971
237	0xbc49bc85	-0.012313013
238	0x3ab656eb	0.0013911402
239	0x3deac9b5	0.11464254
240	0xbd2e2c3d	-0.042522658
241	0xbc14ccdc	-0.009082045
242	0xbcabd047	-0.020973338
243	0xbd4ae204	-0.04953195
244	0x3ba9b859	0.0051794467
245	0xbd07f633	-0.03319378
246	0xbd02152e	-0.03175848
247	0x3cc3bff6	0.023895245
248	0x3c20ae83	0.009807232
249	0x3d9cb81b	0.07652303
250	0x3c9dee9a	0.019278813
251	0x3e002e2d	0.12517615
252	0xbd1afe46	-0.03784015
253	0x3b2b8830	0.0026173703
254	0x3b3b45af	0.002857547
255	0xbbba1a7d	-0.005679427

shared.0.bias f4 [256]
0	0x3c996c30	0.018728346
1	0x3b84ffe4	0.004058825
2	0x3d427851	0.047478024
3	0xbd952d16	-0.0728399
4	0x3d76bebe	0.0602405
5	0x3b043256	0.0020171604
6	0xbbb5633a	-0.0055355104
7	0xbcf3220c	-0.02967932
8	0x3c41f09f	0.011837154
9	0x3cd4e113	0.02598623
10	0xbaf2d75b	-0.0018527316
11	0x3d7101ea	0.058839716
12	0x3cc241aa	0.023712952
13	0xbc0508d3	-0.00811978
14	0xbc41167b	-0.011785145
15	0x3d9362f1	0.07196606
16	0x3c23e41f	0.010003119
17	0xbb90d3f9	-0.0044198004
18	0x3b100ae8	0.0021979157
19	0x3ce1ec61	0.027578535
20	0xbbba9ca1	-0.005694941
21	0xbd1784d6	-0.036991917
22	0xb8c67d94	-9.4647665e-05
23	0xbccca759	-0.024982141
24	0x3cd360ab	0.02580293
25	0x3cc97fef	0.024597136
26	0xbcc8401f	-0.024444638
27	0x3cd90f41	0.026496531
28	0x3c2239f8	0.009901516
29	0xbc5033ba	-0.012707645
30	0xbd326d0d	-0.04356103
31	0x3b82e095	0.0039940574
32	0xbcf39e98	-0.02973871
33	0x3b3c360e	0.0028718743
34	0x3d3beed3	0.045882057
35	0xbcff3cef	-0.031156985
36	0x3d2267cc	0.03964977
37	0xbb2fc8f1	-0.0026822651
38	0xbd1e1d84	-0.038602367
39	0x3d106acc	0.0352581
40	0xbd687431	-0.056751434
41	0x3c163b03	0.009169343
42	0x3ba9f4f7	0.005186673
43	0xbd452141	-0.048127417
44	0xbd3f2193	-0.04666288
45	0x3cf10d70	0.029425353
46	0x3d4ebb08	0.050471336
47	0xbce5d56f	-0.028055875
48	0x3d39f68d	0.045401145
49	0x3cc9df74	0.024642684
50	0x3cd6ed0e	0.026236083
51	0x3ce6af49	0.028159754
52	0x3bed1889	0.007235591
53	0x3cf893c1	0.030343892
54	0xbb1a4427	-0.0023539157
55	0x3a9d8f84	0.001202092
56	0x3d1f4313	0.038882326
57	0xbb059126	-0.0020380705
58	0xbcb9f2a0	-0.0226987
59	0x3d28bafd	0.04119395
60	0x3c3a0b92	0.011355298
61	0x3c6983aa	0.014252583
62	0x3d732959	0.059365604
63	0xbd171900	-0.036889076
64	0xb9f7f7ca	-0.00047296128
65	0xbccecd90	-0.025244504
66	0xbc6d8b9b	-0.014498617
67	0x3c55f648	0.013059206
68	0x3cad127d	0.02112698
69	0x3c80c485	0.015718708
70	0x3ca499ac	0.020092808
71	0xbce5295c	-0.027973823
72	0x3cc8a03e	0.024490472
73	0x3bdd9be5	0.006762969
74	0xbc851e69	-0.016249852
75	0xbca37d4f	-0.019957213
76	0xbb226dbc	-0.0024784645
77	0xbd414433	-0.04718418
78	0x3d7ad1dc	0.061235294
79	0x3d3492e3	0.044085395
80	0x3d28da71	0.041223947
81	0x3d4cfcac	0.050045654
82	0x3c9026a7	0.017596556
83	0xbcdea099	-0.027176188
84	0xbd8b7077	-0.0680856
85	0x3d73af1a	0.05949316
86	0xbd51f8de	-0.05126273
87	0x3d44dce4	0.04806222
88	0x3b8cff97	0.0043029296
89	0xbc8eee49	-0.017447608
90	0xbd4ea2b3	-0.05044813
91	0x3ba51179	0.0050374833
92	0x3d85cf13	0.06533637
93	0xbd27083a	-0.04077933
94	0xbd478b1e	-0.048716657
95	0xbbe21c74	-0.0069003645
96	0xbcb0d404	-0.021585472
97	0x3d2b6294	0.04184206
98	0x3cbca906	0.023029815
99	0x3ccc4dc2	0.024939422
100	0x3d9edba6	0.07756738
101	0x3ca967ec	0.020679437
102	0x3d139a88	0.036036044
103	0xbbc62f78	-0.006048139
104	0x3d1341b3	0.035951328
105	0xbcb54cf6	-0.022131424
106	0xbd2a21e9	-0.041536245
107	0xbbddc8b5	-0.006768311
108	0xbcba25d8	-0.022723123
109	0xbcb8b9d2	-0.022549544
110	0x3c338b8b	0.010958563
111	0xba91ef15	-0.0011133874
112	0x3c33d6a1	0.0109764645
113	0xbc06cea0	-0.008227974
114	0x3c80fb88	0.01574494
115	0xbd579031	-0.052627746
116	0xbc1397d8	-0.00900837
117	0xbda43eb6	-0.08019774
118	0xbd4b4ac4	-0.04963185
119	0x3d54eb04	0.05198194
120	0xbc9d8a21	-0.019230904
121	0x3d2babfa	0.041912057
122	0xbd32dd90	-0.04366833
123	0xbd63887e	-0.05555009
124	0xbc4cd6bd	-0.0125023695
125	0xbcf094ad	-0.02936777
126	0xbb0a8b34	-0.00211401
127	0xbc8e3b69	-0.017362313
128	0xbb5f5b08	-0.0034081358
129	0xbd3fad66	-0.046796225
130	0xbd0f474b	-0.0349801
131	0x3c7f6e45	0.015590255
132	0xbd63d649	-0.05562428
133	0x3d087a7c	0.033319935
134	0xbc036716	-0.008020183
135	0xbd4f9086	-0.050674938
136	0xbd969b7e	-0.073538765
137	0x3c3a4754	0.011369545
138	0x3d939224	0.072056085
139	0x3d75f7f5	0.060050923
140	0x3cd07d44	0.025450356
141	0xbd8b3b38	-0.067984045
142	0x3d700f52	0.05860836
143	0x3cb405a8	0.021975353
144	0xbd656913	-0.05600841
145	0x3c69467c	0.014237996
146	0x3d4af75c	0.049552307
147	0xbd851339	-0.06497807
148	0xbca07d61	-0.019591035
149	0x3c0d31af	0.0086178025
150	0x3d549a9d	0.051905263
151	0x3d4e8f8d	0.05042987
152	0x3d8cf5a8	0.06882793
153	0x3ca643af	0.020295946
154	0x3cd75ce4	0.02628941
155	0xbcaec43c	-0.021333806
156	0x3c82ac31	0.015951248
157	0x3d4d8892	0.05017907
158	0x3bb2b8e1	0.005454168
159	0x3c96fdb5	0.018431524
160	0x3c0b0815	0.008485814
161	0xbb974169	-0.004615952
162	0x3c7f95ab	0.0155996485
163	0xbd16815e	-0.036744468
164	0xbc3d71fa	-0.011562819
165	0x3d491b0f	0.04909807
166	0xbc5004c5	-0.01269645
167	0xbcac9b40	-0.021070123
168	0xbcd8b52c	-0.026453577
169	0x3c1cc4d4	0.009568412
170	0xbcd9feeb	-0.026610812
171	0xbcc91229	-0.024544792
172	0xba8dd833	-0.0010821879
173	0xbd858dac	-0.065211624
174	0xbb761a2c	-0.003755222
175	0x3ac70590	0.0015184153
176	0xbd8853b2	-0.066565886
177	0xbcb5ab1a	-0.022176314
178	0x3be7b8f1	0.0070716073
179	0x3bf01f52	0.0073279524
180	0xbd18067a	-0.03711555
181	0xbd2b6eec	-0.04185383
182	0x3cd1b5d1	0.025599392
183	0xbca30002	-0.019897465
184	0xbcc06be3	-0.023488944
185	0xbd816b74	-0.06319323
186	0xbd36d2c5	-0.0446346
187	0xbc857264	-0.016289897
188	0x3d18931c	0.03724967
189	0xbc0fd5d9	-0.008779013
190	0xbcb31587	-0.021860851
191	0x3c6c892c	0.014437001
192	0xbcbdc68f	-0.02316597
193	0x3b68181c	0.003541476
194	0x3d15384c	0.036430642
195	0xbc551be5	-0.013007139
196	0xbd0a1cb6	-0.033718787
197	0xbcc723bd	-0.024309034
198	0xbd02b633	-0.03191204
199	0x3c2aa119	0.010414385
200	0x3cfc64c1	0.030809762
201	0xbd33250c	-0.043736503
202	0x3d09041d	0.03345119
203	0xbbe11024	-0.006868379
204	0xbc893bfd	-0.016752237
205	0xb9ef209b	-0.00045609925
206	0xbd3f09cf	-0.046640214
207	0x3ce48d13	0.0278993
208	0xbd3df050	-0.046371758
209	0xbcc68184	-0.02423168
210	0xbcc7bffa	-0.024383534
211	0xbc1dc445	-0.009629314
212	0x3cedb92f	0.029018966
213	0x3d0ed606	0.034872077
214	0x3b9cc2d6	0.0047839684
215	0x3bd17346	0.0063919155
216	0xbbea60dc	-0.00715266
217	0xbb908c3f	-0.00441125
218	0x3d23e0cf	0.040009316
219	0xbd72bdd6	-0.059263073
220	0xbc9a6350	-0.018846184
221	0x3d2b6913	0.041848253
222	0xbcd57e6c	-0.02606126
223	0xbd4a81d8	-0.049440235
224	0x3a856fde	0.0010180434
225	0xbd19029c	-0.037356004
226	0x3d3c412e	0.045960598
227	0xbd9005fc	-0.070323914
228	0x3db7178a	0.089400366
229	0xbc056686	-0.008142119
230	0x3cf4127b	0.029793968
231	0xb881b10b	-6.184176e-05
232	0x3d105b41	0.035243277
233	0x3ca17a25	0.019711563
234	0x3b96617e	0.0045892587
235	0xb9bb0bb8	-0.0003567615
236	0x3d785eae	0.06063717
237	0xbd415caa	-0.047207512
238	0x3b2f3a62	0.002673768
239	0xbc875faf	-0.016525118
240	0x3d1580b1	0.036499683
241	0xbd13d976	-0.03609606
242	0xbd466976	-0.04844042
243	0xbbf9810c	-0.0076142605
244	0xbd571634	-0.05251141
245	0x3cc4bd9e	0.024016198
246	0x3c8c1597	0.017100139
247	0xbd5fb113	-0.05461223
248	0x3c68aa21	0.014200718
249	0x3cf31689	0.029673832
250	0x3b5c0220	0.0033570603
251	0x3d8413ad	0.06449065
252	0xbc4b9463	-0.012425515
253	0xbcdb395b	-0.026760748
254	0x3d8e76fa	0.06956287
255	0x3d24d77e	0.040244572

shared.1.weight f4 [256]
0	0x3f87e1af	1.0615748
1	0x3f75e39f	0.9605045
2	0x3f76d6d1	0.96421534
3	0x3f6b8d51	0.92012507
4	0x3f7daab1	0.9908858
5	0x3f81b01e	1.0131872
6	0x3f81ade1	1.0131189
7	0x3f7bb6fe	0.983261
8	0x3f776794	0.9664242
9	0x3f756f1b	0.9587266
10	0x3f83229e	1.0244939
11	0x3f85478b	1.0412458
12	0x3f7b8c90	0.98261356
13	0x3f7850fd	0.9699858
14	0x3f81c03b	1.0136789
15	0x3f9da725	1.2316633
16	0x3f7cca44	0.9874613
17	0x3f797915	0.9745038
18	0x3f794f8a	0.9738699
19	0x3f89ad8d	1.0756088
20	0x3f802bb3	1.0013336
21	0x3f9d88db	1.230739
22	0x3f755e65	0.9584716
23	0x3f7a70a9	0.97828156
24	0x3f7ab641	0.9793435
25	0x3f7498a3	0.95545405
26	0x3f807fa3	1.0038952
27	0x3f784492	0.9697963
28	0x3f794487	0.9737019
29	0x3f815adf	1.0105857
30	0x3f7b800b	0.98242253
31	0x3f82029c	1.0157046
32	0x3f7f71ac	0.99782825
33	0x3f831e2b	1.0243582
34	0x3f8c3af5	1.0955492
35	0x3f787229	0.97049195
36	0x3f7b7ce4	0.9823744
37	0x3f846915	1.0344568
38	0x3f84f77f	1.038803
39	0x3f84dc0e	1.0379655
40	0x3f71a517	0.9439253
41	0x3f840ed3	1.0317024
42	0x3f7a8a26	0.9786705
43	0x3f810202	1.0078738
44	0x3f76267c	0.9615247
45	0x3f82d5cd	1.0221497
46	0x3f825be0	1.0184288
47	0x3f8070e6	1.0034454
48	0x3f6df293	0.92948264
49	0x3f7833ca	0.96954024
50	0x3f781a8f	0.96915525
51	0x3f853c4e	1.0409029
52	0x3f809ce3	1.0047878
53	0x3f817f03	1.0116886
54	0x3f7f59cb	0.9974639
55	0x3f7ac9dc	0.9796426
56	0x3f79ae7d	0.97531873
57	0x3f831320	1.0240211
58	0x3f8167e7	1.0109833
59	0x3f7f8a75	0.99820644
60	0x3f78544f	0.97003645
61	0x3f82da03	1.0222782
62	0x3f6e51f0	0.93093777
63	0x3f80b61c	1.0055575
64	0x3f6fcb1a	0.93669283
65	0x3f77f86d	0.9686344
66	0x3f794711	0.97374064
67	0x3f835e11	1.0263082
68	0x3f78b601	0.97152716
69	0x3f800831	1.00025
70	0x3f7f2d8a	0.9967886
71	0x3f769bf6	0.9633173
72	0x3f73d9cc	0.95254207
73	0x3f843827	1.0329636
74	0x3f828322	1.0196269
75	0x3f79f47e	0.9763869
76	0x3f8153b8	1.0103674
77	0x3f767985	0.96279174
78	0x3f79e830	0.97619915
79	0x3f7ae266	0.98001707
80	0x3f866bf9	1.0501701
81	0x3f803f29	1.0019275
82	0x3f745463	0.95441264
83	0x3f78d9a2	0.9720708
84	0x3f813044	1.0092854
85	0x3f734790	0.9503107
86	0x3f7c97ae	0.98668945
87	0x3f7e3708	0.9930272
88	0x3f7fee96	0.9997343
89	0x3f78912b	0.9709651
90	0x3f7cfb50	0.9882097
91	0x3f706b44	0.93913674
92	0x3faac5cd	1.3341614
93	0x3f7d1aa3	0.9886877
94	0x3f82b7d5	1.0212351
95	0x3fa929d7	1.3215894
96	0x3f7b1b5b	0.98088616
97	0x3f8b09c5	1.0862356
98	0x3f83e79d	1.0305058
99	0x3f782729	0.96934754
100	0x3f80e88a	1.0070965
101	0x3f80f388	1.007432
102	0x3f79cf8e	0.9758233
103	0x3f83b257	1.02888
104	0x3f839e9a	1.0282776
105	0x3f7b5ef4	0.9819176
106	0x3f791560	0.9729824
107	0x3f84fae3	1.0389065
108	0x3f8195a4	1.0123792
109	0x3f814b27	1.010106
110	0x3f7e19dd	0.99258214
111	0x3f847b83	1.0350193
112	0x3f895732	1.0729735
113	0x3f795884	0.9740069
114	0x3f6efc28	0.9335351
115	0x3f7374bd	0.95100003
116	0x3f81eae3	1.0149807
117	0x3f7ad877	0.9798655
118	0x3f7b8cc9	0.98261696
119	0x3f7c278f	0.9849786
120	0x3f783c81	0.9696732
121	0x3f78a78a	0.97130644
122	0x3f7804a9	0.9688211
123	0x3f7b89e1	0.9825726
124	0x3f78f2bc	0.97245383
125	0x3f892811	1.0715352
126	0x3f7b2234	0.98099065
127	0x3f75dda7	0.9604134
128	0x3f862c10	1.0482197
129	0x3f746d6f	0.9547948
130	0x3f7346d1	0.9502993
131	0x3f7aa760	0.97911644
132	0x3f7d779e	0.99010646
133	0x3f82a31a	1.0206025
134	0x3f7b8f4d	0.98265535
135	0x3f7c319f	0.98513216
136	0x3f7e3b1c	0.99308944
137	0x3f76e5f3	0.96444625
138	0x3f85e649	1.0460902
139	0x3fa19f6e	1.2626779
140	0x3f80e360	1.0069389
141	0x3f720459	0.94537884
142	0x3f81bcec	1.0135779
143	0x3f7788ef	0.9669332
144	0x3f84c9d8	1.0374098
145	0x3f803269	1.0015384
146	0x3f79d3ca	0.9758879
147	0x3f7ce454	0.987859
148	0x3f80cd79	1.0062705
149	0x3f80be2c	1.0058036
150	0x3f887b30	1.0662594
151	0x3f8ec27a	1.11531
152	0x3f778d55	0.9670003
153	0x3f7713e1	0.9651471
154	0x3f79f8c4	0.9764521
155	0x3f7fe7c6	0.99963033
156	0x3f842864	1.0324826
157	0x3f79266c	0.9732425
158	0x3f7fc972	0.99916756
159	0x3f89c0e3	1.0761989
160	0x3f80aada	1.005214
161	0x3f814e25	1.0101973
162	0x3f7ea65e	0.99472606
163	0x3f809402	1.0045168
164	0x3f7a56f5	0.97788936
165	0x3f83e326	1.0303695
166	0x3f792d98	0.97335196
167	0x3f8305e8	1.0236177
168	0x3f7523c8	0.9575772
169	0x3f815dbc	1.010673
170	0x3f856909	1.0422679
171	0x3f7f3f25	0.99705726
172	0x3f7c42df	0.9853954
173	0x3f7a3594	0.97738004
174	0x3f8b19b8	1.0867224
175	0x3f7f4bc1	0.99724966
176	0x3f73c78d	0.95226365
177	0x3f6d3334	0.92656255
178	0x3f7bd0d4	0.9836552
179	0x3f8782ae	1.0586755
180	0x3f7e789b	0.9940278
181	0x3f7ddef6	0.99168336
182	0x3f7de165	0.9917205
183	0x3f7dedd5	0.9919103
184	0x3f80e106	1.0068672
185	0x3f7cba8f	0.98722166
186	0x3f8481e4	1.035214
187	0x3f8b00d9	1.0859634
188	0x3f81139f	1.0084113
189	0x3f7caecb	0.9870421
190	0x3f808ff7	1.0043935
191	0x3f74d543	0.9563791
192	0x3f7e7aaf	0.9940595
193	0x3f8e0990	1.1096668
194	0x3f840019	1.031253
195	0x3f7b01ea	0.98049796
196	0x3f7bdecc	0.98386836
197	0x3f8001c9	1.0000545
198	0x3f840242	1.0313189
199	0x3f7d3344	0.9890635
200	0x3f854bf9	1.041381
201	0x3f74d413	0.956361
202	0x3f8181b7	1.0117711
203	0x3f92a829	1.1457568
204	0x3f7b25ae	0.9810437
205	0x3f806d5e	1.0033376
206	0x3f85cf02	1.0453799
207	0x3f8b88d1	1.0901128
208	0x3f83969b	1.0280336
209	0x3f90b9d6	1.1306713
210	0x3f96bbad	1.1776024
211	0x3f8428d6	1.0324962
212	0x3f784ab2	0.96988976
213	0x3f867132	1.0503294
214	0x3f734f1a	0.95042574
215	0x3f8aafb4	1.083487
216	0x3f7382eb	0.9512164
217	0x3f7c6605	0.9859317
218	0x3f758c3c	0.95917106
219	0x3f91da7a	1.1394799
220	0x3f7b1272	0.9807502
221	0x3f7be0e9	0.9839006
222	0x3f809c13	1.004763
223	0x3f7edfc4	0.9956019
224	0x3f7e608c	0.9936607
225	0x3f76a147	0.9633984
226	0x3f80bd49	1.0057765
227	0x3f810692	1.008013
228	0x3f911afd	1.1336361
229	0x3f841b22	1.032078
230	0x3f7d1ec2	0.9887506
231	0x3f7d224b	0.9888045
232	0x3f826c53	1.0189308
233	0x3f6d68f2	0.9273826
234	0x3f757e96	0.9589628
235	0x3f80c8f3	1.0061325
236	0x3f7af031	0.98022753
237	0x3f7713d5	0.96514636
238	0x3f79603b	0.9741246
239	0x3f76d1be	0.9641379
240	0x3face09d	1.3506047
241	0x3f723ed4	0.9462712
242	0x3f7e6247	0.9936871
243	0x3f7b0342	0.98051846
244	0x3f787d55	0.9706624
245	0x3f7dd377	0.99150795
246	0x3f7d5927	0.9896416
247	0x3f7090f0	0.9397116
248	0x3f80d414	1.0064721
249	0x3f73e3ac	0.95269275
250	0x3f798d26	0.97481
251	0x3f908193	1.1289543
252	0x3f8217c2	1.01635
253	0x3f7a82bd	0.9785574
254	0x3f7e6e59	0.9938713
255	0x3f7b3aa3	0.9813635

shared.1.bias f4 [256]
0	0xbd095626	-0.033529423
1	0xbd018bcb	-0.031627458
2	0x3c4f973a	0.012670333
3	0xbd94a9b3	-0.0725893
4	0x3b4f76bb	0.0031656462
5	0xbd5018ac	-0.05080478
6	0xbd42f8c6	-0.04760053
7	0xbbbc8766	-0.0057534454
8	0xbda11549	-0.07865388
9	0xbd513a4d	-0.05108099
10	0xbc1e3e59	-0.0096584195
11	0xbd64868b	-0.055792373
12	0xbd085d7a	-0.03329227
13	0xbd2a57d1	-0.041587655
14	0xbd901058	-0.07034367
15	0xbc07da1b	-0.0082917465
16	0xbd92fd29	-0.07177193
17	0xbc0f56d3	-0.008748728
18	0xbcf425a6	-0.029803108
19	0xbd8e356c	-0.06943783
20	0xbcc00583	-0.023440128
21	0x3c966746	0.018359791
22	0xbc887d49	-0.016661303
23	0xbd0e1a9a	-0.034693338
24	0xbd024fb5	-0.031814296
25	0xbd7fa3a1	-0.062411908
26	0x3bb9a7be	0.0056657484
27	0xbd348c7b	-0.044079285
28	0xbd2fdccf	-0.04293519
29	0xbd0fa6c4	-0.03507115
30	0xbcaf3095	-0.02138547
31	0xbd81cda9	-0.06338055
32	0xbd6592a6	-0.056048058
33	0xbc073f7e	-0.008254884
34	0x3ca7df06	0.020492088
35	0xbe06860a	-0.1313707
36	0xbd0bee08	-0.03416255
37	0x3c93d993	0.018048083
38	0xbc0dd8f9	-0.008657687
39	0x3bf62c3e	0.0075125983
40	0xbd8805df	-0.06641745
41	0xbc8b4aa0	-0.017003357
42	0xbd6cf6ee	-0.057852678
43	0xbccb48f0	-0.024815053
44	0xbd0858f5	-0.03328796
45	0xbd7e14be	-0.0620315
46	0xbcfa6479	-0.030565487
47	0xbd03f823	-0.032219063
48	0xbd80d622	-0.062908426
49	0xbcb5f7f2	-0.022212956
50	0xbd36907c	-0.044571385
51	0xbc5fc54e	-0.013657881
52	0xbcb01844	-0.021495946
53	0xbdf8fe73	-0.12157907
54	0xbd68ada1	-0.05680621
55	0xbd2dda2a	-0.042444386
56	0xbd3a9c96	-0.04555949
57	0xbd2b2c6b	-0.041790407
58	0xbd40fe10	-0.047117293
59	0xbcb3123c	-0.02185928
60	0xbd0d0282	-0.03442622
61	0xbb4c778a	-0.003119918
62	0xbdb992ba	-0.09061189
63	0xbd7c2499	-0.06155834
64	0xbd964de7	-0.073390774
65	0xbc980ab1	-0.018559786
66	0xbd54345f	-0.051807757
67	0xbd856794	-0.065138966
68	0xbc1f017e	-0.009704946
69	0x3bc0cf26	0.005884069
70	0xbd48af96	-0.048995577
71	0xbce85506	-0.028360855
72	0xbcdd5ffd	-0.02702331
73	0x3a23fb59	0.000625541
74	0xbc36b6e5	-0.011152004
75	0xbc6f58a8	-0.01460854
76	0xbd4a69fc	-0.04941748
77	0xbdc13248	-0.094334185
78	0xbcb33ba0	-0.021879017
79	0xbd2b3ddc	-0.04180704
80	0x3c8653d0	0.016397387
81	0x3b7d0dd1	0.0038612972
82	0xbd3ba512	-0.04581172
83	0xbd1ad1ab	-0.03779761
84	0xbdf31bcf	-0.118705384
85	0xbd93cbea	-0.07216628
86	0xbd9e92bc	-0.07742831
87	0xbd4e9353	-0.050433468
88	0xbdaeaab4	-0.08528653
89	0xbd0048f3	-0.03131957
90	0xbccd9393	-0.025094783
91	0xbdb05b1a	-0.08611126
92	0xba7ed3ff	-0.0009720921
93	0xbd7423e3	-0.059604537
94	0xbd622c94	-0.055218294
95	0xbbca209e	-0.006168439
96	0xbd54e981	-0.0519805
97	0xbe0af9ac	-0.13571805
98	0x3c6def40	0.014522374
99	0xbcc32c7c	-0.023824923
100	0xbb3cd157	-0.00288113
101	0xbd3d8981	-0.046273712
102	0xbd0a10e5	-0.033707518
103	0xbd166e59	-0.03672633
104	0x3c72704d	0.014797282
105	0xbccf6c0b	-0.025320074
106	0xbcb195d2	-0.021677885
107	0xbbedabf0	-0.0072531626
108	0xbd6dd528	-0.05806461
109	0x3bba269b	0.0056808717
110	0xbd1e0495	-0.03857859
111	0xbc3214ce	-0.010869218
112	0xbd5de449	-0.054172788
113	0xbc8328ac	-0.016010605
114	0xbd20520d	-0.03914075
115	0xbd4ec98b	-0.050485175
116	0xbd54a1a2	-0.051911958
117	0xbc449239	-0.011997753
118	0xbc02f588	-0.0079931095
119	0xbd0db4f9	-0.034596417
120	0xbd1e4985	-0.038644332
121	0xbd8d4058	-0.06897038
122	0xbc7e08a8	-0.0155049935
123	0xbd4375d2	-0.047719784
124	0xbcd75d9a	-0.02628975
125	0xbdc3d93b	-0.09562918
126	0xbb6c374a	-0.0036043697
127	0xbd76657e	-0.060155384
128	0xbd840f52	-0.064482346
129	0xbd2b3c1c	-0.04180537
130	0xbd66a4f3	-0.05630965
131	0xbc369327	-0.011143482
132	0xbd073125	-0.033005852
133	0xbd90af64	-0.07064703
134	0xbcb6786a	-0.022274215
135	0xbb9747dd	-0.004616721
136	0xbbb28f22	-0.0054491917
137	0xbd7a7e84	-0.06115581
138	0x3c852ac4	0.016255744
139	0xbc3a1c83	-0.011359337
140	0xbc65d15d	-0.014026967
141	0xbde625fd	-0.112377144
142	0xbc664b22	-0.014055999
143	0xbd1867fe	-0.03720855
144	0xbb8a92a8	-0.0042289086
145	0xbc1e663b	-0.009667928
146	0xbd28baee	-0.041193895
147	0xbcb46979	-0.02202295
148	0xbdcaceae	-0.09902702
149	0xbd4cf80d	-0.050041247
150	0xbb2b4583	-0.0026133962
151	0xbd16ddd3	-0.03683264
152	0xbc95b37b	-0.01827406
153	0xbcc9fe44	-0.024657376
154	0xbd808a19	-0.0627634
155	0xbb4ef127	-0.0031576843
156	0xbcb9d6f8	-0.022685513
157	0xbd27ee8c	-0.04099898
158	0xbc870975	-0.016484002
159	0xbe152b8b	-0.14567392
160	0xbc31c26c	-0.010849576
161	0xbc919cba	-0.017774928
162	0xbbee0e29	-0.0072648716
163	0xbcaf956d	-0.021433556
164	0xbd1589ad	-0.03650825
165	0xbd20f6d8	-0.03929791
166	0xbd5e6f5f	-0.05430543
167	0x3bc1a8d5	0.005910019
168	0xbd3dbeeb	-0.04632465
169	0xbbef239e	-0.007297947
170	0xbd4daa16	-0.050211035
171	0xbd272182	-0.04080344
172	0xbcdbc62b	-0.026827892
173	0xbcc9aede	-0.024619516
174	0xbda576d6	-0.08079307
175	0xbd7069b9	-0.058694575
176	0xbd0221ee	-0.03177064
177	0xbd18653d	-0.037205923
178	0xbc5e2960	-0.013559669
179	0xbda1b78c	-0.07896337
180	0xbd8e3bb8	-0.06944984
181	0xbd140bda	-0.036144115
182	0xbd7c77a2	-0.06163753
183	0xbcf859da	-0.030316282
184	0xbcc45d2c	-0.023970209
185	0xbd368f61	-0.04457033
186	0xbc4d9eef	-0.0125501
187	0x3c35e79d	0.011102584
188	0xbc43e611	-0.011956708
189	0xbc6c2c0f	-0.014414801
190	0x3a1630a5	0.00057292945
191	0xbd439f34	-0.04775925
192	0xbd43cf7e	-0.0478053
193	0xbdd8d93b	-0.105883084
194	0xbd07ae2d	-0.03312509
195	0xbd7d5529	-0.061848793
196	0xbda45371	-0.08023728
197	0xbd0a53be	-0.03377127
198	0xbd8418fd	-0.06450079
199	0xbc314b37	-0.010821155
200	0x3c768f65	0.015048836
201	0xbcedf946	-0.029049527
202	0xbd488070	-0.048950613
203	0xbd82c3dc	-0.063850135
204	0xbcc78d96	-0.024359506
205	0xbcae26d8	-0.021258757
206	0xbd1b7d1c	-0.03796111
207	0x3c1be0ad	0.009514016
208	0xbd211dd1	-0.039335076
209	0xbce084df	-0.027407108
210	0xbe1fddc1	-0.15611936
211	0xbc51b9b3	-0.012800622
212	0xbd158da2	-0.036512025
213	0xbd335fd8	-0.043792576
214	0xbd81f8f5	-0.06346313
215	0xbdb75ea0	-0.08953595
216	0xbceea031	-0.02912912
217	0xbcb8cfdb	-0.02256005
218	0xbc4ad80a	-0.012380609
219	0x3d0e45c1	0.03473449
220	0xbd3daf0a	-0.04630951
221	0xbc8767e6	-0.016529035
222	0xbd5db5a8	-0.05412832
223	0xbd6061c4	-0.054780737
224	0xbcc0481d	-0.023471886
225	0xbcb441d8	-0.022004053
226	0xbada5618	-0.0016657738
227	0xbc78d64b	-0.01518781
228	0x3bc740b9	0.0060807136
229	0xbba37bae	-0.004989109
230	0xbc946b9f	-0.018117724
231	0xbc8edc6a	-0.017439086
232	0xb99ce6ef	-0.00029926698
233	0xbd50f341	-0.051013235
234	0xbd27226a	-0.040804304
235	0xbdab5d44	-0.083673984
236	0xbd4d9a88	-0.0501962
237	0xbcb833e1	-0.022485675
238	0xbd63835f	-0.055545207
239	0xbd1ec11f	-0.038758393
240	0x3a45177d	0.00075184536
241	0xbc4093ea	-0.011754015
242	0xbcb5c750	-0.022189766
243	0xbd0b9168	-0.034074217
244	0xbd832192	-0.064028874
245	0xbd216762	-0.039405234
246	0xbcfea984	-0.03108669
247	0xbda9a416	-0.0828325
248	0xbd04f46e	-0.03245967
249	0xbd45a19d	-0.04824983
250	0xbd81c6ba	-0.06336732
251	0xbcdebbfd	-0.02718925
252	0x3bd3716e	0.006452731
253	0xbcb704e1	-0.022341194
254	0xbd080864	-0.033211127
255	0xbd89c9f0	-0.0672797

shared.3.weight f4 [256, 256]
0	0xbc77a9e3	-0.015116188
1	0x3d2bfddd	0.04199015
2	0x3d2406ca	0.040045537
3	0xbcafd67b	-0.021464577
4	0xbd329f30	-0.043608844
5	0xbd4eedd3	-0.050519776
6	0x3d8138d4	0.06309667
7	0x3b84603c	0.0040397923
8	0x3cf7d4cb	0.030252835
9	0x3c636b9b	0.013880636
10	0xbda0a8a5	-0.078446664
11	0x3c116ad2	0.008875566
12	0x3d330bc7	0.043712404
13	0x3d090651	0.03345329
14	0x3d27f471	0.041004602
15	0x3cba95c0	0.022776484
16	0x3a8f0535	0.0010911586
17	0x3d677f2a	0.056517757
18	0xbd840edf	-0.06448149
19	0xbcbfc647	-0.023409976
20	0xbb1cf215	-0.0023948003
21	0x3daa07b5	0.08302251
22	0xbda8ee6b	-0.082485996
23	0xbd8c271d	-0.06843398
24	0x3d70fa4a	0.058832444
25	0x3db26a9e	0.08711742
26	0xbbf2d824	-0.00741102
27	0x3b1bdc22	0.0023782332
28	0xbb912014	-0.004428873
29	0x3cc6ea4e	0.024281647
30	0xbb1bcb35	-0.0023772244
31	0x3d7f8004	0.062377945
32	0xbca77d41	-0.020445468
33	0x3d1d0ffb	0.03834532
34	0x3d1f92a2	0.0389582
35	0xbd410a53	-0.047128987
36	0xbd5f5be5	-0.054530997
37	0x3dcab818	0.09898394
38	0x3cb89e8a	0.022536535
39	0xbd09c827	-0.033638146
40	0xbcc75214	-0.02433113
41	0x3cd89012	0.026435886
42	0xbd1ffd9e	-0.039060228
43	0xbd52e0ab	-0.05148379
44	0x3cc1e02e	0.023666468
45	0x3d076bea	0.0330619
46	0x3cff88e9	0.031193214
47	0xbd193b10	-0.037409842
48	0x3d86ad29	0.065759964
49	0xbd2fa50e	-0.042882018
50	0x3d2bd3af	0.041949924
51	0xbd782c8b	-0.060589354
52	0xbc29098c	-0.010317218
53	0x3c6e593f	0.014547645
54	0x3b5fa449	0.0034125021
55	0x3bd8f15c	0.006620569
56	0xbc75456f	-0.014970168
57	0x3d53cf38	0.05171129
58	0x3c3b2b34	0.011423875
59	0x3dad3ed5	0.0845925
60	0x3cf1d66d	0.029521191
61	0xbb73e4c6	-0.0037215217
62	0xbb590104	-0.0033112178
63	0xbc9e4e16	-0.019324344
64	0x3db3804d	0.08764706
65	0xbd789939	-0.060693
66	0xbd1a149a	-0.037617303
67	0x3d0b25d3	0.03397162
68	0xbd9296b4	-0.071576506
69	0xbd4d4af6	-0.050120316
70	0x3da7523a	0.0816998
71	0x3cb0efda	0.021598745
72	0xbd448874	-0.047981694
73	0x3bb255a7	0.0054423395
74	0x3a8681ce	0.0010262073
75	0x3d64cfcb	0.05586223
76	0xbc897801	-0.016780855
77	0xbc4b7d0f	-0.012419953
78	0x3c07a50f	0.008279099
79	0xbc88b8f4	-0.016689755
80	0x3cc44b71	0.023961755
81	0x3d172edb	0.03690992
82	0x3da0e84c	0.07856807
83	0x3cc9fd40	0.024656892
84	0xbcdfdf0f	-0.027328042
85	0xbc9e8d9c	-0.019354634
86	0x3cb831c6	0.022484671
87	0xbd782372	-0.06058068
88	0xbcb34b01	-0.02188635
89	0xbc6e9a5f	-0.014563172
90	0x3c49ce67	0.012317277
91	0xbd0e66da	-0.034766056
92	0xbd2b715c	-0.041856155
93	0xbce4a96e	-0.027912822
94	0xbc76c536	-0.015061667
95	0x3d20478a	0.039130725
96	0xbd440716	-0.04785832
97	0x3d315dec	0.04330246
98	0x3d170839	0.036873076
99	0x3cd7c39c	0.026338391
100	0x3c8f3302	0.017480377
101	0x3ce34d32	0.02774677
102	0xbd029250	-0.031877816
103	0xbd050200	-0.03247261
104	0x3cd93011	0.026512178
105	0x3c71845f	0.014741032
106	0x3d9c5034	0.07632485
107	0xbc11ea26	-0.008905923
108	0xbc27b800	-0.01023674
109	0x3d4f940d	0.0506783
110	0x3b815d71	0.0039479067
111	0xbafae9e5	-0.0019143192
112	0x3c0a29a0	0.008432776
113	0x3a546dc8	0.0008103517
114	0xbcff93c0	-0.031198382
115	0x3ce887e9	0.02838512
116	0x3d42e016	0.047576986
117	0xbd361cab	-0.044460934
118	0x3cd86875	0.026416996
119	0xbc327695	-0.01089253
120	0x3b574550	0.003284771
121	0x3d71ff1e	0.05908119
122	0xbcc119c0	-0.023571849
123	0x3d5687f4	0.05237575
124	0x3d81f61d	0.063457705
125	0xbd8a3da9	-0.06750042
126	0xbcf69860	-0.030101955
127	0xbd6aabc3	-0.05729271
128	0x3d55fdae	0.05224388
129	0x3c915029	0.017738419
130	0xba48c8b6	-0.0007659303
131	0xbc43cc67	-0.011950589
132	0xbd154da3	-0.036450993
133	0x3cc474a1	0.023981394
134	0x3d26a32c	0.040682957
135	0xbc392371	-0.011299954
136	0xbd0963c2	-0.033542402
137	0x3d31b3ca	0.04338435
138	0x3d968ca9	0.073510475
139	0x3cf2c63b	0.02963554
140	0xbc45cb26	-0.01207236
141	0x3d06fcca	0.032955922
142	0x3ad4e8c9	0.0016243692
143	0xbd103543	-0.035207044
144	0x3d017a1a	0.031610586
145	0x3badb311	0.0053008874
146	0xbd65fb1a	-0.056147672
147	0x3cce6c25	0.025198052
148	0xbd8a089f	-0.067399256
149	0xbc0b3218	-0.00849583
150	0x3dc5bb3e	0.09654854
151	0x3d500a0b	0.050790828
152	0x3d3e7c85	0.04650547
153	0xbc94a397	-0.018144412
154	0x3bf29a8b	0.007403677
155	0x3d38d2f7	0.045123067
156	0xbce1720c	-0.027520202
157	0xbcd8ebf6	-0.026479702
158	0xbc69c68d	-0.01426853
159	0xbcc76ba0	-0.024343312
160	0x3c939605	0.01801587
161	0x3d1005a2	0.035161622
162	0xbd0b4e4a	-0.03401021
163	0xbd0bbec5	-0.03411748
164	0x3d61c110	0.05511576
165	0xbd1b52d8	-0.037920803
166	0xbd8d9eb9	-0.069150396
167	0xbdb70532	-0.08936538
168	0xbd3e489a	-0.046455957
169	0x3c00b9b8	0.007856779
170	0xbd945111	-0.07242025
171	0x3d36cac8	0.04462698
172	0xbbeed488	-0.0072885193
173	0xbd82c42f	-0.06385075
174	0x3cce8850	0.025211483
175	0xbd49fc9f	-0.049313184
176	0x3d887db9	0.06664605
177	0x3d8f4ae7	0.06996708
178	0xbd7128bd	-0.05887674
179	0xbbdf7919	-0.006819856
180	0xbd8c6562	-0.06855275
181	0x3ca74140	0.020416856
182	0x3ca2a7e1	0.019855442
183	0xbd518582	-0.051152714
184	0xbcc9bdf2	-0.024626706
185	0xbd300d91	-0.042981688
186	0xbcc11007	-0.023567213
187	0xbbcdbad8	-0.006278377
188	0xbb659660	-0.0035032257
189	0x3d295614	0.041341856
190	0xbc3af71c	-0.0114114545
191	0x3cf17ad4	0.029477514
192	0xb90ad0ad	-0.00013238443
193	0x3d672827	0.056434777
194	0x3c5c93d3	0.013462978
195	0x3d0c9912	0.034325667
196	0x3dc4174a	0.095747545
197	0x3d382932	0.044961162
198	0xbd694b3b	-0.05695651
199	0x3d9541ee	0.07287966
200	0x3cafe881	0.021473171
201	0xbd30260c	-0.043005034
202	0x3c2d87c8	0.010591455
203	0x3cea9eaa	0.02864011
204	0xbd922ae6	-0.071370885
205	0xbd0fb7b4	-0.035087302
206	0xbb96d115	-0.0046025612
207	0x3d957eca	0.07299574
208	0xbdb4a162	-0.08819844
209	0x3ca76749	0.020434992
210	0x3d30989c	0.04311429
211	0xbd55c213	-0.052187037
212	0xbbadf224	-0.0053084064
213	0xbce4283b	-0.027851215
214	0xbcb24992	-0.021763597
215	0x3d82ce23	0.06386974
216	0x3cf5b4c7	0.029993428
217	0xbd6d3694	-0.057913378
218	0xbca7ffcd	-0.020507718
219	0x3d7f1d64	0.06228389
220	0x3cbd6cd4	0.023123182
221	0xbdbd236d	-0.092352726
222	0x3d0f4cca	0.03498534
223	0xbd032ee7	-0.03202715
224	0xbcdc48db	-0.026890209
225	0xbd52727e	-0.05137872
226	0xbd2e5795	-0.042563993
227	0xbd62066e	-0.055181913
228	0x3bec22a5	0.0072062784
229	0xbc73b2cc	-0.014874171
230	0x3d12a537	0.035802092
231	0xbcf40f5b	-0.029792478
232	0xbd04f91a	-0.032464124
233	0x3db7669f	0.0895512
234	0x3d8fa911	0.07014669
235	0x3da2ba5e	0.07945703
236	0x3c12b316	0.00895383
237	0xbd222189	-0.039582763
238	0xbc99274b	-0.018695494
239	0x3b3dcf8e	0.0028962824
240	0xbd384dc6	-0.044996046
241	0x3d209a32	0.039209552
242	0x3c7a19fd	0.015264985
243	0xbc611d7b	-0.013739939
244	0xbc3bd0d3	-0.011463362
245	0x3c40f137	0.01177626
246	0xbcab4c67	-0.020910455
247	0xbdaba636	-0.083813116
248	0xbd785ad9	-0.060633514
249	0x3d263e3e	0.040586703
250	0xbc939bff	-0.01801872
251	0xbd9d0c88	-0.07668406
252	0x3cb6914a	0.022286076
253	0xbd7b0b5c	-0.06129013
254	0xbc642c63	-0.013926598
255	0xb9d3d47b	-0.00040403366

shared.3.bias f4 [256]
0	0xbd451ffe	-0.048126213
1	0xbd8daf29	-0.06918175
2	0xbc3ba611	-0.011453168
3	0x3d658ed3	0.05604441
4	0x3c86c4ea	0.016451318
5	0xbd0a903a	-0.03382895
6	0xbd7b164c	-0.06130056
7	0xbcea0936	-0.028568845
8	0x3d3a7913	0.04552562
9	0x3d6570e9	0.056015883
10	0xbcf59e16	-0.029982608
11	0x3d607ba8	0.054805428
12	0x3cbc4277	0.022980912
13	0xbd4cf558	-0.050038666
14	0x3bc06dda	0.0058724703
15	0xbc8f56f0	-0.01749751
16	0x3ad5c32d	0.0016308777
17	0xbd73dc64	-0.059536353
18	0xbd18e316	-0.03732594
19	0x3b709794	0.0036711441
20	0xbc9a16f4	-0.018809773
21	0x3c70553e	0.014668761
22	0xbd1ac550	-0.037785828
23	0x3d86e625	0.06586865
24	0x3ce8d5f0	0.028422326
25	0x3d6c381b	0.057670694
26	0xbad476c4	-0.0016209711
27	0x3d1f5e93	0.038908552
28	0x3ce574b7	0.028009756
29	0xbce204a3	-0.027590102
30	0xbd0962c9	-0.033541474
31	0x3d3af811	0.04564673
32	0x3ca46004	0.020065315
33	0x3d4964d0	0.049168408
34	0x3d179ccc	0.037014768
35	0xbd066bdf	-0.032817718
36	0x3d348aa0	0.044077516
37	0x3d0f5293	0.03499086
38	0xbd4b744d	-0.04967146
39	0xbd58cd9f	-0.05293047
40	0x3ceca507	0.028887285
41	0x3d0ea278	0.03482291
42	0xbbd0b152	-0.0063687945
43	0x3ce9d091	0.028541835
44	0xbd3bc030	-0.04583758
45	0xbce4f76d	-0.027950013
46	0xbcb06d10	-0.02153638
47	0xbd04ffbd	-0.032470454
48	0x3d3e9303	0.04652692
49	0x3d412a60	0.047159553
50	0x3c9a125e	0.018807586
51	0x3d59f89a	0.0532156
52	0x3d06bb45	0.032893438
53	0xbc6cc73a	-0.014451796
54	0xbcac6e91	-0.021048816
55	0x3ca462b1	0.020066591
56	0xbc8eca79	-0.01743053
57	0x3d851e1d	0.06499884
58	0xbd6dd8ef	-0.058068212
59	0x3c3a059e	0.011353878
60	0xbd45b4a5	-0.04826798
61	0xbd5c48f3	-0.053780507
62	0xbd81e1e1	-0.06341911
63	0xbd36ad39	-0.04459879
64	0x3d171689	0.036886726
65	0xbb9d190c	-0.0047942456
66	0xbd72f52f	-0.059315857
67	0x3ca59aac	0.020215355
68	0x3c057ce1	0.008147449
69	0x3d5a2098	0.05325374
70	0xbd6531fa	-0.055955864
71	0x3cb2ed9a	0.021841813
72	0xbd131894	-0.03591211
73	0xbcab13eb	-0.020883521
74	0xbce16683	-0.027514702
75	0xbc4a95ea	-0.012364844
76	0xbd46027b	-0.04834221
77	0xbd304b3e	-0.043040507
78	0xbcc70bd8	-0.02429764
79	0x3c77e51f	0.01513031
80	0xbcd37982	-0.025814775
81	0x3cdcb54d	0.02694192
82	0x3bb9e73f	0.0056733186
83	0xbd2e3d0c	-0.042538688
84	0xbd20716f	-0.03917068
85	0x3d6413e1	0.05568302
86	0x3d5d7908	0.054070503
87	0x38a05906	7.6459764e-05
88	0xbd0a7182	-0.033799656
89	0x3bbc22fe	0.005741476
90	0xbcd8310d	-0.026390577
91	0x3d0e269f	0.0347048
92	0x3d2800dd	0.04101645
93	0x3b1e18f3	0.0024123758
94	0x3cadba0c	0.021206878
95	0xbd3af2b0	-0.0456416
96	0x3c8a7efb	0.016906252
97	0x3d2bb03a	0.04191611
98	0xbc564bda	-0.013079608
99	0xbc9ec94b	-0.019383093
100	0xbc5a9d02	-0.013343098
101	0xbcaf93eb	-0.021432837
102	0x3cf771a0	0.030205548
103	0x3c344eb6	0.011005094
104	0xbd38e46b	-0.04513971
105	0x3d451c04	0.04812242
106	0xbccd5a82	-0.025067572
107	0xbb19571b	-0.0023397866
108	0xbd5b3f9f	-0.05352747
109	0xbc99208c	-0.018692277
110	0xbd3610b7	-0.044449534
111	0x3d1b072b	0.037848633
112	0x3d23eb96	0.040019594
113	0xbca7b502	-0.020472053
114	0xbd9e7662	-0.077374235
115	0x3d583c2d	0.052791763
116	0xbcb6a4f7	-0.022295458
117	0x3b091056	0.0020914278
118	0xbcca5057	-0.024696512
119	0x3d211146	0.039323114
120	0x3d6e87fa	0.058235146
121	0x3cda4d54	0.026648201
122	0xbd44c3a3	-0.048038136
123	0xbd510379	-0.051028702
124	0xbd7c8a46	-0.061655305
125	0xbc4ba072	-0.01242839
126	0xbd2a0584	-0.041509166
127	0xbd5308a5	-0.051521916
128	0x3cf9623f	0.030442355
129	0x3ca924cd	0.02064743
130	0xbc085a39	-0.008322292
131	0x3d6e8cd1	0.05823976
132	0xbd274b6c	-0.040843412
133	0x3bd6c246	0.006553921
134	0xbc4e0277	-0.01257383
135	0x3c2aed24	0.010432515
136	0xbcaadc70	-0.020857066
137	0x3cf075a0	0.029352963
138	0x3a3c7503	0.0007189067
139	0xbd6696ac	-0.056296036
140	0xbd532da8	-0.051557213
141	0x3d327e28	0.043577343
142	0xbc45feb9	-0.012084656
143	0x3cc64666	0.02420349
144	0x3d2987ef	0.041389402
145	0x3d45b499	0.048267934
146	0xbd499486	-0.04921391
147	0x3d14e6dc	0.036352977
148	0xbd395828	-0.045250088
149	0xbbd191ba	-0.006395546
150	0xbb5d09a9	-0.0033727682
151	0xbc805009	-0.015663164
152	0xbc1d0702	-0.00958419
153	0x3d110393	0.0354038
154	0xbd155c95	-0.036465246
155	0xbd301e9b	-0.042997938
156	0xbc43f360	-0.011959881
157	0x3c13917b	0.009006853
158	0x3d54d390	0.051959574
159	0xbc84e552	-0.01622263
160	0x3d633bec	0.055477068
161	0x3ce54e16	0.027991336
162	0xbcd21d50	-0.025648743
163	0x3c8b53d3	0.017007744
164	0xbd73873f	-0.059455153
165	0x3cecbda1	0.028899016
166	0xbd2b3bd6	-0.04180511
167	0x3c7c0e9e	0.015384344
168	0xbcfdadb0	-0.03096661
169	0xbd727e15	-0.059202272
170	0xbd07c85b	-0.03315006
171	0x3d0f2f54	0.034957245
172	0xbd224410	-0.03961569
173	0x3ca73a21	0.02041346
174	0x3cb36975	0.021900872
175	0xbca51aa1	-0.0201543
176	0xbd44ed4e	-0.048077874
177	0x3d5e5b82	0.054286487
178	0xbd66dde6	-0.056363963
179	0x3d145a6a	0.036219038
180	0x3d00b703	0.031424534
181	0xbd34a2fa	-0.04410074
182	0xbd6db380	-0.058032513
183	0xba819bc2	-0.0009888338
184	0x3cbc05c0	0.02295196
185	0x3c79f13a	0.015255267
186	0xbd632d18	-0.055462927
187	0xbab12140	-0.0013513938
188	0x3d5def8d	0.05418353
189	0xbd83b66d	-0.06431279
190	0x3d6f97e2	0.058494456
191	0x3ca655f0	0.02030465
192	0x3d230ae0	0.039805293
193	0x3c30a767	0.010782099
194	0x3d47bc26	0.048763417
195	0x3d7477d6	0.059684597
196	0x3d7e7e33	0.06213207
197	0x3d5ba42e	0.05362337
198	0xbc66305c	-0.014049616
199	0xbccc1caf	-0.024916021
200	0x3d17335b	0.03691421
201	0xbd6e3122	-0.058152325
202	0x3b6a7be7	0.0035779418
203	0x3cbaeff2	0.022819493
204	0x3ca554f8	0.020182118
205	0xb9ea2e48	-0.0004466644
206	0x3c8a0168	0.016846374
207	0x3d1d6c42	0.03843332
208	0x3be9c2f2	0.007133835
209	0x3d70ee40	0.058820963
210	0xbced1e9e	-0.028945263
211	0xbd0655b9	-0.032796595
212	0xbd31067d	-0.04321908
213	0x3b2b9378	0.0026180428
214	0xbcc501b0	-0.024048656
215	0x3b3b3afc	0.0028569093
216	0xbd0ba936	-0.03409692
217	0xbcf69ef1	-0.030105086
218	0xbca48a4f	-0.020085482
219	0xbd4d97c3	-0.05019356
220	0x3d4039f1	0.046930257
221	0xbccf92e2	-0.025338594
222	0x3c0ce957	0.008600554
223	0x3d24461f	0.040105935
224	0x3ca5435e	0.020173725
225	0xbd313a02	-0.04326821
226	0xba6645e9	-0.0008784221
227	0x3bb7e232	0.0056116814
228	0x3d58305a	0.052780487
229	0xbd4765e1	-0.048681144
230	0xbd70b035	-0.058761794
231	0xbcdfd42f	-0.027322857
232	0xbd15a7fc	-0.036537156
233	0xbcdf98af	-0.027294485
234	0x3d2c05fd	0.0419979
235	0xbd3d16a1	-0.04616416
236	0x3c2fd9e8	0.010733105
237	0xbd0ac453	-0.033878636
238	0xbcf86ec1	-0.03032625
239	0xbcb8b136	-0.022545438
240	0x3d128434	0.03577061
241	0x3d6a06c6	0.057135366
242	0x3d7952b8	0.060869902
243	0xbd2d2348	-0.042269975
244	0xbd748678	-0.059698552
245	0x3c0cbe7c	0.008590337
246	0x3d10001d	0.035156358
247	0xbcb97cae	-0.02264246
248	0xbd5317e8	-0.05153647
249	0x3c7272df	0.014797895
250	0x3d47adf3	0.048749875
251	0x3d2300ad	0.039795566
252	0x3d3dfd89	0.046384368
253	0xbd576891	-0.052589957
254	0xbd2e3776	-0.04253336
255	0xbc8a7f5a	-0.01690643

shared.4.weight f4 [256]
0	0x3f8e6714	1.1125207
1	0x3f8942a0	1.0723457
2	0x3faaf8bb	1.3357157
3	0x3f92b8fc	1.1462703
4	0x3f8fc2f1	1.1231366
5	0x3f92137f	1.14122
6	0x3fa01bf6	1.2508533
7	0x3f907fe3	1.1289028
8	0x3f90a0f1	1.1299115
9	0x3f927b0e	1.1443803
10	0x3f9e067a	1.2345726
11	0x3fa339d0	1.2752018
12	0x3f9e8233	1.2383484
13	0x3f8d5593	1.104174
14	0x3f8ea7b1	1.1144925
15	0x3f8ce262	1.1006587
16	0x3f9886d6	1.1916149
17	0x3f8b87d3	1.0900825
18	0x3f9ad7a1	1.2097055
19	0x3f8b66ed	1.0890785
20	0x3fa3558b	1.2760481
21	0x3f97d5c9	1.1862117
22	0x3f8f2417	1.1182889
23	0x3f992b6e	1.1966379
24	0x3f8d4a10	1.1038227
25	0x3f96c5f3	1.1779159
26	0x3f903977	1.1267537
27	0x3f9f7b17	1.2459439
28	0x3f995842	1.1980059
29	0x3f9c2ed3	1.220179
30	0x3f906f4c	1.1283965
31	0x3f9ea810	1.2395039
32	0x3f969d89	1.1766826
33	0x3f947cfd	1.1600643
34	0x3fa6aa38	1.3020697
35	0x3f927f30	1.1445065
36	0x3f975df8	1.1825552
37	0x3f9655da	1.174495
38	0x3f940321	1.1563455
39	0x3f92e43c	1.1475902
40	0x3f9af273	1.210524
41	0x3f8cec00	1.1009521
42	0x3f93bcef	1.1542033
43	0x3f995cd0	1.1981449
44	0x3f8ed3b3	1.1158355
45	0x3f9df91a	1.2341645
46	0x3f929c7e	1.1454008
47	0x3f990e83	1.1957554
48	0x3f958c86	1.1683509
49	0x3f9454ea	1.1588414
50	0x3fa0dfa3	1.2568249
51	0x3f99eab8	1.2024755
52	0x3f92cfa8	1.1469622
53	0x3f8e1ef1	1.1103193
54	0x3f939022	1.1528361
55	0x3fa4a2d4	1.2862191
56	0x3f891ec0	1.0712509
57	0x3f8e0b37	1.1097172
58	0x3f9557a3	1.166737
59	0x3f8aed3e	1.085365
60	0x3f9c35be	1.2203901
61	0x3f9f8adb	1.246425
62	0x3f911c88	1.1336832
63	0x3f96f070	1.1792126
64	0x3f952b8f	1.1653918
65	0x3f9b1c50	1.2118015
66	0x3f9e8b2f	1.2386225
67	0x3f980143	1.1875385
68	0x3f8a4f67	1.0805482
69	0x3f919e8f	1.1376513
70	0x3f9dc99b	1.232715
71	0x3f99b2e3	1.2007717
72	0x3fa1acef	1.26309
73	0x3fa09eb7	1.2548436
74	0x3f983113	1.1889976
75	0x3f9dafc6	1.2319267
76	0x3f8dffd0	1.1093693
77	0x3f9c1c5e	1.2196157
78	0x3f946206	1.1592414
79	0x3f971fb0	1.1806545
80	0x3f9142f6	1.134856
81	0x3f9572db	1.1675676
82	0x3f93cf6e	1.1547678
83	0x3f974ee2	1.1820948
84	0x3f988315	1.1915003
85	0x3f91b456	1.1383159
86	0x3f961384	1.1724706
87	0x3f91fc58	1.1405134
88	0x3f89f971	1.0779248
89	0x3fa8916b	1.3169378
90	0x3f9653e3	1.174435
91	0x3f978d7b	1.1840051
92	0x3f8d900e	1.1059587
93	0x3f928d15	1.1449305
94	0x3f92196d	1.1414009
95	0x3f932958	1.1496992
96	0x3fa79837	1.3093327
97	0x3f972672	1.1808608
98	0x3f8e6bba	1.1126626
99	0x3f951cc3	1.1649402
100	0x3f8f91b6	1.1216342
101	0x3f94b2c3	1.1617054
102	0x3f8d9a39	1.106269
103	0x3f8a7dc3	1.081963
104	0x3f99afe3	1.2006801
105	0x3f893e01	1.0722047
106	0x3f8ea87f	1.1145171
107	0x3f8b8c88	1.0902262
108	0x3f9c0e80	1.2191925
109	0x3fa61954	1.297648
110	0x3f9e0a6e	1.2346933
111	0x3f8d722a	1.1050465
112	0x3f8e6622	1.1124918
113	0x3f963b10	1.1736774
114	0x3fa66e1c	1.3002353
115	0x3f91d989	1.1394511
116	0x3f9138a9	1.1345416
117	0x3f9ab752	1.2087195
118	0x3f9b3fe9	1.2128879
119	0x3f91299f	1.1340827
120	0x3f994459	1.1973983
121	0x3f898596	1.0743892
122	0x3f99bf3c	1.2011485
123	0x3f9b66bb	1.2140726
124	0x3f98d356	1.1939495
125	0x3f9805d6	1.1876781
126	0x3fa07479	1.2535545
127	0x3fa09faa	1.2548726
128	0x3f986093	1.1904472
129	0x3f94fcd1	1.1639653
130	0x3fa1a6f1	1.2629071
131	0x3f941e5c	1.1571765
132	0x3fbafc4d	1.4608246
133	0x3f9710a4	1.1801953
134	0x3f947430	1.1597958
135	0x3fa2d025	1.2719771
136	0x3f99f1f9	1.2026969
137	0x3f8ddaa9	1.1082355
138	0x3f99360d	1.196962
139	0x3f91e729	1.139867
140	0x3f991907	1.1960763
141	0x3f91a214	1.1377587
142	0x3f8bb809	1.0915538
143	0x3f92c9e9	1.1467868
144	0x3f8f7356	1.1207073
145	0x3faaa9fa	1.3333123
146	0x3fa9abe0	1.3255577
147	0x3fa10ce5	1.258206
148	0x3f95e5ba	1.1710732
149	0x3f949edc	1.161098
150	0x3f9688f0	1.176054
151	0x3f9ddf41	1.2333757
152	0x3f9478e9	1.1599399
153	0x3f8f1c9f	1.118061
154	0x3f9dd1b1	1.2329618
155	0x3f9bfcac	1.2186484
156	0x3f926538	1.143714
157	0x3f922c2e	1.1419733
158	0x3f998f16	1.1996791
159	0x3f929cf6	1.1454151
160	0x3f92943a	1.1451485
161	0x3f968a74	1.1761003
162	0x3fa3ed76	1.2806842
163	0x3f8c960e	1.0983293
164	0x3f94e929	1.1633655
165	0x3f8e3b98	1.1111937
166	0x3f91a5ff	1.1378783
167	0x3f941155	1.1567789
168	0x3f97765b	1.1832994
169	0x3f943aa5	1.1580397
170	0x3fa09311	1.2544881
171	0x3f9568f7	1.1672658
172	0x3f9d1d49	1.2274562
173	0x3f90cd61	1.1312677
174	0x3f9bceb5	1.2172457
175	0x3fae0037	1.3593816
176	0x3f8f116b	1.117719
177	0x3f8c9562	1.0983088
178	0x3fa25b6d	1.2684151
179	0x3f969a23	1.1765789
180	0x3f8be4c8	1.0929193
181	0x3f989ee1	1.1923486
182	0x3f922cee	1.1419961
183	0x3f93d144	1.1548238
184	0x3f8e1c0f	1.1102313
185	0x3fa78bef	1.3089579
186	0x3f97c95b	1.1858324
187	0x3f99bcff	1.2010802
188	0x3f95c3ec	1.1700416
189	0x3f94ef45	1.1635519
190	0x3f945c26	1.1590621
191	0x3f8f6b54	1.1204629
192	0x3f8dceb5	1.1078707
193	0x3f8b3936	1.0876834
194	0x3f8d34c7	1.1031731
195	0x3f98b83f	1.1931227
196	0x3f9c9868	1.2234011
197	0x3f8e46c3	1.1115345
198	0x3f9d5e84	1.2294469
199	0x3f9b2b8e	1.2122667
200	0x3fa67df4	1.3007188
201	0x3fa9201a	1.3212922
202	0x3f8e7888	1.1130533
203	0x3f9de3c7	1.2335137
204	0x3f9b2476	1.2120502
205	0x3faf2a99	1.3684875
206	0x3f8734da	1.0563004
207	0x3fa3c0b2	1.2793181
208	0x3f897386	1.073838
209	0x3f90d58f	1.1315173
210	0x3f93be6e	1.154249
211	0x3fa41fdc	1.2822223
212	0x3f92d0d8	1.1469984
213	0x3fa8f926	1.3201034
214	0x3f94c17c	1.1621547
215	0x3f957fef	1.1679667
216	0x3fa2556e	1.2682321
217	0x3f8ddfd6	1.1083934
218	0x3f9270fb	1.1440729
219	0x3f9a6394	1.2061639
220	0x3f8b60c2	1.0888903
221	0x3f9737f3	1.1813949
222	0x3fa1c4d6	1.2638195
223	0x3f911f06	1.1337593
224	0x3f933d46	1.1503074
225	0x3f97f380	1.1871185
226	0x3f9061e8	1.1279879
227	0x3f8e99ff	1.1140746
228	0x3f8f907a	1.1215966
229	0x3fa236e6	1.2673004
230	0x3f91bd96	1.1385982
231	0x3f8e4535	1.111487
232	0x3f8c0b87	1.0941018
233	0x3fa44da9	1.28362
234	0x3f91ca2f	1.1389827
235	0x3f8f4fb4	1.1196198
236	0x3f9d3ef4	1.2284837
237	0x3fa19112	1.2622397
238	0x3f9edb9a	1.2410767
239	0x3f968f02	1.1762393
240	0x3f884e5d	1.0648915
241	0x3fa189cb	1.2620176
242	0x3f91b6b5	1.1383883
243	0x3f944f05	1.1586615
244	0x3f89e0b8	1.0771704
245	0x3f95e25e	1.1709707
246	0x3f9e54f4	1.2369676
247	0x3f9b515f	1.2134207
248	0x3fa413fa	1.2818596
249	0x3f9a23e5	1.2042204
250	0x3fa1f73c	1.2653575
251	0x3f920dc6	1.1410453
252	0x3f963251	1.1734105
253	0x3fa13358	1.2593794
254	0x3f8ff0d9	1.1245376
255	0x3f9a8c0b	1.2073988
