policy_ckpt/Humanoid-v5/06-06-25_19:08:43/epoch3680_reward6063.27.pt (torch, 912518 bytes, 14 tensors)

policy_logstd f4 [17]
000000 94 e4 12 bf 78 24 28 bf cd ec 36 bf b6 e4 0f bf
       -0.5738003 -0.65680647 -0.7145508 -0.5620836
000010 d0 49 3e bf c1 86 92 bf d6 29 b5 bf f2 52 1b bf
       -0.7433138 -1.1447374 -1.4153392 -0.6067344
000020 38 9c 2d bf 08 99 91 bf 3b b5 9e c0 1f bc f8 be
       -0.67816496 -1.1374826 -4.959623 -0.48581025
000030 b3 88 f1 be 2f d3 da be 22 96 d2 be 17 1f e7 be
       -0.47174606 -0.42739245 -0.41130167 -0.45140907
000040 fe 3d cc be
       -0.39891046

shared.0.weight f4 [256, 348]
000000 bd 0e 1b 3e a4 7c 17 3b 9a 65 a0 be c8 a8 a6 3d
       0.15142341 0.0023115063 -0.31327516 0.08137661
000010 47 23 c3 be 36 47 c8 be 44 4e 96 bc f6 09 92 3e
       -0.38112852 -0.3911683 -0.018347867 0.28523225
000020 f0 58 8f 3e 21 60 43 bf db c0 41 3f cf 2c 05 3f
       0.2799754 -0.76318556 0.756849 0.520215
000030 1f 5c 0b 3e d5 33 8c 3e dc 2e 19 3e 8f a8 5d be
       0.1360936 0.27383295 0.14959282 -0.21646331
000040 bd 1d 97 3d de 1c 5a bb c6 72 c7 bc f8 67 d5 3d
       0.07378719 -0.0033281366 -0.02434672 0.10420221
000050 91 d6 7b 3c cf ba 3d bd b1 c9 11 be 33 97 84 3e
       0.015370981 -0.046320733 -0.14237095 0.25896606
000060 e8 4f 89 3d e2 b2 8a bd 3c 30 24 bd 1e 69 27 3d
       0.06704694 -0.067724004 -0.040085062 0.040871732
000070 72 12 d8 bc 34 59 99 bd 9b 87 d4 b9 ad 21 3a 3b
       -0.026375983 -0.07487717 -0.00040536825 0.002840142
000080 ec 84 a2 bc 1a f6 4d 3c 69 1b 6a 3d 36 9a 79 3c
       -0.019838773 0.012570882 0.057155047 0.015234521
000090 8a d6 9b 3d e0 3e 0a bd 36 c2 4c bd 9c 73 88 3d
       0.076092795 -0.03375137 -0.0499899 0.06662676
0000a0 80 ad 40 ba 00 2a 36 3d d1 ca 34 3b 5c 40 37 3b
       -0.0007350072 0.044473648 0.0027586708 0.0027961945
0000b0 af 10 99 3c 92 f9 0d 3d 1b eb a1 3d 30 7c 9d bd
       0.018684713 0.034661837 0.07906171 -0.076897025
0000c0 9a 2f 98 bd c9 ae ea 3c 36 94 01 bf 8d 05 9c bc
       -0.07430954 0.028647797 -0.50616777 -0.019045616
0000d0 04 50 cf 3e 75 92 96 3c 01 13 f1 3a b8 3f 57 bc
       0.40490735 0.018380383 0.0018392504 -0.01313775
0000e0 6c 90 78 3c f0 fc ad be 9b 94 a2 be c1 a1 77 3d
       0.015171152 -0.33982038 -0.31754002 0.060456995
0000f0 11 4c 47 be 01 e2 53 bd 93 26 1b 3e fa de 0d bd
       -0.19462611 -0.051729206 0.15151434 -0.034636475
000100 05 01 0e 3b 2f 73 6d be 9a b9 42 be 6e b8 8f be
       0.0021668088 -0.2318847 -0.19016114 -0.28070396
000110 88 14 0d be 44 98 06 bf 4d 78 af bd 81 38 a6 bd
       -0.13777363 -0.5257609 -0.085678674 -0.08116246
000120 42 e4 1d bd 9f 44 01 be 68 ab 21 3d 0c 36 f8 ba
       -0.03854776 -0.12623833 0.039470106 -0.0018937006
000130 b0 12 1a bd 16 b2 57 3d 55 ca 32 be a8 b9 18 bf
       -0.037615478 0.05266007 -0.17459996 -0.5965829
000140 c5 b3 75 bd 0d 73 da be d3 33 fd bd e2 b9 76 3d
       -0.059985895 -0.42665902 -0.123634 0.060235865
000150 01 ba bd 3c 98 46 cc 3d d8 ad c6 3d dd 2f ca 3c
       0.023159983 0.09974402 0.09701127 0.024681026
000160 5b f2 0b 3e cb 3c 28 be 25 7d dc bb a4 d0 1d be
       0.1366667 -0.1642944 -0.0067287856 -0.15411621
000170 2c db 3d bc de fe c5 3c 2c 59 2e 3d 86 fe 49 3e
       -0.011587899 0.024169382 0.04256551 0.19725999
000180 b6 f8 4e 3e 15 03 52 be ac 14 ab 3e f9 eb 44 3e
       0.20212063 -0.20508988 0.3341421 0.19230641
000190 b1 cb 6f 3d 20 bb 85 3e 7c 1e c7 bc 88 1c e9 bd
       0.058543865 0.26119328 -0.024306528 -0.11382395
0001a0 c6 94 1f 3d 64 d1 4a bd 09 e1 d0 3d 89 96 77 be
       0.03896024 -0.049516097 0.10199172 -0.24178518
0001b0 0f 91 fa 3d 3f 49 8b 3f 90 49 0c be 11 fa 3a 3f
       0.12234699 1.0881728 -0.13699937 0.7303782
0001c0 dd 2f 1f be 30 8d 0c be 8d 5f 29 3d a8 77 46 bd
       -0.15545602 -0.13725734 0.04135089 -0.048453957
0001d0 2a 60 18 3d d4 b8 e0 be a5 b5 27 3f 64 11 17 3e
       0.037201084 -0.43891013 0.6551154 0.14752728
0001e0 14 fe 9f be ad 14 74 3e 27 20 bd be ca e3 8a bc
       -0.31248534 0.23836012 -0.36938593 -0.016954321
0001f0 88 8c 4b bb 2f 11 3d bd 14 8f 36 bd d0 e2 02 bf
       -0.0031059105 -0.046158966 -0.044570044 -0.5112734
000200 7f b1 28 3f 0c 40 1a bb 6f 26 87 be ab 32 2c bd
       0.6589584 -0.002353671 -0.2639651 -0.04204051
000210 08 4b 11 be 9f eb 07 bc 30 74 09 3d 71 6a ab 3d
       -0.14188778 -0.008295923 0.03355807 0.083699115
000220 01 31 d3 3d dd d8 9b bd f9 c7 3d 3f 92 27 25 bd
       0.10312081 -0.07609723 0.7413326 -0.04032094
000230 44 24 73 3c 89 c0 8a bd ac 50 02 3d fd d0 b6 3c
       0.014840189 -0.067750044 0.031815216 0.02231645
000240 08 11 3e 3d d7 f3 96 bc ee ed 7d 3d 89 f7 58 bc
       0.04640296 -0.018426819 0.061994486 -0.013242611
000250 47 6e 13 3e 0f 3a 0b bd 94 ab 21 be 57 82 99 bb
       0.14397536 -0.033990916 -0.15788108 -0.004684727
000260 a1 17 40 3e ed a5 eb 3d 69 cd 58 3d 35 c3 ae 3c
       0.18759014 0.11506257 0.05293027 0.021333316
000270 18 2f 0b bb 52 31 8d 3d dc 22 77 3e 08 4a 79 bc
       -0.0021237787 0.06894173 0.24134392 -0.015215404
000280 db 51 44 be 50 04 3b 3e 9a 94 cc 3d e6 79 9c 3b
       -0.1917185 0.18263364 0.09989281 0.0047752736
000290 00 d1 89 bb f6 3e 0d 3d 85 ae 56 bd 26 70 50 3d
       -0.004205823 0.034483872 -0.05241253 0.050888203
0002a0 b2 a4 06 3f 4e 9a 4a 3b b8 6b 41 bd 87 79 f5 3d
       0.52595055 0.0030914727 -0.04722187 0.1198607
0002b0 e8 38 c2 3d 3c d1 bc bd 7e 85 37 3d f5 fb 0e bd
       0.0948351 -0.09219596 0.044805042 -0.034908254
0002c0 f3 9e d5 bb 9e c3 29 bd 5f 83 95 bd 43 e4 e4 3d
       -0.0065191924 -0.04144632 -0.07300448 0.1117635
0002d0 22 b8 90 be ba da 23 be f3 d1 06 bc 64 e8 51 3c
       -0.28265482 -0.16001406 -0.008228767 0.012811754
0002e0 5f 56 41 3c b1 4c 17 3e d9 cc 3d be f4 6a d9 3b
       0.011800378 0.14775349 -0.18535174 0.0066350643
0002f0 43 ef ee 3c e3 36 b4 bd 78 e9 9d bb c9 f3 61 3e
       0.029166823 -0.08799531 -0.0048190914 0.22065653
000300 e8 77 0d be 54 2c aa bd d2 f3 59 3d ab 46 db bc
       -0.13815272 -0.08309236 0.05321104 -0.026767096
000310 7e e7 64 bd f1 aa 19 bb 56 62 39 bd 5e 35 c9 bc
       -0.05588483 -0.0023447836 -0.045259796 -0.02456158
000320 17 fb 06 3d 11 89 99 ba 03 7e e3 bc 72 e7 8d 3d
       0.0329543 -0.0011713823 -0.027770048 0.0692891
000330 36 e7 27 3d be 55 06 3d b6 0c 1e bb 1d 96 c9 3d
       0.040991984 0.032796614 -0.0024116463 0.09843085
000340 40 d2 87 bd b3 43 ca 3d 9f 89 09 3d 04 bb 0e be
       -0.06631899 0.09876194 0.03357851 -0.13938528
000350 06 b6 7c 3c 2e d0 1e 3d 5d 7d 43 3a d0 b1 42 be
       0.015424257 0.038772754 0.000745734 -0.19013143
000360 93 77 55 be 11 14 85 bd d1 96 11 3b 27 09 06 3d
       -0.20846395 -0.06497968 0.0022215138 0.032723572
000370 7f 08 f4 3c f1 2f 93 bd ba 11 8b bd 1f 94 09 3c
       0.029789208 -0.071868785 -0.067904904 0.008397131
000380 d4 cd ca 3c 52 cf 67 bc 1a a6 8f 3b a8 7b d3 bd
       0.02475635 -0.01414855 0.0043838145 -0.1032632
000390 8f 57 1d bd 09 82 2c bd 39 89 8e bc 49 6d 7f 3c
       -0.03841358 -0.0421162 -0.017399417 0.01559002
0003a0 0d be 4e bd 80 92 cd 3d d5 0e 44 be ab 83 07 bd
       -0.050474215 0.10037708 -0.19146283 -0.033084553
0003b0 e3 d2 29 3c f2 ee 5c bc 0a 21 b4 3a 00 a1 e9 3d
       0.010365221 -0.013484703 0.0013742757 0.114076614
0003c0 2d 71 29 bd 7f e2 08 bc df a3 b7 bc cf 51 49 bd
       -0.0413677 -0.008354782 -0.022417007 -0.049150284
0003d0 42 39 a7 3b 89 89 05 bd 42 39 08 bd 4e 5a da 3c
       0.005103261 -0.032601867 -0.03325773 0.026654389
0003e0 c9 b2 3a 3c 12 f6 9e 3d 5e 70 9c 3c da 65 01 3e
       0.011395165 0.07761778 0.01909655 0.1263651
0003f0 ad b5 28 bd 1e 91 50 3b a9 88 22 3b 17 ff c9 bb
       -0.041188885 0.0031824778 0.0024800694 -0.0061644423

shared.0.bias f4 [256]
000000 34 c6 99 3c 77 07 87 3b 31 aa 42 3d 17 f3 93 bd
       0.018771268 0.004120763 0.04752559 -0.072241
000010 e4 c5 76 3d 3e 69 05 3b 43 b9 b5 bb f8 b6 f3 bc
       0.060247317 0.0020356919 -0.0055457666 -0.029750332
000020 e5 89 44 3c 3a 75 d4 3c db e8 e9 ba 7a 63 71 3d
       0.011995767 0.025934804 -0.0017845886 0.05893276
000030 51 1f c2 3c cf 21 0d bc 8c c6 42 bc aa e4 92 3d
       0.023696573 -0.008614018 -0.011888158 0.071725205
000040 1d 68 20 3c 81 45 8f bb 6d b2 12 3b f5 84 e5 3c
       0.009790448 -0.004372299 0.0022384182 0.0280175
000050 2a 76 b6 bb 1c d2 15 bd 52 32 e4 b8 2a 1a ce bc
       -0.0055682855 -0.03657733 -0.0001088126 -0.02515896
000060 c3 39 d2 3c 4d 95 c9 3c 9a 87 c8 bc 82 59 d6 3c
       0.025662309 0.024607325 -0.024478722 0.026165728
000070 86 cf 22 3c 83 e0 50 bc 8f d7 31 bd 5e ce 6a 3b
       0.009937173 -0.01274884 -0.043418463 0.003582857
000080 04 07 f3 bc 60 7b 49 3b 17 2d 3a 3d 72 85 00 bd
       -0.029666431 0.0030743703 0.045453157 -0.031377263
000090 87 cb 22 3d a8 b6 1d bb 0f 0f 1e bd 3e e5 10 3d
       0.03974488 -0.002406517 -0.03858858 0.035374872
0000a0 05 84 68 bd 94 a7 19 3c 5a 18 af 3b 05 3f 45 bd
       -0.05676653 0.009378333 0.005343479 -0.048155803
0000b0 3e 9e 3e bd 8f 46 f3 3c dc 6e 4f 3d 09 4f e6 bc
       -0.04653763 0.02969673 0.050642833 -0.028113859
0000c0 58 b7 3a 3d 6b 33 c9 3c f6 2f d8 3c bf 3c e5 3c
       0.045585006 0.02456065 0.026390057 0.027983068
0000d0 0c 1e de 3b b9 10 f7 3c 03 a6 11 bb a3 a1 a4 3a
       0.006778484 0.030159341 -0.0022224195 0.0012560379
0000e0 32 ee 1d 3d 4e 16 12 bb bf a7 ba bc d1 56 29 3d
       0.03855724 -0.0022291127 -0.022785066 0.04134256
0000f0 4b f0 37 3c 7e e1 69 3c 75 cb 74 3d 8d 3f 18 bd
       0.011226724 0.014274953 0.059764344 -0.03716998
000100 5c e1 44 39 67 82 d0 bc 92 e4 6a bc 4f d1 54 3c
       0.0001877597 -0.025452806 -0.014336722 0.012989356
000110 bb a5 ad 3c a9 f1 80 3c 3f 8b a2 3c f5 88 e7 bc
       0.02119719 0.015740233 0.019841788 -0.028263548
000120 cf 2a c9 3c 1b 3a de 3b 3e 1b 85 bc 9b c3 a3 bc
       0.024556546 0.006781829 -0.016248342 -0.019990733
000130 5d cb 24 bb 04 23 42 bd d1 80 79 3d 2e 4f 34 3d
       -0.0025145628 -0.047396675 0.060913865 0.044020824
000140 67 dd 28 3d 43 2f 4e 3d 0c fc 8f 3c 5e 66 dc bc
       0.04122677 0.05033804 0.01757624 -0.026904281
000150 bb ad 8b bd d2 23 6e 3d 2c 94 52 bd fb e6 44 3d
       -0.06820246 0.05813963 -0.05141084 0.048071843
000160 98 fe 90 3b 5c c4 8d bc 80 19 50 bd df 64 a6 3b
       0.004424881 -0.017305546 -0.05080557 0.0050779427
000170 a8 4e 85 3d 08 8b 26 bd 19 4e 47 bd b1 ac e2 bb
       0.06509143 -0.040659934 -0.048658464 -0.006917559
000180 d2 f9 b1 bc 95 c0 25 3d 4b 3d bd 3c da 49 cc 3c
       -0.021725569 0.040466864 0.023100516 0.024937559
000190 57 a8 9e 3d 41 a5 a9 3c e8 77 11 3d ea 49 cc bb
       0.07746952 0.020708682 0.035514742 -0.006234397
0001a0 e9 fb 13 3d de a6 b5 bc 49 01 2a bd a4 7c d5 bb
       0.036128912 -0.022174295 -0.041505132 -0.0065151025
0001b0 83 8a b7 bc e2 41 b9 bc c6 59 2b 3c cc d1 89 ba
       -0.022404915 -0.022614423 0.010458415 -0.0010514795
0001c0 b0 f1 34 3c ac 63 06 bc 78 15 80 3c cf f0 55 bd
       0.011043951 -0.008202475 0.015635237 -0.052231606
0001d0 18 5a 13 bc 18 2e a4 bd 56 0a 4b bd be 6a 55 3d
       -0.008993648 -0.08016604 -0.049570404 0.05210375
0001e0 bf ce 9d bc 8f 18 2b 3d 4e 9e 32 bd ae c9 63 bd
       -0.019263623 0.041771468 -0.043608002 -0.05561226
0001f0 29 b7 4c bc 47 9b ee bc 7b 7d 15 bb 2e 69 8d bc
       -0.012494841 -0.029126776 -0.0022810388 -0.017262068
000200 42 32 62 bb 2a a9 3f bd dc c9 0d bd 53 c6 7e 3c
       -0.003451482 -0.046792187 -0.034616336 0.015550214
000210 fa 2e 63 bd 45 7c 08 3d 9e 2d 04 bc 43 5f 50 bd
       -0.055464722 0.033321638 -0.008067517 -0.0508721
000220 3e 9d 96 bd c9 57 39 3c a4 54 93 3d 6b 28 76 3d
       -0.0735421 0.0113124335 0.07193878 0.06009714
000230 fb 90 d0 3c 5d 33 8b bd 04 8f 6e 3d 4b af b4 3c
       0.025459757 -0.06796906 0.05824186 0.022056242
000240 99 ac 65 bd 4c 40 69 3c de 22 4b 3d b8 64 85 bd
       -0.056072805 0.014236521 0.0495938 -0.06513351
000250 87 7f 9e bc 45 51 10 3c d2 6b 54 3d bf 57 59 3d
       -0.01934792 0.008808439 0.051860638 0.053062197
000260 53 24 8d 3d 65 62 a6 3c a0 5d d7 3c 2d 16 af bc
       0.06891694 0.02031059 0.026289761 -0.021372879
000270 cc 1f 83 3c bc a7 4d 3d b3 22 b0 3b 5b a9 97 3c
       0.016006373 0.050208792 0.00537523 0.018513372
000280 2a 9d 02 3c 3c 08 99 bb f6 d1 7c 3c 97 e2 14 bd
       0.007972041 -0.004670171 0.015430918 -0.036348905
000290 ff bc 45 bc ef 87 48 3d e5 54 4e bc 3b 0e ac bc
       -0.012068986 0.04895776 -0.012593483 -0.02100288
0002a0 78 b2 d7 bc 15 36 1b 3c 57 f1 dc bc fa e0 c6 bc
       -0.026330218 0.009473343 -0.026970549 -0.024277199
0002b0 41 90 aa ba a8 9e 84 bd 07 67 4d bb 03 8c 9e 3a
       -0.0013012962 -0.06475574 -0.0031341927 0.001209617
0002c0 80 60 88 bd 97 71 b6 bc f8 4b e6 3b f0 36 f3 3b
       -0.06659031 -0.02227096 0.007028099 0.0074223205
0002d0 94 5d 19 bd 2b 24 27 bd fd 53 d0 3c 69 1a a3 bc
       -0.03744276 -0.040805977 0.025430674 -0.019910054
0002e0 55 c4 be bc 71 1c 81 bd 66 2c 36 bd 4e f4 83 bc
       -0.023286978 -0.06304253 -0.044475935 -0.016107704
0002f0 1f c8 18 3d e7 68 0d bc 26 8c b3 bc 76 44 6e 3c
       0.037300225 -0.008630968 -0.021917414 0.01454269
000300 8f 95 bc bc c4 33 67 3b 69 4d 14 3d 5d e6 55 bc
       -0.023020534 0.0035278657 0.036206637 -0.013055411
000310 83 f6 09 bd a8 ac c8 bc 86 05 03 bd 00 58 2d 3c
       -0.033682358 -0.024496391 -0.03198769 0.010580063
000320 8b 95 f8 3c 48 34 32 bd 34 cd 0a 3d ae 4b e6 bb
       0.030344745 -0.04350689 0.033887103 -0.0070280647
000330 84 22 89 bc 34 b4 cd b9 41 e0 3e bd 88 89 e3 3c
       -0.016740091 -0.0003923491 -0.046600584 0.027775541
000340 76 78 3d bd 86 da c6 bc a6 93 c6 bc ec 9e 1b bc
       -0.04625746 -0.024274122 -0.024240326 -0.009498339
000350 87 18 ee 3c 5a 9c 0e 3d 83 5d a6 3b 6c 55 d1 3b
       0.02906443 0.034817077 0.0050770654 0.006388357
000360 15 9c f4 bb d8 bf 8e bb 94 1f 25 3d f8 2a 72 bd
       -0.0074648955 -0.0043563657 0.04031332 -0.05912301
000370 46 82 98 bc 07 70 2b 3d 9c c4 d4 bc b9 73 4b bd
       -0.018616807 0.041854884 -0.025972657 -0.04967091
000380 a3 2f cb 3a 02 c9 18 bd a0 e5 3c 3d f2 46 90 bd
       0.0015501868 -0.03730107 0.046117425 -0.07044782
000390 e2 d1 b6 3d bd 96 08 bc d8 39 f2 3c 6c e2 10 b9
       0.08926751 -0.00833672 0.029568598 -0.00013817259
0003a0 5e 19 10 3d fc 59 a1 3c a1 65 8c 3b 28 3d 7b 36
       0.035180442 0.019696228 0.004284576 3.7437512e-06
0003b0 ef 80 76 3d ff eb 40 bd dc 19 4d 3b 47 fc 88 bc
       0.060181554 -0.047100063 0.003129593 -0.016721858
0003c0 1d 96 14 3d d2 94 13 bd b0 82 47 bd c3 f0 ee bb
       0.03627597 -0.036030598 -0.048708618 -0.0072918846
0003d0 08 c3 56 bd 45 e8 c3 3c 97 a4 8b 3c d9 dd 5f bd
       -0.05243209 0.023914466 0.017046256 -0.05465493
0003e0 54 39 6a 3c d6 7d f3 3c 2d 7e 40 3b bc fc 83 3d
       0.014295895 0.02972309 0.0029372082 0.0644469
0003f0 28 dc 49 bc 23 50 db bc cb 16 8e 3d 8c 74 24 3d
       -0.012320556 -0.02677161 0.06937941 0.04015021

shared.1.weight f4 [256]
000000 07 eb 87 3f 81 e5 75 3f aa d4 76 3f 28 a6 6b 3f
       1.06186 0.9605332 0.9641825 0.9205041
000010 b0 b4 7d 3f 45 af 81 3f 38 b7 81 3f 14 bc 7b 3f
       0.9910383 1.0131613 1.0134039 0.9833386
000020 d3 65 77 3f 9e 7e 75 3f 4c f5 82 3f 3f 8e 85 3f
       0.96639746 0.9589633 1.0231109 1.0434035
000030 f1 99 7b 3f 6c 84 78 3f 83 c5 81 3f 2c c8 9d 3f
       0.9828177 0.9707706 1.0138401 1.2326713
000040 cf af 7c 3f 87 7e 79 3f 4a 45 79 3f 36 12 8a 3f
       0.9870576 0.9745869 0.9737135 1.0786808
000050 dc 20 80 3f c9 83 9d 3f 8f 5c 75 3f 5b 64 7a 3f
       1.0010028 1.2305843 0.9584436 0.9780938
000060 af ae 7a 3f 3c 97 74 3f aa 80 80 3f 1f 27 78 3f
       0.97922796 0.95543265 1.0039265 0.96934694
000070 4f 39 79 3f d9 4c 81 3f 62 7a 7b 3f af 17 82 3f
       0.9735307 1.0101577 0.98233616 1.0163478
000080 28 70 7f 3f 9b 1f 83 3f d0 2e 8c 3f 26 69 78 3f
       0.9978051 1.024402 1.0951786 0.97035444
000090 64 72 7b 3f f6 40 84 3f 56 fd 84 3f d9 dd 84 3f
       0.9822142 1.0332325 1.0389812 1.0380203
0000a0 e0 ad 71 3f 07 07 84 3f 06 a6 7a 3f 49 01 81 3f
       0.9440594 1.0314645 0.9790958 1.0078517
0000b0 db 2e 76 3f 7b cf 82 3f 35 64 82 3f 96 6c 80 3f
       0.96165246 1.0219568 1.0186831 1.0033138
0000c0 64 fb 6d 3f a5 2d 78 3f 90 17 78 3f 85 40 85 3f
       0.92961717 0.9694465 0.96910954 1.0410315
0000d0 d1 ba 80 3f 97 90 81 3f 5e 71 7f 3f 41 cc 7a 3f
       1.0057012 1.012225 0.9978236 0.97967917
0000e0 df 15 7a 3f 19 0c 83 3f 6b 58 81 3f e3 ae 7f 3f
       0.9768962 1.0238067 1.0105108 0.9987623
0000f0 00 5e 78 3f 83 d9 82 3f c9 4e 6e 3f 0d be 80 3f
       0.9701843 1.0222629 0.93088967 1.0057999
000100 fe d7 6f 3f 2f 07 78 3f 7c 47 79 3f cf 35 83 3f
       0.9368895 0.9688596 0.973747 1.0250796
000110 81 bc 78 3f 50 0b 80 3f ae 52 7f 3f f3 96 76 3f
       0.97162634 1.0003452 0.99735534 0.9632408
000120 85 d8 73 3f 2e 37 84 3f 86 7b 82 3f 9d f0 79 3f
       0.9525226 1.032934 1.0193946 0.9763277
000130 b4 50 81 3f 60 64 76 3f b4 da 79 3f 04 9a 7a 3f
       1.0102754 0.9624691 0.9759934 0.9789126
000140 96 72 86 3f bb 45 80 3f e3 7c 74 3f 3f ac 78 3f
       1.0503719 1.002128 0.9550306 0.97137827
000150 78 2f 81 3f 77 fc 72 3f 74 87 7c 3f 4e 53 7e 3f
       1.0092611 0.9491648 0.98644185 0.9934586
000160 21 99 7f 3f f4 9b 78 3f 51 31 7d 3f 1a 7c 70 3f
       0.9984303 0.97112966 0.98903376 0.93939364
000170 dd 21 ab 3f 0e 32 7d 3f e6 b8 82 3f 19 2c a9 3f
       1.3369709 0.989045 1.0212677 1.3216583
000180 66 59 7b 3f 51 c7 8a 3f ce ea 83 3f c3 23 78 3f
       0.98183286 1.0842077 1.0306032 0.9692957
000190 a0 e9 80 3f 50 f6 80 3f ed 98 79 3f 26 b0 83 3f
       1.0071297 1.0075169 0.9749897 1.0288131
0001a0 67 9b 83 3f 78 60 7b 3f de 22 79 3f 6c f8 84 3f
       1.02818 0.98194075 0.9731883 1.0388312
0001b0 dd 9e 81 3f 1e 53 81 3f 3d 3b 7e 3f fe 76 84 3f
       1.0126606 1.010349 0.9930914 1.0348814
0001c0 1d e3 88 3f 5e 5d 79 3f 16 f7 6e 3f a1 6e 73 3f
       1.069431 0.9740809 0.93345773 0.9509068
0001d0 88 d9 81 3f 72 a1 7a 3f 4a a4 7b 3f ad 38 7c 3f
       1.014451 0.97902596 0.9829756 0.9852398
0001e0 74 36 78 3f 4d 85 78 3f 47 0b 78 3f 96 92 7b 3f
       0.9695809 0.970784 0.9689221 0.9827055
0001f0 96 fc 78 3f 9b 47 89 3f e2 f2 7a 3f 76 de 75 3f
       0.97260416 1.0724977 0.9802686 0.96042573
000200 31 23 86 3f aa 73 74 3f e5 54 73 3f 4c a7 7a 3f
       1.047949 0.9548899 0.95051414 0.97911525
000210 2d 76 7d 3f 72 98 82 3f 42 88 7b 3f 7f 4c 7c 3f
       0.99008447 1.0202773 0.9825479 0.98554224
000220 88 34 7e 3f 21 e2 76 3f 39 e6 85 3f 3d 99 a1 3f
       0.99298906 0.96438795 1.0460883 1.262489
000230 e3 e0 80 3f c6 0c 72 3f 52 cd 81 3f 46 96 77 3f
       1.006863 0.9455074 1.0140784 0.96713674
000240 3d c8 84 3f 27 36 80 3f e5 c9 79 3f 38 e8 7c 3f
       1.0373608 1.0016526 0.9757369 0.9879184
000250 91 16 81 3f a9 bb 80 3f 4c 79 88 3f 53 b9 8e 3f
       1.0085012 1.0057269 1.0662017 1.1150306
000260 92 c7 77 3f d0 1a 77 3f 68 db 79 3f 12 e6 7f 3f
       0.96788895 0.9652529 0.9760041 0.99960434
000270 3e 28 84 3f 83 19 79 3f 92 ca 7f 3f d4 a6 89 3f
       1.0324781 0.9730455 0.9991847 1.0754037
000280 48 7e 80 3f d7 46 81 3f ed ab 7e 3f 53 7f 80 3f
       1.0038538 1.0099744 0.9948109 1.0038856
000290 62 45 7a 3f 13 ba 83 3f 5f 00 79 3f c1 0e 83 3f
       0.9776212 1.029116 0.9726619 1.0238878
0002a0 98 25 75 3f 7e 5d 81 3f 20 86 85 3f ae 1e 7f 3f
       0.9576049 1.0106657 1.0431557 0.9965619
0002b0 57 6b 7c 3f 6a 44 7a 3f 63 20 8b 3f 13 57 7f 3f
       0.9860129 0.9776064 1.0869259 0.9974224
0002c0 9e c6 73 3f fc 3c 6d 3f e4 cd 7b 3f 9b 77 87 3f
       0.9522494 0.9267118 0.9836104 1.0583376
0002d0 4d 5f 7e 3f d8 c2 7d 3f 59 e8 7d 3f c4 e9 7d 3f
       0.9936417 0.9912543 0.9918266 0.99184823
0002e0 bb f0 80 3f 04 a7 7c 3f 0c 82 84 3f 61 f6 8a 3f
       1.0073465 0.98692346 1.0352187 1.0856439
0002f0 ed 1a 81 3f 5b af 7c 3f 50 95 80 3f 81 c4 74 3f
       1.0086342 0.9870507 1.0045567 0.9561234
000300 8d 72 7e 3f 8c 49 8d 3f 20 d2 83 3f 61 10 7b 3f
       0.9939354 1.103807 1.02985 0.9807187
000310 85 db 7b 3f 40 f7 7f 3f e1 c9 83 3f 24 2b 7d 3f
       0.98381835 0.9998665 1.0295984 0.9889395
000320 ee 54 85 3f eb bb 74 3f a5 52 81 3f aa bc 92 3f
       1.0416543 0.9559924 1.0103346 1.1463826
000330 20 1b 7b 3f b7 72 80 3f 9f c0 85 3f ac 84 8b 3f
       0.98088264 1.0035008 1.0449408 1.0899863
000340 e7 89 83 3f 19 bc 90 3f 28 fc 96 3f 3d 2e 84 3f
       1.027646 1.1307403 1.1795702 1.0326611
000350 d9 58 78 3f b4 69 86 3f 58 15 73 3f f4 b3 8a 3f
       0.9701057 1.0501008 0.9495444 1.0836167
000360 bd 80 73 3f 89 68 7c 3f 9f 9a 75 3f cb d8 91 3f
       0.95118314 0.9859701 0.9593906 1.1394285
000370 7a 1e 7b 3f e7 f9 7b 3f 00 9e 80 3f 56 cb 7e 3f
       0.9809338 0.98428196 1.0048218 0.99529016
000380 88 62 7e 3f 36 95 76 3f 9e b5 80 3f 32 12 81 3f
       0.99369097 0.9632143 1.0055425 1.0083678
000390 3a 1b 91 3f 7a 18 84 3f fa 22 7d 3f 25 1a 7d 3f
       1.1336434 1.031997 0.98881495 0.9886802
0003a0 22 69 82 3f a4 84 6d 3f 54 83 75 3f 91 c3 80 3f
       1.0188334 0.9278052 0.95903516 1.0059682
0003b0 8b 04 7b 3f 2d 14 77 3f 01 2e 79 3f 09 ed 76 3f
       0.9805381 0.9651516 0.9733582 0.96455437
0003c0 e3 f4 ac 3f fd 3b 72 3f 4b 52 7e 3f ba 26 7b 3f
       1.3512233 0.94622785 0.9934432 0.9810597
0003d0 79 6e 78 3f e1 c9 7d 3f df 56 7d 3f 4a 8a 70 3f
       0.9704357 0.9913617 0.9896068 0.9396101
0003e0 c3 ba 80 3f 94 f2 73 3f 25 7d 79 3f 08 77 90 3f
       1.0056995 0.9529202 0.9745658 1.1286325
0003f0 c5 1f 82 3f 87 74 7a 3f 6c 97 7e 3f da 21 7b 3f
       1.0165945 0.97834057 0.994498 0.9809853

shared.1.bias f4 [256]
000000 75 1b 09 bd 04 78 01 bd 90 b5 4e 3c 01 d8 93 bd
       -0.03347345 -0.031608596 0.01261653 -0.07218934
000010 85 6b 4c 3b 22 7b 4f bd db af 42 bd 03 eb be bb
       0.0031192016 -0.050654538 -0.04753099 -0.0058263554
000020 5f 88 a0 bd e9 4a 51 bd b0 bc 1f bc 82 1f 62 bd
       -0.07838511 -0.05109683 -0.009749576 -0.05520583
000030 9e 6d 08 bd ad 06 2a bd a8 18 90 bd 60 30 00 bc
       -0.033307664 -0.041510273 -0.07035953 -0.0078240335
000040 46 46 93 bd 6e df 0d bc 26 ae ef bc c2 a1 8c bd
       -0.07191138 -0.008659227 -0.029257845 -0.0686679
000050 19 b1 bc bc 2c 89 97 3c 83 79 88 bc 5c 4e 0e bd
       -0.023033665 0.018498026 -0.016659504 -0.034742698
000060 de 3f 02 bd 23 4b 7e bd b2 ab ba 3b fd 62 33 bd
       -0.03179919 -0.062083375 0.005696737 -0.043795574
000070 3f 80 2f bd 36 b3 0f bd af 51 ae bc b7 f1 81 bd
       -0.042846914 -0.03508302 -0.021279184 -0.063449316
000080 5e 6a 65 bd bc 23 01 bc 97 c6 a8 3c c9 ff 05 be
       -0.056009643 -0.007882055 0.020602508 -0.13085856
000090 e6 46 0b bd f7 d9 96 3c bf fc 0d bc 8c cb f6 3b
       -0.03400316 0.01841448 -0.008666216 0.007531589
0000a0 13 12 88 bd 12 13 87 bc 5f ff 6b bd d9 ac c9 bc
       -0.066440724 -0.016488586 -0.057616588 -0.024618553
0000b0 ee ce 07 bd cd ae 7c bd ae 01 f9 bc 7a d8 03 bd
       -0.033156328 -0.06169014 -0.030396309 -0.03218887
0000c0 20 69 80 bd 9d 47 b6 bc 34 74 35 bd 69 08 61 bc
       -0.06270051 -0.022250945 -0.044300273 -0.013734915
0000d0 fb 22 af bc ae c1 f9 bd dc 9a 67 bd a1 95 2d bd
       -0.021378985 -0.121951446 -0.05654417 -0.042379025
0000e0 18 f2 3a bd 1c e0 2a bd 8d fc 40 bd 5a 51 b2 bc
       -0.045641035 -0.041717634 -0.04711585 -0.021767307
0000f0 94 a1 0c bd a6 48 49 bb 61 99 b8 bd 3a 8f 7b bd
       -0.03433378 -0.0030713468 -0.0901363 -0.06141589
000100 f8 5e 95 bd c2 0d 97 bc 20 ca 53 bd 09 3f 85 bd
       -0.072935045 -0.018439177 -0.051706433 -0.065061636
000110 92 0a 20 bc d2 ee c0 3b 3d 7f 49 bd 51 7b ea bc
       -0.009768145 0.0058878446 -0.04919361 -0.028623255
000120 32 3a dd bc a6 62 27 3a 9d 8b 32 bc ea 2e 70 bc
       -0.027005289 0.0006385244 -0.010897544 -0.014659623
000130 06 f9 49 bd d5 e3 c0 bd c9 c6 b4 bc a8 ce 2a bd
       -0.049309753 -0.094184555 -0.022067444 -0.04170099
000140 82 cc 85 3c 6f 5f 89 3b 5a 31 3a bd 00 39 1a bd
       0.016332868 0.004192285 -0.04545722 -0.037652016
000150 bc dc f2 bd e4 cc 93 bd 6f 2c 9e bd 4d e6 4c bd
       -0.11858508 -0.07216814 -0.07723319 -0.05002432
000160 9a 3a af bd 25 92 ff bc 12 39 ce bc 3e 26 b0 bd
       -0.08556099 -0.031197617 -0.025173698 -0.08601044
000170 8b d1 3a ba 0c 11 74 bd 8b d8 61 bd 50 dc c9 bb
       -0.0007126561 -0.05958657 -0.055138152 -0.0061602965
000180 e5 05 55 bd 9d 08 0a be f2 54 6f 3c d5 fb c2 bc
       -0.052007575 -0.13479848 0.014607655 -0.023801723
000190 0f de 53 bb 79 a7 3d bd 24 30 08 bd a7 d2 16 bd
       -0.0032328402 -0.046302292 -0.033249035 -0.036821987
0001a0 d9 58 77 3c c5 99 ce bc ee 69 b1 bc 35 ec de bb
       0.0150968665 -0.025219807 -0.021656957 -0.0068030604
0001b0 99 96 6c bd 43 a0 b5 3b ab 61 1d bd 0d 4d 31 bc
       -0.05776081 0.0055427863 -0.03842322 -0.010821593
0001c0 1a 31 5b bd 4d 01 83 bc 90 38 20 bd 48 a0 4c bd
       -0.053513624 -0.015991831 -0.039116442 -0.049957544
0001d0 c6 d2 54 bd 4c cc 40 bc 16 23 01 bc d1 db 0c bd
       -0.05195882 -0.011767458 -0.0078819 -0.03438932
0001e0 5c 64 1e bd 78 d8 8b bd 89 73 7d bc 43 9d 43 bd
       -0.03866993 -0.068283975 -0.01546944 -0.0477574
0001f0 0a 7c d6 bc 18 27 c4 bd b1 f8 5d bb ce 4e 75 bd
       -0.026182193 -0.09577769 -0.0033870155 -0.059889607
000200 7e 32 84 bd 3c ec 2a bd 24 86 63 bd 84 d1 36 bc
       -0.06454943 -0.041729197 -0.05554785 -0.011158351
000210 1a 62 06 bd 95 a1 90 bd 13 c4 b6 bc ec 6d 99 bb
       -0.0328084 -0.07062069 -0.022310292 -0.004682293
000220 80 be b3 bb 50 5d 7a bd de a3 84 3c 85 ef 36 bc
       -0.005485356 -0.061124146 0.01619142 -0.011165504
000230 9d fb 64 bc b9 ce e5 bd a2 65 65 bc 0d 11 18 bd
       -0.013976005 -0.1122107 -0.014001282 -0.037125636
000240 fa bb 8b bb 53 ff 1d bc c1 71 28 bd 37 7b b4 bc
       -0.004264352 -0.009643394 -0.04112411 -0.02203141
000250 cb cb c9 bd 97 73 4b bd c0 34 25 bb a0 d0 0e bd
       -0.098533235 -0.049670782 -0.0025208443 -0.03486693
000260 f2 76 94 bc 5b 7a ca bc b0 89 7f bd 72 c0 52 bb
       -0.018123124 -0.024716547 -0.06238717 -0.0032158163
000270 2e 9e b9 bc 80 ac 27 bd 88 77 87 bc de 12 15 be
       -0.022658434 -0.040935993 -0.01653649 -0.14557979
000280 45 93 30 bc cb 49 91 bc cc 3f ef bb 9e 77 ad bc
       -0.010777299 -0.017735383 -0.0073013064 -0.021175202
000290 01 d0 15 bd 96 a3 20 bd fe 5c 5c bd 0a 6b c4 3b
       -0.03657532 -0.039218508 -0.05379962 0.0059942054
0002a0 58 d9 3c bd 6f c1 f0 bb 04 74 4e bd c1 cc 26 bd
       -0.046105713 -0.007347278 -0.05040361 -0.040722612
0002b0 61 3e de bc 58 45 c9 bc 50 f2 a5 bd 56 ac 6f bd
       -0.027129354 -0.024569198 -0.08102858 -0.05851396
0002c0 8d 5b 02 bd 48 bf 18 bd 9d d5 5d bc 85 8f a1 bd
       -0.03182559 -0.037291795 -0.013539699 -0.07888702
0002d0 6e 45 8e bd b6 45 11 bd 5e 48 7d bd 67 67 f8 bc
       -0.069468364 -0.035466872 -0.061836593 -0.030322744
0002e0 22 36 c1 bc ed de 35 bd 4d 8c 4c bc ec 1b 37 3c
       -0.023585383 -0.04440205 -0.012484622 0.011176091
0002f0 00 51 3e bc 1a 6a 69 bc 85 0e 28 3a 4e 37 43 bd
       -0.011615992 -0.014246488 0.0006410855 -0.047660165
000300 c2 49 43 bd c1 05 d9 bd 07 6e 08 bd fe d1 7a bd
       -0.047677763 -0.105968006 -0.033308055 -0.06123542
000310 ce 52 a4 bd 0f f3 0a bd f8 e3 84 bd 0f c7 2d bc
       -0.08023606 -0.033923205 -0.06488794 -0.010606541
000320 1b 51 75 3c 38 ea eb bc e2 80 47 bd 4f 04 83 bd
       0.01497295 -0.028798208 -0.048706897 -0.06397306
000330 56 5f c6 bc 46 33 ad bc 36 1d 1b bd cc 0b 1e 3c
       -0.024215382 -0.021142613 -0.037869655 0.009646367
000340 f3 cd 20 bd a7 7f e0 bc 35 e0 1e be bd fe 4f bc
       -0.03925891 -0.02740462 -0.15515216 -0.012695012
000350 b3 7c 15 bd 68 ce 32 bd b6 ac 80 bd 5b 86 b7 bd
       -0.036495876 -0.043653876 -0.06282942 -0.08961173
000360 71 53 f0 bc 47 e8 b7 bc 8d 08 45 bc ce 83 0e 3d
       -0.029336663 -0.022449626 -0.012025964 0.034793667
000370 fd 1d 3d bd 73 b6 86 bc 8a 86 5d bd 6c cc 61 bd
       -0.046171177 -0.01644442 -0.054083385 -0.055126593
000380 97 af be bc a2 f7 b4 bc b3 15 e5 ba 81 f7 7b bc
       -0.023277087 -0.022090737 -0.001747778 -0.015378834
000390 47 1e c3 3b 6e a1 a8 bb 2e ac 95 bc ac 92 8f bc
       0.005954537 -0.005146197 -0.018270578 -0.017525993
0003a0 f4 54 ba b9 21 0c 51 bd c0 8a 27 bd a5 26 ab bd
       -0.0003553998 -0.051036958 -0.040903807 -0.0835698
0003b0 13 31 4f bd 51 d4 b6 bc 8e a2 63 bd fa 1b 1f bd
       -0.05058391 -0.022318037 -0.055574946 -0.03884504
0003c0 52 b0 64 3a 25 18 40 bc 5f 72 b4 bc ac 1b 0a bd
       0.00087237835 -0.0117245065 -0.022027193 -0.033717796
0003d0 68 53 82 bd 69 5c 21 bd b0 67 ff bc e1 9c a9 bd
       -0.06363565 -0.03939477 -0.031177372 -0.082818754
0003e0 e5 d7 05 bd 20 52 44 bd a5 09 82 bd 71 4a de bc
       -0.032676596 -0.047929883 -0.06349496 -0.027135106
0003f0 f6 d7 d0 3b d9 20 b6 bc 49 d7 07 bd ec 1b 8a bd
       0.006373401 -0.02223246 -0.033164296 -0.06743607

shared.3.weight f4 [256, 256]
000000 0b 1a 4e bc 73 3f 35 3d 81 56 25 3d 7a 49 c3 bc
       -0.012579451 0.044249963 0.0403657 -0.023838747
000010 ae 91 3c bd ac 90 4b bd 39 29 82 3d 79 5e 76 3b
       -0.04603737 -0.049698517 0.06355519 0.0037592931
000020 39 82 fd 3c cd 26 48 3c 7f ea 9d bd bc cd 04 3c
       0.030945884 0.012216282 -0.07710742 0.0081056915
000030 2b d6 37 3d bb 26 06 3d dc a3 27 3d 93 77 b3 3c
       0.04488198 0.03275178 0.040927753 0.021907603
000040 fd 17 28 3a 9e 40 63 3d 6a f3 86 bd c3 ba b9 bc
       0.0006412266 0.055481546 -0.06589396 -0.022672063
000050 ec 07 89 b6 40 6d aa 3d a0 60 a9 bd 0c cc 8a bd
       -4.0838404e-06 0.08321619 -0.08270383 -0.067772
000060 cb fe 7b 3d 88 01 b6 3d 3d fb e0 bb d8 d8 05 3b
       0.061522286 0.08887011 -0.0068658874 0.0020423438
000070 c6 81 8f bb 01 eb c7 3c b2 29 67 bb 8e 56 7a 3d
       -0.004379484 0.02440405 -0.0035272655 0.0611177
000080 a5 c4 94 bc 8a c9 19 3d b3 ae 25 3d c4 fe 3b bd
       -0.018160174 0.03754572 0.04044981 -0.04589726
000090 2d c8 61 bd d9 c7 c4 3d 31 14 b1 3c 1c 26 09 bd
       -0.055122543 0.096084304 0.021616073 -0.03348361
0000a0 3a b4 d0 bc b9 4e df 3c ba 47 1f bd e7 19 52 bd
       -0.025476564 0.027259218 -0.038886763 -0.051294234
0000b0 10 07 bf 3c fa b0 08 3d ab de fe 3c 2b a4 1a bd
       0.023318797 0.033371903 0.031112036 -0.03775422
0000c0 68 92 85 3d ae 02 29 bd 8b b7 2b 3d 4f 5b 79 bd
       0.065220654 -0.04126232 0.041923087 -0.060878094
0000d0 81 0e 4e bc 8a 53 51 3c 02 b1 66 3b 3c 1f ee 3b
       -0.0125767 0.012776265 0.003520072 0.007266907
0000e0 39 5e 25 bc 51 91 53 3d 8a 15 14 3c 94 3c b1 3d
       -0.010093265 0.051652256 0.009038338 0.086541325
0000f0 19 29 f1 3c 15 c1 52 bb c8 a5 92 bb 75 55 98 bc
       0.029438542 -0.0032158543 -0.004475329 -0.018595437
000100 51 43 b1 3d 96 b5 79 bd 8d 0c 14 bd 3b 1c 0e 3d
       0.08655418 -0.06096419 -0.03614478 0.03469489
000110 7b d5 92 bd 59 93 50 bd 65 43 a6 3d 72 81 a7 3c
       -0.071696244 -0.05092177 0.08118323 0.020447467
000120 21 5a 45 bd 42 06 fe 3b 63 5f ae b9 9a b0 74 3d
       -0.048181657 0.007752211 -0.00033258935 0.059738733
000130 72 94 88 bc 95 81 56 bc 6b 61 fa 3b b7 a2 8e bc
       -0.016672347 -0.013092418 0.0076410077 -0.017411573
000140 5c 3e c6 3c e9 92 19 3d 4a 91 a7 3d d8 f0 c9 3c
       0.024199657 0.03749362 0.081820086 0.024650976
000150 96 75 eb bc 7a 55 a5 bc ae 04 c0 3c 66 ca 81 bd
       -0.028742593 -0.02018236 0.023439731 -0.063374326
000160 e4 4b b8 bc c5 07 64 bc 48 a6 3e 3c 6e d1 0f bd
       -0.022497125 -0.013917868 0.011636324 -0.035111837
000170 3f 3e 2c bd fa 4d e2 bc b9 d7 8a bc ae 32 22 3d
       -0.04205155 -0.027625073 -0.016948568 0.039599113
000180 84 64 3f bd 74 11 38 3d 42 52 1a 3d 36 47 c6 3c
       -0.04672672 0.04493852 0.037676103 0.024203878
000190 e2 c4 c1 3c 07 88 02 3d f6 8e 0f bd 3b 31 02 bd
       0.023653451 0.031868007 -0.035048448 -0.03178523
0001a0 18 4d fe 3c 23 ba 70 3c 56 92 9d 3d 56 4f 11 bc
       0.03104262 0.014692816 0.07693927 -0.008869013
0001b0 80 99 30 bc 6a b3 57 3d e7 3c 88 3b e6 78 13 bb
       -0.010778785 0.052661337 0.0041576508 -0.002250248
0001c0 48 97 13 3c a0 07 07 3a 30 68 01 bd 3d 2b ea 3c
       0.009008236 0.00051509775 -0.0315935 0.02858507
0001d0 07 f3 39 3d 21 50 30 bd d1 67 c9 3c 30 08 12 bc
       0.045397785 -0.043045167 0.024585636 -0.008913085
0001e0 e6 e4 23 3b b3 0f 78 3d f8 07 bb bc 8c bd 5c 3d
       0.002500826 0.060561847 -0.022830948 0.053891703
0001f0 bc e5 7f 3d 6d 38 8a bd 51 76 d9 bc 74 8e 6e bd
       0.06247495 -0.067490436 -0.026545675 -0.058241323
000200 d6 55 56 3d 5d c3 82 3c 29 6f dc b9 32 e0 47 bc
       0.052327953 0.015962297 -0.0004204449 -0.012199448
000210 97 61 12 bd bb 05 b8 3c 6f 04 22 3d 65 40 30 bc
       -0.0357376 0.02246367 0.03955501 -0.01075754
000220 e4 67 08 bd 08 d0 34 3d b3 d8 98 3d 2d 60 f7 3c
       -0.033302203 0.044143707 0.07463207 0.030197227
000230 7a 8b 3e bc 5b 31 0f 3d b8 5c b3 3a c8 55 11 bd
       -0.0116299335 0.03495918 0.0013684249 -0.035482198
000240 b9 83 fa 3c 7b 1d c3 3b 5c 75 6a bd b1 f6 cb 3c
       0.030580388 0.005954442 -0.05724083 0.024897905
000250 df 18 8d bd 96 2b 11 bc 26 2a d3 3d 60 10 4d 3d
       -0.068895094 -0.008860489 0.103107736 0.050064445
000260 70 e5 41 3d a0 c0 90 bc 47 a2 ac 3b 5d 65 3b 3d
       0.04733795 -0.017669976 0.0052683684 0.045750964
000270 39 31 de bc 92 d9 b8 bc f9 31 69 bc 6f c6 9b bc
       -0.02712308 -0.022564683 -0.014233106 -0.019015519
000280 67 11 9e 3c e1 e8 1d 3d 1f 5a 0c bd 7d 8c 0d bd
       0.019295407 0.03855217 -0.034265634 -0.03455781
000290 b3 46 6a 3d 3b a3 24 bd 4a 6e 85 bd d2 7d b7 bd
       0.05719633 -0.04019473 -0.065151766 -0.08959545
0002a0 1d dc 41 bd ff 02 02 3c 0e bd 8f bd c6 f3 37 3d
       -0.047329057 0.007935285 -0.07018481 0.044910215
0002b0 39 74 09 bc a9 ef 83 bd 19 84 be 3c 7d 27 3c bd
       -0.008389526 -0.06442196 0.023256348 -0.045936096
0002c0 dd e0 86 3d c7 b5 90 3d 79 b3 6e bd d3 a7 cb bb
       0.06585858 0.07065921 -0.058276627 -0.0062150746
0002d0 54 e4 90 bd 57 e2 b9 3c 97 ed 97 3c 60 4b 51 bd
       -0.070748 0.022690935 0.018545909 -0.051097274
0002e0 4c a1 c9 bc 85 4f 39 bd 17 03 c0 bc 7c 2a ff bb
       -0.024613045 -0.04524185 -0.023438973 -0.007787047
0002f0 a7 cf 9e bb 39 a0 26 3d d5 d5 48 bc 2d b5 da 3c
       -0.0048465314 0.040680144 -0.012258013 0.02669772
000300 83 1c a0 3a 92 bd 74 3d 31 8e c0 3c 04 4d 0e 3d
       0.0012215528 0.0597511 0.023505302 0.034741417
000310 69 bf c1 3d 28 66 31 3d ff 48 61 bd de 52 93 3d
       0.09460337 0.043310314 -0.055001255 0.0719354
000320 23 36 ad 3c c9 76 2f bd ee 29 39 3c 04 b6 f7 3c
       0.021143978 -0.04283789 0.011301501 0.030238159
000330 4d fa 8c bd 5d 26 07 bd 36 32 9b bb 9f 8f 94 3d
       -0.068836786 -0.03299557 -0.00473621 0.07253956
000340 14 14 b2 bd aa 08 a9 3c db b6 43 3d e3 10 53 bd
       -0.08695236 0.020634014 0.047781806 -0.051529776
000350 d5 85 d6 bb c4 26 f5 bc ed 27 c8 bc 88 ee 82 3d
       -0.0065467157 -0.029925711 -0.0244331 0.063931525
000360 42 4b f4 3c d3 d4 6f bd f0 c9 a2 bc 89 0f 7d 3d
       0.029821042 -0.058552574 -0.019871682 0.061782394
000370 dc a0 b7 3c b6 8b b9 bd 56 3e 0f 3d c7 a1 0c bd
       0.02241557 -0.09059851 0.034971558 -0.03433397
000380 0b cc df bc b0 91 57 bd 8d 70 2b bd 97 3b 73 bd
       -0.027318975 -0.052629173 -0.041855384 -0.059383
000390 82 e8 40 3c b5 96 80 bc fd 74 10 3d 1c 72 00 bd
       0.011774184 -0.015696863 0.03526782 -0.031358823
0003a0 a7 ea 09 bd fa d9 b4 3d df 73 90 3d 89 f4 a2 3d
       -0.033671048 0.08830638 0.07053351 0.07956798
0003b0 c8 4c 04 3c b3 ef 1e bd 2b d7 9d bc 74 70 0b 3b
       0.008074947 -0.038802814 -0.01926764 0.0021276744
0003c0 ed 6b 37 bd 72 a7 18 3d 61 cf 7b 3c cf 63 6b bc
       -0.04478066 0.037269063 0.015369267 -0.014367058
0003d0 4b 2a 47 bc 14 0c 3e 3c 27 fa a9 bc ab 03 aa bd
       -0.0121560795 0.011599559 -0.020749165 -0.08301481
0003e0 66 de 69 bd 1d 05 2b 3d 5a e0 9a bc 15 31 9d bd
       -0.05709686 0.041752923 -0.018905807 -0.07675377
0003f0 46 02 68 3c 62 43 80 bd ce ec 84 bc b2 4e 13 ba
       0.014160698 -0.06262852 -0.016226199 -0.00056193315

shared.3.bias f4 [256]
000000 bf 4d 45 bd ac 8f 8d bd 4c 25 3b bc 1c 53 65 3d
       -0.048169848 -0.06912169 -0.0114224665 0.055987462
000010 db 19 87 3c 8d a4 0a bd d1 12 7a bd ed 14 ea bc
       0.016491821 -0.033848334 -0.0610531 -0.028574431
000020 41 98 3a 3d 65 ac 65 3d 98 83 f5 bc 1a 12 61 3d
       0.045555357 0.05607261 -0.029969975 0.054948904
000030 f9 d9 bb 3c ee 2f 4d bd e2 1e c1 3b e1 a1 8e bc
       0.022931086 -0.050094537 0.005893574 -0.017411174
000040 61 28 cf 3a ef c1 73 bd f4 25 19 bd 33 53 79 3b
       0.001580488 -0.05951112 -0.03738971 0.0038043975
000050 9e 9c 99 bc 35 02 70 3c a7 d2 1a bd 29 c1 86 3d
       -0.018751439 0.014648964 -0.03779855 0.06579811
000060 31 dc e9 3c 31 54 6c 3d 22 23 d8 ba 06 7c 1f 3d
       0.028547378 0.05769748 -0.0016489963 0.038936637
000070 48 9e e4 3c f5 02 e2 bc 44 3d 09 bd 5f de 3a 3d
       0.027907506 -0.0275893 -0.033505693 0.045622226
000080 e5 43 a4 3c 56 4a 49 3d eb 5c 17 3d 14 42 06 bd
       0.020051906 0.049143158 0.036953848 -0.03277786
000090 e2 64 34 3d 63 6c 0f 3d e5 60 4b bd f5 c6 58 bd
       0.04404152 0.035015475 -0.049652953 -0.052924115
0000a0 ad 4b ed 3c 38 86 0e 3d c7 4c d1 bb e2 8c e9 3c
       0.02896675 0.03479597 -0.0063873264 0.028509561
0000b0 37 dc 3b bd e4 ac e5 bc f7 64 b0 bc 58 c0 04 bd
       -0.04586431 -0.028036542 -0.021532519 -0.032409996
0000c0 32 96 3e 3d 88 06 41 3d c9 8f 99 3c a3 17 5a 3d
       0.046529956 0.04712537 0.01874532 0.053245198
0000d0 8d 8e 06 3d ba 39 6d bc 9d 7b ab bc ce 80 a4 3c
       0.03285079 -0.014479095 -0.020932967 0.02008095
0000e0 5e 62 8e bc 79 e3 84 3d d6 8c 6d bd 46 7a 3a 3c
       -0.01738089 0.064886995 -0.05799564 0.011381691
0000f0 43 a0 45 bd 5f 80 5c bd fa d7 81 bd 07 8a 36 bd
       -0.04824854 -0.05383336 -0.063400224 -0.044565227
000100 5a e3 16 3d 31 d5 9b bb 19 8e 72 bd 61 07 a6 3c
       0.036837913 -0.004755639 -0.059217546 0.02026719
000110 5c 6c 05 3c e0 20 5a 3d 97 d1 64 bd 20 d6 b2 3c
       0.008143511 0.05325401 -0.055863943 0.021830618
000120 6e 09 13 bd 85 f9 aa bc 49 c3 e1 bc 30 04 4c bc
       -0.035897665 -0.020870933 -0.02755894 -0.01245217
000130 75 3b 46 bd 79 74 30 bd 77 f4 c6 bc 0b 0f 78 3c
       -0.048396546 -0.043079827 -0.024286492 0.015140305
000140 da 83 d2 bc ab 16 dd 3c 59 b7 b9 3b 5d 1c 2e bd
       -0.025697637 0.026988348 0.0056676087 -0.042507518
000150 3e 73 20 bd 4f 3e 64 3d 46 6e 5d 3d 27 6c 49 38
       -0.039172404 0.055723485 0.054060243 4.802286e-05
000160 27 98 0a bd 0f 8b be 3b 26 e4 d6 bc a3 f8 0d 3d
       -0.03383651 0.005814917 -0.026231837 0.034660947
000170 c4 22 28 3d 94 4f 1a 3b ff b4 ad 3c 01 bf 3a bd
       0.04104878 0.0023545967 0.02120447 -0.04559231
000180 4b 40 8a 3c 2a ac 2b 3d 7c a8 55 bc 68 30 9d bc
       0.01687636 0.041912235 -0.013040658 -0.019188121
000190 d9 a1 5a bc a6 7b af bc c5 21 f7 3c 28 fd 33 3c
       -0.013344252 -0.021421265 0.03016747 0.01098565
0001a0 5e cc 38 bd 90 04 45 3d 12 6d cd bc ee 2a 17 bb
       -0.045116775 0.048100054 -0.025076423 -0.002306636
0001b0 6a 52 5b bd a9 92 98 bc 5f 0f 36 bd 49 1b 1b 3d
       -0.053545393 -0.01862462 -0.044448253 0.037867818
0001c0 f3 04 24 3d 07 9e a7 bc bb 73 9e bd 54 55 58 3d
       0.040043782 -0.020461095 -0.077369176 0.05281575
0001d0 65 e4 b5 bc 46 37 09 3b 82 a8 ca bc aa 17 21 3d
       -0.022203634 0.0020937487 -0.024738554 0.03932921
0001e0 25 ce 6e 3d 96 cc d9 3c c8 b9 44 bd f2 0a 51 bd
       0.058302063 0.026586812 -0.048028737 -0.05103583
0001f0 e1 5d 7c bd fe e5 4b bc 2a e2 29 bd 84 bf 52 bd
       -0.061612967 -0.012444971 -0.041475452 -0.051452175
000200 04 71 f8 3c 86 39 a9 3c 9f 9b 08 bc a9 e2 6e 3d
       0.030327328 0.020657312 -0.008337884 0.05832163
000210 8b 46 27 bd 0b 77 d7 3b eb 25 4d bc e3 7b 2a 3c
       -0.04083876 0.0065754703 -0.012521247 0.010405513
000220 a4 5a aa bc 5a 2a f1 3c 76 90 53 3a 72 a7 66 bd
       -0.020795174 0.02943914 0.00080705376 -0.056312032
000230 f3 c7 52 bd e0 8d 32 3d bd 67 44 bc 62 2b c7 3c
       -0.051460218 0.043592334 -0.011987624 0.024312679
000240 67 8d 29 3d 61 a8 45 3d 07 c9 49 bd b2 d4 14 3d
       0.041394617 0.04825628 -0.04926398 0.036335655
000250 fe 39 39 bd 6e 43 d1 bb 1f eb 5a bb 89 a9 80 bc
       -0.04522132 -0.006386212 -0.0033404303 -0.01570584
000260 bf b1 1c bc f5 48 11 3d 4e b6 15 bd ab fa 2f bd
       -0.009563862 0.035469968 -0.036550812 -0.042963665
000270 be 17 44 bc a8 dc 11 3c 85 df 54 3d 6f 38 84 bc
       -0.011968551 0.008902706 0.051970977 -0.01614019
000280 e4 3b 63 3d b2 83 e5 3c ec 6c d2 bc 34 35 8b 3c
       0.055477038 0.028016899 -0.025686704 0.016993143
000290 b0 95 73 bd 61 27 ed 3c 20 50 2b bd a0 46 7b 3c
       -0.059468925 0.028949441 -0.04182446 0.0153366625
0002a0 8a 84 fd bc 01 4b 72 bd b9 ff 07 bd 4c 84 0f 3d
       -0.030946989 -0.05915356 -0.03320286 0.035038278
0002b0 f4 77 22 bd 20 7b a7 3c aa b1 b1 3c ba 9c a4 bc
       -0.039665177 0.020444453 0.021691162 -0.020094264
0002c0 3c 8a 44 bd 71 1e 5e 3d ed cf 66 bd 2b 78 14 3d
       -0.047983393 0.05422825 -0.056350637 0.036247414
0002d0 20 8c 00 3d 83 b1 34 bd 82 e6 6d bd e7 fb 84 ba
       0.031383634 -0.0441146 -0.058081158 -0.0010145874
0002e0 67 09 ba 3c b6 33 78 3c 55 59 63 bd f9 23 ac ba
       0.022709562 0.015149048 -0.055505116 -0.0013133279
0002f0 ad 6c 5d 3d d1 be 83 bd 9b 9a 6f 3d e6 74 a6 3c
       0.05405872 -0.0643288 0.058497053 0.020319413
000300 51 00 23 3d 59 07 31 3c b5 b2 47 3d 59 7d 74 3d
       0.039795224 0.0108049745 0.048754413 0.059689853
000310 a8 87 7e 3d ee 93 5b 3d 1b ea 67 bc 6a 70 cc bc
       0.06214109 0.053607874 -0.014154936 -0.024955947
000320 00 7e 17 3d 03 29 6e bd c3 a0 68 3b 9b 81 ba 3c
       0.036985397 -0.05814458 0.0035496212 0.022766879
000330 fd 4c a5 3c af 5e 01 ba b8 fc 89 3c ce 41 1d 3d
       0.020178312 -0.00049350684 0.016844139 0.038392834
000340 2b 65 e7 3b d1 40 71 3d aa 01 ed bc f5 6e 06 bd
       0.0070616207 0.058899704 -0.028931458 -0.03282066
000350 66 d7 30 bd 79 55 2d 3b 42 09 c5 bc 0e bf 37 3b
       -0.04317417 0.002644865 -0.024052266 0.0028037461
000360 b2 b0 0b bd 6c 85 f6 bc df 3e a4 bc a0 a2 4d bd
       -0.034104057 -0.030092917 -0.02004951 -0.05020392
000370 35 14 40 3d ba 03 d0 bc 75 4a 0d 3c b9 64 24 3d
       0.04689427 -0.025392402 0.008623709 0.04013512
000380 7b 54 a5 3c 04 35 31 bd ef a8 78 ba 45 5e b8 3b
       0.020181885 -0.04326345 -0.0009485622 0.005626472
000390 d4 25 58 3d 03 49 47 bd 9f ca 70 bd f2 63 df bc
       0.05277045 -0.048653614 -0.058786985 -0.027269337
0003a0 03 c6 15 bd 54 ab df bc 43 d5 2b 3d fb e8 3c bd
       -0.03656579 -0.027303375 0.04195143 -0.046120625
0003b0 50 cd 30 3c 23 af 0a bd 24 7c f6 bc 61 44 b8 bc
       0.010791138 -0.03385843 -0.030088492 -0.022493543
0003c0 fa 1a 12 3d 53 6c 6a 3d 0d 27 79 3d 58 00 2d bd
       0.035670258 0.057232212 0.060828257 -0.042236656
0003d0 13 6d 74 bd 04 95 0c 3c 0e e7 0f 3d f0 66 ba bc
       -0.059674334 0.00858045 0.03513246 -0.022754163
0003e0 9d 18 53 bd 7a 04 72 3c dc 9a 47 3d dc 02 23 3d
       -0.051537145 0.014771575 0.04873167 0.03979765
0003f0 7c dd 3d 3d dd 73 57 bd b6 40 2e bd 26 a3 8a bc
       0.046353802 -0.05260073 -0.042542182 -0.016923498

shared.4.weight f4 [256]
000000 fc 7b 8e 3f 62 3d 89 3f 2f 00 ab 3f 9d d7 92 3f
       1.1131587 1.0721858 1.3359431 1.147205
000010 00 92 8f 3f 8a 0c 92 3f 80 b3 9f 3f d8 30 90 3f
       1.1216431 1.1410077 1.2476654 1.1264906
000020 df a4 90 3f fc 81 92 3f a9 10 9e 3f 6c 58 a3 3f
       1.1300315 1.1445918 1.2348834 1.2761359
000030 ad 4a 9e 3f 1b 64 8d 3f 22 ad 8e 3f aa dc 8c 3f
       1.2366539 1.1046175 1.1146586 1.1004841
000040 97 81 98 3f 91 98 8b 3f 81 db 9a 3f 7d 66 8b 3f
       1.1914548 1.0905935 1.2098237 1.0890652
000050 e3 32 a3 3f c6 d2 97 3f 75 28 8f 3f 57 2d 99 3f
       1.2749904 1.1861198 1.1184222 1.1966962
000060 6b 36 8d 3f 28 ca 96 3f a0 39 90 3f 20 95 9f 3f
       1.1032232 1.1780443 1.1267586 1.2467384
000070 ab 91 99 3f a4 25 9c 3f 5a b2 90 3f fc ac 9e 3f
       1.1997579 1.2198987 1.1304429 1.2396541
000080 74 bf 96 3f 59 7f 94 3f f4 d1 a6 3f 8e 8b 92 3f
       1.1777177 1.1601363 1.3032823 1.1448839
000090 83 5d 97 3f 68 56 96 3f 31 15 94 3f f7 e0 92 3f
       1.1825413 1.1745119 1.1568967 1.1474904
0000a0 77 1d 9b 3f 70 f2 8c 3f 72 b1 93 3f dc 5a 99 3f
       1.2118367 1.1011486 1.1538527 1.1980853
0000b0 6f 01 8f 3f 08 15 9e 3f c2 95 92 3f fd 0e 99 3f
       1.1172312 1.2350168 1.1451952 1.1957699
0000c0 f8 9e 95 3f 44 97 94 3f 72 d1 a0 3f c5 f1 99 3f
       1.1689138 1.1608663 1.2563918 1.2026907
0000d0 6b be 92 3f 10 26 8e 3f 55 6b 93 3f 34 9a a4 3f
       1.1464361 1.1105366 1.151713 1.2859559
0000e0 df 24 89 3f 98 1b 8e 3f 0c 62 95 3f 03 e0 8a 3f
       1.0714377 1.1102171 1.1670547 1.0849613
0000f0 d8 1b 9c 3f 6b a1 9f 3f 4a 3c 91 3f 56 f9 96 3f
       1.2195997 1.2471136 1.1346524 1.1794841
000100 19 13 95 3f e9 0e 9b 3f 0c 57 9e 3f e7 32 98 3f
       1.1646453 1.2113925 1.2370315 1.1890534
000110 2b 4c 8a 3f 01 8d 91 3f 02 81 9d 3f 34 ad 99 3f
       1.0804495 1.1371156 1.2304995 1.2005982
000120 1a 6a a1 3f c1 89 a0 3f de 25 98 3f 51 c7 9d 3f
       1.2610505 1.2542039 1.1886556 1.2326452
000130 29 08 8e 3f 02 20 9c 3f 85 57 94 3f 5a 24 97 3f
       1.109624 1.2197268 1.1589209 1.1807969
000140 ce 39 91 3f be 5c 95 3f 93 d8 93 3f 0d 4e 97 3f
       1.1345766 1.1668928 1.1550468 1.1820694
000150 8f 8e 98 3f 8a ab 91 3f e9 ef 95 3f c1 f9 91 3f
       1.1918505 1.1380475 1.171384 1.1404344
000160 c9 f4 89 3f 50 99 a8 3f c5 4d 96 3f 39 8b 97 3f
       1.0777828 1.3171787 1.1742483 1.1839362
000170 6b 8d 8d 3f d7 9a 92 3f 3f 0f 92 3f 38 b6 92 3f
       1.1058782 1.1453503 1.1410903 1.1461859
000180 16 62 a7 3f 8c 27 97 3f 6c 76 8e 3f 21 a1 94 3f
       1.3076808 1.1808944 1.112989 1.1611673
000190 09 9e 8f 3f 9f bd 94 3f f0 9f 8d 3f 82 73 8a 3f
       1.1220104 1.1620368 1.1064434 1.08165
0001a0 39 b6 99 3f 9b 0e 89 3f fe a5 8e 3f cb 9d 8b 3f
       1.2008735 1.0707582 1.1144407 1.090753
0001b0 bc 10 9c 3f bf 09 a6 3f 21 0b 9e 3f b5 ae 8d 3f
       1.2192607 1.2971724 1.2347146 1.1068941
0001c0 4f 59 8e 3f b4 6e 96 3f a8 0c a6 3f 3f c4 91 3f
       1.1121005 1.1752534 1.2972612 1.1388015
0001d0 7c 13 91 3f b7 ae 9a 3f ad 09 9b 3f 64 2d 91 3f
       1.1334071 1.2084569 1.2112328 1.1341977
0001e0 89 68 99 3f a9 8c 89 3f 9f d8 99 3f 7b 6d 9b 3f
       1.1985027 1.0746051 1.2019233 1.2142786
0001f0 63 c2 98 3f 01 03 98 3f ba 76 a0 3f d4 92 a0 3f
       1.1934322 1.1875917 1.2536232 1.2544808
000200 26 72 98 3f d6 03 95 3f fe 99 a1 3f 0d 1b 94 3f
       1.1909835 1.1641796 1.262512 1.1570755
000210 be 17 bb 3f 37 17 97 3f 2b 60 94 3f 06 d5 a2 3f
       1.461662 1.180396 1.1591848 1.272126
000220 24 f3 99 3f b2 e8 8d 3f 9e 43 99 3f 12 d2 91 3f
       1.2027326 1.1086638 1.197376 1.1392233
000230 31 21 99 3f 07 a2 91 3f 17 d1 8b 3f 1f 97 92 3f
       1.1963254 1.1377572 1.0923184 1.1452368
000240 5c 74 8f 3f 6e bc aa 3f 50 a3 a9 3f a0 07 a1 3f
       1.1207385 1.3338754 1.3252964 1.2580452
000250 9e db 95 3f 62 9c 94 3f 18 94 96 3f 68 e9 9d 3f
       1.1707647 1.1610224 1.1763945 1.2336855
000260 46 91 94 3f 62 2b 8f 3f 4e cf 9d 3f 9a ff 9b 3f
       1.1606834 1.1185114 1.2328889 1.2187378
000270 31 64 92 3f 80 2d 92 3f 34 92 99 3f db 9e 92 3f
       1.1436826 1.1420135 1.1997743 1.1454729
000280 93 98 92 3f 45 7e 96 3f 38 cf a3 3f 66 8e 8c 3f
       1.1452812 1.1757284 1.2797613 1.0980957
000290 b8 d5 94 3f fe 44 8e 3f 3a a6 91 3f 49 13 94 3f
       1.1627722 1.1114805 1.1378853 1.1568385
0002a0 3b 7e 97 3f b8 1e 94 3f 16 88 a0 3f 27 9e 95 3f
       1.1835397 1.1571875 1.254153 1.1688889
0002b0 fb 08 9d 3f 88 6e 90 3f ca f5 9a 3f ae f2 ad 3f
       1.2268366 1.1283731 1.2106259 1.3589685
0002c0 aa ea 8e 3f 54 a4 8c 3f e6 57 a2 3f af a0 96 3f
       1.1165364 1.0987649 1.2683074 1.1767787
0002d0 c8 c5 8b 3f 30 59 98 3f 77 21 92 3f d8 cf 93 3f
       1.0919733 1.1902218 1.1416463 1.1547804
0002e0 02 27 8e 3f f1 cb a7 3f 9a 9f 97 3f 70 db 99 3f
       1.1105654 1.3109113 1.1845582 1.2020092
0002f0 a0 9e 95 3f e4 cf 94 3f 93 9c 94 3f 47 53 8f 3f
       1.1689034 1.1625943 1.1610283 1.1197289
000300 b3 d2 8d 3f cb 30 8b 3f fe 31 8d 3f aa b3 98 3f
       1.1079925 1.0874265 1.1030881 1.1929829
000310 67 97 9c 3f 9c 45 8e 3f 6f 36 9d 3f f4 34 9b 3f
       1.2233704 1.1114993 1.2282237 1.2125535
000320 fd 53 a6 3f fd 04 a9 3f b0 78 8e 3f 4d e6 9d 3f
       1.2994381 1.3204647 1.1130581 1.2335907
000330 98 2e 9b 3f ac 29 af 3f 7d 3b 87 3f 03 b0 a3 3f
       1.2123594 1.3684592 1.0565029 1.278809
000340 0f 85 89 3f 01 c6 90 3f 47 b0 93 3f 68 1d a4 3f
       1.0743731 1.1310426 1.153817 1.2821474
000350 89 d4 92 3f ff fa a8 3f 6b c5 94 3f 62 a2 95 3f
       1.147111 1.3201598 1.1622747 1.169018
000360 53 4c a2 3f 37 e4 8d 3f f6 52 92 3f 38 56 9a 3f
       1.2679542 1.1085271 1.1431568 1.2057562
000370 4a 63 8b 3f 33 3e 97 3f e3 bf a1 3f 30 23 91 3f
       1.0889676 1.1815857 1.2636684 1.1338863
000380 0a 32 93 3f 47 ec 97 3f 89 41 90 3f 79 9a 8e 3f
       1.1499646 1.1868981 1.127 1.1140891
000390 35 b2 8f 3f f6 20 a2 3f 66 bf 91 3f e0 54 8e 3f
       1.122626 1.2666309 1.1386535 1.1119652
0003a0 2c 03 8c 3f 10 54 a4 3f d3 ca 91 3f 35 4c 8f 3f
       1.0938468 1.2838154 1.1390022 1.1195132
0003b0 4d 34 9d 3f 83 99 a1 3f 9e de 9e 3f 6e 8a 96 3f
       1.2281586 1.2624973 1.2411687 1.1760995
0003c0 5e 3d 88 3f 9b 8d a1 3f 03 a9 91 3f d7 62 94 3f
       1.0643728 1.262134 1.1379703 1.1592664
0003d0 1f e1 89 3f 31 fa 95 3f 45 59 9e 3f c6 33 9b 3f
       1.0771827 1.1716977 1.2370993 1.2125175
0003e0 79 15 a4 3f 0b 35 9a 3f 31 fa a1 3f 44 22 92 3f
       1.2819053 1.2047437 1.2654477 1.1416707
0003f0 3f 3d 96 3f 25 2d a1 3f 5f e6 8f 3f f8 7d 9a 3f
       1.1737441 1.2591902 1.1242179 1.2069693
