policy_ckpt/Humanoid-v5/06-06-25_19:08:43/epoch3500_reward5738.75.pt (torch, 912518 bytes, 14 tensors)

policy_logstd f4 [17]
0	0xbf02bdb8	-0.5107074
1	0xbf1c3ea1	-0.61033064
2	0xbf2edbee	-0.68304336
3	0xbf057401	-0.5213013
4	0xbf30862b	-0.68954724
5	0xbf8a2217	-1.0791653
6	0xbfb0724c	-1.3784881
7	0xbf0c10cb	-0.54713124
8	0xbf20a5bc	-0.6275289
9	0xbf892f87	-1.0717629
10	0xc0a0679f	-5.012649
11	0xbee2c70e	-0.44292492
12	0xbee5e220	-0.44899082
13	0xbec6d38d	-0.38833275
14	0xbebdb310	-0.37050676
15	0xbed6e75a	-0.41973382
16	0xbeb69301	-0.3565903

shared.0.weight f4 [256, 348]
0	0x3e1ac31e	0.15113494
1	0x3b1f3330	0.0024291985
2	0xbea06c73	-0.3133274
3	0x3daa4f13	0.083158635
4	0xbec20231	-0.37892297
5	0xbec6f974	-0.38862193
6	0xbc977fa5	-0.018493483
7	0x3e9271ef	0.2860255
8	0x3e8f0630	0.27934408
9	0xbf4437d1	-0.7664767
10	0x3f41b7cc	0.75671077
11	0x3f052767	0.5201325
12	0x3e0c16d2	0.1368058
13	0x3e8c5145	0.27405754
14	0x3e193ac7	0.14963828
15	0xbe5d7056	-0.21624884
16	0x3d9b87a8	0.07594234
17	0xbb48c917	-0.0030637437
18	0xbcc60649	-0.024172919
19	0x3dd5251c	0.10407469
20	0x3c810450	0.015749127
21	0xbd3fcdd4	-0.046827152
22	0xbe11d4b6	-0.14241299
23	0x3e85b9a2	0.2611819
24	0x3d85f561	0.06540943
25	0xbd852b89	-0.06502444
26	0xbd2186c4	-0.039435163
27	0x3d2b8e6b	0.041883867
28	0xbcf36a4a	-0.029713769
29	0xbd9af27f	-0.07565784
30	0xbabd0a77	-0.0014422674
31	0x3b5fd49e	0.003415383
32	0xbca6a670	-0.020343035
33	0x3c59e0b9	0.013298207
34	0x3d678b57	0.05652937
35	0x3c93a190	0.018021375
36	0x3d9d2661	0.07673336
37	0xbd0997d9	-0.03359208
38	0xbd48c8eb	-0.049019735
39	0x3d875d1d	0.06609557
40	0xbb29dcce	-0.0025918963
41	0x3d2f710c	0.04283242
42	0x3be533f2	0.0069947178
43	0x3b3b6dc8	0.002859937
44	0x3cac7a9b	0.021054557
45	0x3d0eda6a	0.034876265
46	0x3da1fc95	0.07909504
47	0xbd9d8747	-0.07691818
48	0xbda46030	-0.08026159
49	0x3ce55f88	0.027999654
50	0xbf01b462	-0.5066587
51	0xbc965317	-0.018350167
52	0x3ecfbf7f	0.40575787
53	0x3c972049	0.018448012
54	0x3af7350d	0.0018860415
55	0xbc577062	-0.013149353
56	0x3c782ab6	0.015146902
57	0xbead5989	-0.33857372
58	0xbea24887	-0.3169596
59	0x3d7728f6	0.060341798
60	0xbe480258	-0.19532144
61	0xbd5308aa	-0.051521935
62	0x3e1bb754	0.15206653
63	0xbd0e51ad	-0.03474586
64	0x3b1112b6	0.0022136397
65	0xbe6d1f93	-0.23156576
66	0xbe4336c1	-0.19063856
67	0xbe8fb258	-0.28065753
68	0xbe0a5182	-0.13507655
69	0xbf06f1dc	-0.527128
70	0xbdb4505c	-0.0880439
71	0xbda696f8	-0.08134264
72	0xbd22c788	-0.03974107
73	0xbe0012d4	-0.12507182
74	0x3d21dcf2	0.03951735
75	0xbafd2130	-0.0019312259
76	0xbd1a0e38	-0.037611216
77	0x3d59cd58	0.053174347
78	0xbe34143b	-0.17585842
79	0xbf188532	-0.5957824
80	0xbd75d29a	-0.0600153
81	0xbed9cd5d	-0.42539492
82	0xbdfda82e	-0.12385593
83	0x3d76f034	0.06028767
84	0x3cbe1b98	0.023206517
85	0x3dcbd7c5	0.09953264
86	0x3dc64c09	0.09682471
87	0x3ccf860a	0.02533247
88	0x3e0a587b	0.13510315
89	0xbe282340	-0.16419697
90	0xbbebaef8	-0.0071924888
91	0xbe1deaed	-0.15421648
92	0xbc4b5e74	-0.012412656
93	0x3cc76725	0.024341175
94	0x3d2e8a80	0.042612553
95	0x3e49bc7c	0.19700807
96	0x3e4ebaf0	0.20188498
97	0xbe517727	-0.2045561
98	0x3eaa466c	0.33256853
99	0x3e450c3d	0.1924295
100	0x3d6c1002	0.057632454
101	0x3e85ad0a	0.2610858
102	0xbcd2215a	-0.025650669
103	0xbde8aee3	-0.11361482
104	0x3d1fc611	0.03900725
105	0xbd48d6ab	-0.04903285
106	0x3dd04101	0.101686485
107	0xbe77d908	-0.24203885
108	0x3dfad91a	0.1224844
109	0x3f8b2c4a	1.0872891
110	0xbe0b1366	-0.13581619
111	0x3f3ab30f	0.7292947
112	0xbe1e6dd2	-0.1547158
113	0xbe0c89bd	-0.13724418
114	0x3d2990fc	0.041398033
115	0xbd429425	-0.047504563
116	0x3d1a4ea7	0.037672665
117	0xbee08a38	-0.43855453
118	0x3f275529	0.6536432
119	0x3e17841f	0.14796494
120	0xbe9f8374	-0.31154978
121	0x3e7379f1	0.23776986
122	0xbebcc077	-0.3686559
123	0xbc8db323	-0.017297333
124	0xbb487aff	-0.003059089
125	0xbd385902	-0.04500676
126	0xbd324775	-0.043525178
127	0xbf02b71f	-0.5106067
128	0x3f28579a	0.6575867
129	0xbabd6661	-0.0014450067
130	0xbe8792ba	-0.2647913
131	0xbd2aef38	-0.041732043
132	0xbe126884	-0.14297682
133	0xbc0fdd59	-0.008780801
134	0x3d09a57b	0.03360508
135	0x3dabc230	0.08386648
136	0x3dd3688b	0.10322674
137	0xbd9a39ae	-0.07530533
138	0x3f3db687	0.7410664
139	0xbd2e706c	-0.042587683
140	0x3c6f9332	0.014622496
141	0xbd8689c2	-0.06569244
142	0x3d024e4d	0.031812955
143	0x3cb7560f	0.022379903
144	0x3d3e4252	0.046449967
145	0xbc9565b0	-0.018236965
146	0x3d7d3028	0.061813504
147	0xbc56285c	-0.013071146
148	0x3e155398	0.1458267
149	0xbd105ff9	-0.035247777
150	0xbe21e5da	-0.15810338
151	0xbb0af622	-0.0021203835
152	0x3e402e6c	0.18767709
153	0x3deb55d9	0.114909835
154	0x3d58feae	0.052977256
155	0x3cafbf65	0.021453569
156	0xbb38994a	-0.002816754
157	0x3d8c76bc	0.06858584
158	0x3e77a450	0.24183774
159	0xbc34599c	-0.011007693
160	0xbe445a8f	-0.1917517
161	0x3e377fab	0.17919795
162	0x3dcd37d3	0.10020413
163	0x3b97eadf	0.004636153
164	0xbb884830	-0.004158996
165	0x3d0e0303	0.03467084
166	0xbd5cbbd3	-0.05389006
167	0x3d4ff27e	0.050768368
168	0x3f065c7c	0.5248487
169	0x3b8ff44e	0.004393137
170	0xbd3c0630	-0.04590434
171	0x3def013a	0.11670156
172	0x3dc2f581	0.095194824
173	0xbdbf92c1	-0.09354163
174	0x3d37b6c3	0.04485203
175	0xbd10614a	-0.035249032
176	0xbbced047	-0.0063114497
177	0xbd22d5db	-0.03975473
178	0xbd95c18b	-0.07312306
179	0x3de2252a	0.11042245
180	0xbe922075	-0.28540388
181	0xbe247b6f	-0.16062711
182	0xbc0527c7	-0.008127159
183	0x3c4a0e1b	0.012332465
184	0x3c3dec89	0.011592039
185	0x3e160ce4	0.14653355
186	0xbe415fc6	-0.18884191
187	0x3be5c580	0.007012069
188	0x3ce1b4ee	0.027552094
189	0xbdb4d96f	-0.08830535
190	0xbba3499a	-0.004983139
191	0x3e60f2e2	0.21967652
192	0xbe1213b2	-0.14265326
193	0xbdaa38be	-0.08311604
194	0x3d5a8292	0.053347178
195	0xbcd14fdb	-0.025550773
196	0xbd6583d9	-0.056033943
197	0xbb862a5e	-0.004094406
198	0xbd53194e	-0.051537804
199	0xbcd45b1b	-0.025922349
200	0x3d118ecd	0.035536576
201	0xb9c1430a	-0.00036861777
202	0xbce41c32	-0.027845476
203	0x3d8e1a0e	0.06938563
204	0x3d28c50b	0.04120354
205	0x3d00c319	0.03143606
206	0x3932a468	0.00017036649
207	0x3dcb3abb	0.09923311
208	0xbd87fa11	-0.06639493
209	0x3dca764f	0.09885847
210	0x3d0a6774	0.033790067
211	0xbe14f0c4	-0.1454497
212	0x3c7a84fd	0.015290496
213	0x3d1aa496	0.037754618
214	0x3a1a317b	0.0005882007
215	0xbe43c964	-0.19119793
216	0xbe59ca84	-0.2126866
217	0xbd85f62e	-0.06541096
218	0x3ac2bff3	0.0014858231
219	0x3d023e0e	0.03179746
220	0x3cef8b50	0.029241234
221	0xbd921703	-0.071332954
222	0xbd8ad949	-0.06779725
223	0x3c028275	0.007965674
224	0x3cc4c6ef	0.02402064
225	0xbc76fb21	-0.015074522
226	0x3b7b62f9	0.0038358553
227	0xbdd262ba	-0.10272737
228	0xbd1ce835	-0.038307387
229	0xbd28d99a	-0.041223146
230	0xbc8c1778	-0.017101035
231	0x3c88fe1d	0.016722733
232	0xbd4f36f3	-0.050589513
233	0x3dce38ea	0.10069449
234	0xbe472b7d	-0.19450183
235	0xbcfbf18f	-0.030754833
236	0x3c33ae2c	0.010966819
237	0xbc6682f5	-0.0140693085
238	0x3ac44a61	0.001497578
239	0x3dfd9c2f	0.12383305
240	0xbd32bf64	-0.043639556
241	0xbc0a01aa	-0.008423248
242	0xbcab3760	-0.020900428
243	0xbd485139	-0.048905585
244	0x3ba26daa	0.0049569206
245	0xbd016a85	-0.031595726
246	0xbd16926b	-0.03676073
247	0x3cd9db00	0.026593685
248	0x3c4c5dee	0.012473566
249	0x3d9d4252	0.07678665
250	0x3c9908c8	0.018680945
251	0x3e03c6ad	0.12868758
252	0xbd2e28c4	-0.042519346
253	0x3b8f7f86	0.0043792157
254	0x3b4618c5	0.0030227166
255	0xbbb3fc91	-0.0054927547

shared.0.bias f4 [256]
0	0x3c9a27b7	0.018817766
1	0x3b88d5ab	0.004175862
2	0x3d4354ce	0.047688298
3	0xbd944675	-0.07240001
4	0x3d757619	0.05992708
5	0x3afda762	0.0019352252
6	0xbba571e7	-0.0050489786
7	0xbcf0f7fe	-0.029415127
8	0x3c49ec73	0.01232444
9	0x3cd3ab18	0.02583842
10	0xbaf4bb05	-0.0018671459
11	0x3d7231f7	0.05912968
12	0x3cc19bac	0.0236338
13	0xbc11f6bd	-0.008908925
14	0xbc49d879	-0.0123196775
15	0x3d91965c	0.07108757
16	0x3c1d84ef	0.009614213
17	0xbb940a5a	-0.0045178356
18	0x3b1a416a	0.0023537525
19	0x3ce2d3f0	0.02768895
20	0xbbc0e104	-0.005886199
21	0xbd139ff2	-0.036041208
22	0xb801d4f4	-3.0954325e-05
23	0xbccd9bc4	-0.025098689
24	0x3cd190e9	0.025581794
25	0x3cc9421a	0.024567652
26	0xbcc6d82d	-0.024273003
27	0x3cd55bda	0.026044775
28	0x3c239024	0.009983096
29	0xbc4a2053	-0.012336808
30	0xbd3181fe	-0.04333686
31	0x3b7a6bfa	0.0038211332
32	0xbcf1fa31	-0.029538246
33	0x3b407a65	0.0029369828
34	0x3d395483	0.045246612
35	0xbd038349	-0.032107625
36	0x3d23e473	0.040012788
37	0xbb22f1dd	-0.00248634
38	0xbd1d00a9	-0.038330708
39	0x3d11e07d	0.03561448
40	0xbd668bed	-0.056285787
41	0x3c16b6b8	0.009198837
42	0x3bbb591d	0.0057174102
43	0xbd455c48	-0.04818371
44	0xbd3d1afc	-0.046168312
45	0x3cf1cd3e	0.029516812
46	0x3d502318	0.050814718
47	0xbce66f31	-0.028129192
48	0x3d3aee6b	0.04563753
49	0x3cc9f658	0.024653599
50	0x3cdd0e54	0.026984371
51	0x3ce9519c	0.028481297
52	0x3bc6f2f5	0.006071443
53	0x3cfb7fd9	0.030700611
54	0xbb1b7836	-0.0023722774
55	0x3a98823f	0.0011635496
56	0x3d1f2250	0.038851082
57	0xbb36e4a3	-0.0027907274
58	0xbcbd4761	-0.023105325
59	0x3d28fd49	0.041257177
60	0x3c410472	0.011780845
61	0x3c6ac0be	0.01432818
62	0x3d7687af	0.06018799
63	0xbd186abd	-0.03721117
64	0xb937cdd9	-0.00017528924
65	0xbccf0691	-0.025271686
66	0xbc6cda51	-0.014456348
67	0x3c51f61a	0.012815023
68	0x3cad73e8	0.021173432
69	0x3c817f65	0.015807817
70	0x3ca2cd35	0.019873241
71	0xbce26349	-0.027635233
72	0x3cc8f8e1	0.024532737
73	0x3bdeab1f	0.0067953016
74	0xbc84af17	-0.01619677
75	0xbca1a111	-0.019730123
76	0xbb2fae43	-0.002680675
77	0xbd434295	-0.04767092
78	0x3d78de43	0.06075884
79	0x3d3503f4	0.044193223
80	0x3d28b255	0.041185696
81	0x3d4df14a	0.05027894
82	0x3c908eed	0.017646277
83	0xbcdf68b8	-0.027271613
84	0xbd8bd501	-0.06827737
85	0x3d6dfc9f	0.058102246
86	0xbd50d292	-0.050982065
87	0x3d447ae4	0.04796876
88	0x3bb5f697	0.0055530774
89	0xbc8e8246	-0.017396104
90	0xbd4fb78d	-0.050712157
91	0x3bb93b8a	0.0056528496
92	0x3d8418dc	0.06450054
93	0xbd285056	-0.04109224
94	0xbd49eeda	-0.049300052
95	0xbbe52584	-0.0069929976
96	0xbcaf2377	-0.021379216
97	0x3d288b67	0.04114857
98	0x3cbd49ae	0.023106422
99	0x3ccb9e8a	0.02485587
100	0x3d9f07aa	0.07765134
101	0x3ca9e81f	0.020740567
102	0x3d0fb7a6	0.03508725
103	0xbbd3e9a8	-0.006467063
104	0x3d17b937	0.03704187
105	0xbcb70323	-0.022340363
106	0xbd29dc6a	-0.04146997
107	0xbbc22956	-0.005925338
108	0xbcb3988c	-0.021923326
109	0xbcb8360f	-0.022486715
110	0x3c2db273	0.010601628
111	0xba8f5faa	-0.0010938544
112	0x3c29850b	0.010346661
113	0xbc04606b	-0.008079628
114	0x3c7e4d5f	0.015521376
115	0xbd54e83b	-0.051979285
116	0xbc1764c7	-0.009240336
117	0xbda3a2a7	-0.07990008
118	0xbd48fd4a	-0.04906968
119	0x3d5574ca	0.05211333
120	0xbc9ee526	-0.019396376
121	0x3d2a86e3	0.041632544
122	0xbd324061	-0.043518428
123	0xbd638a79	-0.05555198
124	0xbc4e5901	-0.012594462
125	0xbceb6881	-0.028736355
126	0xbae90b13	-0.001777979
127	0xbc8c9667	-0.017161561
128	0xbb5dfd3c	-0.0033872863
129	0xbd3f2855	-0.046669323
130	0xbd0c574b	-0.034262937
131	0x3c7ea2ce	0.015541745
132	0xbd6576a5	-0.05602135
133	0x3d0873ca	0.03331355
134	0xbc03bd4b	-0.008040736
135	0xbd4fe79b	-0.050757986
136	0xbd9674ea	-0.07346518
137	0x3c384b2a	0.011248389
138	0x3d9325aa	0.07184918
139	0x3d75ebf9	0.060039494
140	0x3cd0d32c	0.02549132
141	0xbd8b3399	-0.06796951
142	0x3d6bbb5e	0.057551734
143	0x3cb45ff8	0.022018418
144	0xbd65ba91	-0.056086127
145	0x3c699b46	0.0142582115
146	0x3d49fae0	0.04931152
147	0xbd8519ee	-0.06499086
148	0xbc9d73c1	-0.019220235
149	0x3c107e08	0.008819111
150	0x3d5396de	0.05165755
151	0x3d58cff3	0.05293269
152	0x3d8ce355	0.06879298
153	0x3ca544a7	0.020174338
154	0x3cd4a8cf	0.0259594
155	0xbcae1a5c	-0.021252804
156	0x3c841474	0.016123034
157	0x3d4df46a	0.05028192
158	0x3bb2146c	0.0054345634
159	0x3c96dbc3	0.018415337
160	0x3bed48c3	0.00724134
161	0xbba6e1f1	-0.0050928523
162	0x3c79c3e8	0.015244462
163	0xbd12d86a	-0.03585092
164	0xbc4fb5c3	-0.012677613
165	0x3d4a3dd2	0.049375363
166	0xbc4d79c9	-0.012541243
167	0xbcae017e	-0.021240946
168	0xbcd926fd	-0.026507849
169	0x3c1aa3fd	0.009438512
170	0xbcd66bd4	-0.026174463
171	0xbcc37540	-0.02385962
172	0xba9c50ff	-0.0011925994
173	0xbd843bbc	-0.06456706
174	0xbb341b5c	-0.0027482128
175	0x3aa7aa95	0.0012791926
176	0xbd87f596	-0.06638639
177	0xbcb600a6	-0.022217106
178	0x3be7a28c	0.0070689376
179	0x3bf6c1c1	0.0075304215
180	0xbd18f32f	-0.037341293
181	0xbd270cfa	-0.04078386
182	0x3cd10ada	0.02551787
183	0xbca47ab7	-0.020078046
184	0xbcc27c77	-0.02374099
185	0xbd80cc8f	-0.062890165
186	0xbd35e015	-0.044403154
187	0xbc836e4f	-0.01604381
188	0x3d1681e8	0.036744982
189	0xbc0b9526	-0.0085194465
190	0xbcb4a2b6	-0.022050243
191	0x3c70ce6d	0.014697653
192	0xbcbb7cc8	-0.022886649
193	0x3b6f7516	0.0036538295
194	0x3d14a573	0.036290597
195	0xbc61f7b8	-0.013791971
196	0xbd0976a3	-0.033560406
197	0xbcc9826c	-0.024598323
198	0xbd032093	-0.032013487
199	0x3c304226	0.0107579585
200	0x3cf81598	0.030283734
201	0xbd337672	-0.04381413
202	0x3d0a4399	0.033755872
203	0xbbd04b0d	-0.006356603
204	0xbc8bfb48	-0.017087594
205	0xba4c5084	-0.000779398
206	0xbd3f4157	-0.046693172
207	0x3ce15ff4	0.027511574
208	0xbd3dcd81	-0.046338562
209	0xbcc696bb	-0.024241796
210	0xbcc38905	-0.023869047
211	0xbc184c5d	-0.00929555
212	0x3ced206b	0.028946122
213	0x3d0d8a05	0.034555454
214	0x3b95d38f	0.004572339
215	0x3bd76b0f	0.0065740417
216	0xbbf61a59	-0.007510465
217	0xbb92a58e	-0.004475302
218	0x3d2484c0	0.040165663
219	0xbd71c411	-0.059024874
220	0xbc9a0d1a	-0.018805075
221	0x3d2a7f4a	0.0416253
222	0xbcd34359	-0.02578895
223	0xbd4a000e	-0.04931646
224	0x3ade37e5	0.0016953914
225	0xbd191828	-0.037376553
226	0x3d3e8c90	0.04652077
227	0xbd903b7d	-0.070425965
228	0x3db63243	0.088963054
229	0xbc05d2ec	-0.0081679635
230	0x3cf1ede2	0.029532377
231	0x3927cb47	0.00016002088
232	0x3d109898	0.035301775
233	0x3ca554ed	0.020182097
234	0x3b85e7c0	0.0040864646
235	0x39dd18b5	0.00042170813
236	0x3d758316	0.059939466
237	0xbd407d98	-0.046994776
238	0x3b4872f2	0.003058609
239	0xbc8cf37d	-0.017205948
240	0x3d12db0b	0.035853427
241	0xbd136ae9	-0.03599063
242	0xbd484965	-0.04889812
243	0xbc0297e8	-0.007970788
244	0xbd579677	-0.05263373
245	0x3cc22b6e	0.02370235
246	0x3c8b12a7	0.016976668
247	0xbd610e7e	-0.05494546
248	0x3c671c91	0.014105932
249	0x3cf3ec20	0.02977568
250	0x3b2ba577	0.0026191154
251	0x3d840ceb	0.064477764
252	0xbc4a8516	-0.012360832
253	0xbcd86a66	-0.026417922
254	0x3d8fb5ac	0.07017073
255	0x3d234291	0.039858405

shared.1.weight f4 [256]
0	0x3f87f607	1.0621957
1	0x3f75ddf3	0.9604179
2	0x3f76e4cb	0.9644286
3	0x3f6bcc27	0.92108387
4	0x3f7db723	0.9910757
5	0x3f81bec5	1.0136343
6	0x3f81cce1	1.0140649
7	0x3f7ba756	0.9830221
8	0x3f7734d2	0.9656497
9	0x3f7587dc	0.9591043
10	0x3f82fd55	1.0233561
11	0x3f854eed	1.0414711
12	0x3f7b97a2	0.9827825
13	0x3f777ff2	0.96679604
14	0x3f81cdb9	1.0140907
15	0x3f9da5dd	1.2316242
16	0x3f7c9787	0.9866871
17	0x3f798902	0.9747468
18	0x3f795328	0.9739251
19	0x3f89fb1f	1.0779761
20	0x3f802bd2	1.0013373
21	0x3f9d4ca1	1.228901
22	0x3f755ce8	0.9584489
23	0x3f7a843d	0.9785803
24	0x3f7aabd0	0.97918415
25	0x3f7498cf	0.9554567
26	0x3f808634	1.0040956
27	0x3f784e62	0.969946
28	0x3f794151	0.9736529
29	0x3f816ce6	1.0111358
30	0x3f7b7b11	0.9823466
31	0x3f8218d7	1.016383
32	0x3f7f66d7	0.99766296
33	0x3f830dbb	1.0238565
34	0x3f8bf7d4	1.0935006
35	0x3f7875f2	0.9705497
36	0x3f7b5785	0.9818042
37	0x3f84272c	1.0324454
38	0x3f85057c	1.0392299
39	0x3f84de98	1.038043
40	0x3f71b228	0.9441247
41	0x3f84128f	1.0318164
42	0x3f7aa603	0.97909564
43	0x3f80fa58	1.0076399
44	0x3f763da9	0.96187836
45	0x3f82d6cc	1.0221801
46	0x3f826555	1.0187174
47	0x3f806764	1.0031552
48	0x3f6dffdd	0.9296854
49	0x3f783a4c	0.96963954
50	0x3f782a7a	0.96939814
51	0x3f8533d1	1.0406438
52	0x3f806da5	1.0033461
53	0x3f81910a	1.0122387
54	0x3f7f82b8	0.99808836
55	0x3f7adfea	0.97997916
56	0x3f79d2ba	0.9758717
57	0x3f830168	1.0234804
58	0x3f817892	1.011492
59	0x3f7fab28	0.9987054
60	0x3f78797c	0.9706037
61	0x3f82da3a	1.0222847
62	0x3f6e9973	0.93202895
63	0x3f80bc19	1.0057403
64	0x3f6fcc03	0.9367067
65	0x3f7812b2	0.96903527
66	0x3f794195	0.97365695
67	0x3f82fea1	1.0233957
68	0x3f78c4f4	0.97175527
69	0x3f800c5e	1.0003774
70	0x3f7f4d31	0.9972716
71	0x3f764f40	0.96214676
72	0x3f73de1f	0.95260805
73	0x3f84347a	1.0328515
74	0x3f826e12	1.0189841
75	0x3f79ff03	0.9765474
76	0x3f81522e	1.0103204
77	0x3f766ed0	0.96262836
78	0x3f79d03f	0.97583383
79	0x3f7a9bdd	0.9789408
80	0x3f867708	1.0505075
81	0x3f8040d9	1.001979
82	0x3f744fae	0.9543408
83	0x3f787ed7	0.9706854
84	0x3f812d22	1.0091898
85	0x3f731932	0.9496032
86	0x3f7ca1dd	0.98684484
87	0x3f7e1312	0.9924785
88	0x3f7f6648	0.99765444
89	0x3f78ae80	0.97141266
90	0x3f7d373f	0.98912424
91	0x3f704c68	0.93866587
92	0x3faaf423	1.3355755
93	0x3f7d4159	0.9892784
94	0x3f82a9ea	1.0208104
95	0x3fa92ebf	1.3217391
96	0x3f7b36a8	0.98130274
97	0x3f8b3de5	1.0878264
98	0x3f83e3d3	1.0303901
99	0x3f780e92	0.9689723
100	0x3f80f2ab	1.0074056
101	0x3f80fae0	1.0076561
102	0x3f794442	0.9736978
103	0x3f83ab4c	1.0286651
104	0x3f839741	1.0280534
105	0x3f7b64ab	0.9820048
106	0x3f793a65	0.9735473
107	0x3f84f200	1.0386353
108	0x3f8183e6	1.0118377
109	0x3f818ba6	1.0120742
110	0x3f7e2dbc	0.99288535
111	0x3f847694	1.0348687
112	0x3f88f2a8	1.0699053
113	0x3f796825	0.97424537
114	0x3f6f4456	0.9346365
115	0x3f741eb8	0.95359373
116	0x3f81c68a	1.0138714
117	0x3f7ab893	0.9793789
118	0x3f7bba00	0.9833069
119	0x3f7c3b26	0.98527753
120	0x3f78335b	0.9695336
121	0x3f77b1e3	0.9675581
122	0x3f780148	0.96876955
123	0x3f7b9379	0.982719
124	0x3f78f00f	0.972413
125	0x3f88fee6	1.0702789
126	0x3f7a82a2	0.9785558
127	0x3f75f5b4	0.9607804
128	0x3f862f9f	1.0483283
129	0x3f747e88	0.9550557
130	0x3f737f2e	0.95115936
131	0x3f7aa443	0.97906893
132	0x3f7d6e9d	0.9899691
133	0x3f8291fd	1.0200802
134	0x3f7b8fae	0.9826611
135	0x3f7c4bff	0.9855346
136	0x3f7e2f4c	0.9929092
137	0x3f76e40c	0.9644172
138	0x3f85e666	1.0460937
139	0x3fa16f1e	1.2612035
140	0x3f80d8c9	1.0066158
141	0x3f720107	0.9453282
142	0x3f81d4f8	1.0143118
143	0x3f779a33	0.96719664
144	0x3f84ca23	1.0374187
145	0x3f8036b1	1.001669
146	0x3f79d8f3	0.97596663
147	0x3f7cf4ae	0.9881085
148	0x3f811b8a	1.0086529
149	0x3f80c275	1.0059344
150	0x3f887d43	1.0663227
151	0x3f8e6c2c	1.1126761
152	0x3f781e0f	0.96920866
153	0x3f773e63	0.9657957
154	0x3f79caea	0.9757525
155	0x3f7fe78c	0.9996269
156	0x3f842873	1.0324844
157	0x3f793036	0.9733919
158	0x3f7fc2ea	0.9990679
159	0x3f89b2b4	1.0757661
160	0x3f807168	1.0034609
161	0x3f815ac8	1.0105829
162	0x3f7eb05c	0.99487853
163	0x3f80a010	1.0048847
164	0x3f79f131	0.97633654
165	0x3f8383d3	1.0274605
166	0x3f792906	0.9732822
167	0x3f8320d5	1.0244395
168	0x3f751ba4	0.957453
169	0x3f8159e4	1.0105557
170	0x3f8586b2	1.0431731
171	0x3f7ef067	0.99585575
172	0x3f7ca59b	0.98690194
173	0x3f7a4782	0.9776536
174	0x3f8b09e3	1.0862392
175	0x3f7f2eb1	0.9968062
176	0x3f73da9e	0.9525546
177	0x3f6d4a09	0.92691094
178	0x3f7bd2d4	0.98368573
179	0x3f87715c	1.058147
180	0x3f7e4121	0.9931813
181	0x3f7d38a5	0.9891456
182	0x3f7eb5c8	0.99496126
183	0x3f7dee21	0.9919148
184	0x3f80d6f1	1.0065595
185	0x3f7cb4aa	0.9871317
186	0x3f8475fc	1.0348506
187	0x3f8adbbc	1.0848308
188	0x3f810ebf	1.0082625
189	0x3f7cb427	0.9871239
190	0x3f809d04	1.0047917
191	0x3f74b14e	0.95583045
192	0x3f7e4e38	0.993381
193	0x3f8d7532	1.105139
194	0x3f83b440	1.0289383
195	0x3f7ac59b	0.9795777
196	0x3f7bec8f	0.98407835
197	0x3f7ff8fb	0.9998929
198	0x3f84157d	1.0319058
199	0x3f7d307d	0.9890211
200	0x3f855fc5	1.0419852
201	0x3f74bc94	0.9560025
202	0x3f814c4a	1.0101407
203	0x3f92ad6f	1.1459178
204	0x3f7b1c22	0.980898
205	0x3f805496	1.0025814
206	0x3f857f0a	1.0429394
207	0x3f8b7fbf	1.089836
208	0x3f838abf	1.0276717
209	0x3f90b7b9	1.1306068
210	0x3f9743dc	1.1817584
211	0x3f84314a	1.0327542
212	0x3f786bfc	0.9703977
213	0x3f866e32	1.0502379
214	0x3f732b7e	0.9498824
215	0x3f8abe04	1.0839238
216	0x3f73bf29	0.9521356
217	0x3f7c83e4	0.9863875
218	0x3f75983a	0.95935404
219	0x3f91d390	1.1392689
220	0x3f7b2e3f	0.9811744
221	0x3f7c1388	0.984673
222	0x3f809f96	1.0048702
223	0x3f7ea7b8	0.9947467
224	0x3f7e6eff	0.99388117
225	0x3f769e32	0.96335137
226	0x3f80c499	1.0059997
227	0x3f80ecc6	1.0072258
228	0x3f911828	1.1335497
229	0x3f8411b9	1.0317909
230	0x3f7d2131	0.9887877
231	0x3f7d264e	0.98886573
232	0x3f826332	1.0186522
233	0x3f6d8234	0.927768
234	0x3f757c27	0.95892566
235	0x3f80c51e	1.0060155
236	0x3f7ae40f	0.9800424
237	0x3f76ff7e	0.964836
238	0x3f78eccc	0.97236323
239	0x3f76de10	0.9643259
240	0x3face09d	1.3506047
241	0x3f722135	0.9458192
242	0x3f7e4bc7	0.9933438
243	0x3f7b20f7	0.98097175
244	0x3f78757b	0.9705426
245	0x3f7dcb4f	0.9913835
246	0x3f7d6118	0.9897628
247	0x3f7083dc	0.939512
248	0x3f809fcc	1.0048766
249	0x3f73cd8f	0.9523553
250	0x3f7992cf	0.9748964
251	0x3f9066cb	1.128137
252	0x3f8213be	1.0162275
253	0x3f7a7167	0.9782929
254	0x3f7e8914	0.99427915
255	0x3f7b0532	0.980548

shared.1.bias f4 [256]
0	0xbd09272e	-0.03348463
1	0xbd010776	-0.031501256
2	0x3c546401	0.012963296
3	0xbd92d04d	-0.071686365
4	0x3b52ecdd	0.0032184639
5	0xbd4f343d	-0.050586928
6	0xbd40472f	-0.046942886
7	0xbbab12e1	-0.0052207564
8	0xbd9fb838	-0.07798809
9	0xbd514e47	-0.05110004
10	0xbc1cfbd3	-0.009581524
11	0xbd5fba34	-0.054620937
12	0xbd08c07b	-0.03338669
13	0xbd263cec	-0.040585443
14	0xbd907bff	-0.070549004
15	0xbbf52d1b	-0.0074821836
16	0xbd92eab1	-0.0717367
17	0xbc0d7d4d	-0.008635831
18	0xbced2933	-0.02895031
19	0xbd8a763b	-0.06760832
20	0xbcbbacdb	-0.022909572
21	0x3c98537b	0.018594494
22	0xbc8721c0	-0.016495585
23	0xbd0e128e	-0.034685664
24	0xbd020f13	-0.031752657
25	0xbd7de92b	-0.061989944
26	0x3bc06c3a	0.0058722766
27	0xbd32341c	-0.043506727
28	0xbd2f26b2	-0.042761512
29	0xbd0d7e19	-0.034544084
30	0xbcadf512	-0.021235023
31	0xbd8012a5	-0.06253556
32	0xbd643a99	-0.055719946
33	0xbbf6d254	-0.0075323973
34	0x3ca69034	0.020332433
35	0xbe05f45a	-0.13081494
36	0xbd0a3acb	-0.033747476
37	0x3c9e199f	0.019299326
38	0xbc09f4cb	-0.00842018
39	0x3bf8f89b	0.0075979955
40	0xbd878280	-0.06616688
41	0xbc80fe6f	-0.015746323
42	0xbd6a72ca	-0.057238378
43	0xbcc83446	-0.024438988
44	0xbd06b295	-0.032885153
45	0xbd7d4d5a	-0.061841346
46	0xbcf69158	-0.030098602
47	0xbd03df30	-0.03219527
48	0xbd801d7e	-0.06255625
49	0xbcb4c601	-0.022067072
50	0xbd340989	-0.043954406
51	0xbc5dd4c8	-0.013539501
52	0xbcae3d93	-0.021269595
53	0xbdf8c40d	-0.12146769
54	0xbd67f215	-0.05662735
55	0xbd2dc606	-0.042425178
56	0xbd381e86	-0.044950984
57	0xbd299ea4	-0.041411057
58	0xbd41cc52	-0.047313996
59	0xbcb16b1a	-0.021657515
60	0xbd0b5ec7	-0.034025934
61	0xbb42f006	-0.0029745116
62	0xbdb7da00	-0.08977127
63	0xbd7a5380	-0.061114788
64	0xbd9617e0	-0.073287725
65	0xbc937adb	-0.018002918
66	0xbd53676b	-0.0516123
67	0xbd84efc1	-0.06491042
68	0xbc20419e	-0.009781269
69	0x3bc6e59a	0.006069851
70	0xbd49bfb3	-0.049255084
71	0xbce69e4a	-0.02815165
72	0xbcdd663f	-0.027026294
73	0x3a38925b	0.00070408516
74	0xbc323bd4	-0.010878522
75	0xbc6bdf5f	-0.014396518
76	0xbd4a7ae7	-0.049433615
77	0xbdc0a709	-0.094068594
78	0xbcb32ee5	-0.021872947
79	0xbd26eaad	-0.040751148
80	0x3c868b4d	0.016423846
81	0x3b85ed12	0.004087099
82	0xbd386595	-0.04501875
83	0xbd1acc63	-0.037792575
84	0xbdf25e8d	-0.118344404
85	0xbd90dafa	-0.070730165
86	0xbd9d2b04	-0.0767422
87	0xbd4d35b9	-0.050100062
88	0xbdae07fc	-0.08497617
89	0xbcf9615d	-0.030441934
90	0xbccac5f5	-0.024752596
91	0xbdaef028	-0.085419
92	0x39d1bbf2	0.00040003617
93	0xbd741288	-0.059587985
94	0xbd62cc60	-0.05537069
95	0xbbc68a8a	-0.0060589956
96	0xbd53540a	-0.051593818
97	0xbe06e258	-0.13172281
98	0x3c6fdfe8	0.014640786
99	0xbcc358a2	-0.023845974
100	0xbb471c77	-0.0030381957
101	0xbd3c0305	-0.045901317
102	0xbd089fca	-0.03335551
103	0xbd176888	-0.036964923
104	0x3c81ee42	0.01586068
105	0xbccf874a	-0.025333066
106	0xbcb097e6	-0.021556806
107	0xbbc71c57	-0.0060763764
108	0xbd6ade66	-0.057341002
109	0x3bbf88c7	0.0058451626
110	0xbd1b0803	-0.037849437
111	0xbc3269f9	-0.010889524
112	0xbd557b1e	-0.052119367
113	0xbc81fbc7	-0.015867127
114	0xbd1f71f1	-0.038927022
115	0xbd4a257a	-0.049352147
116	0xbd55c83f	-0.052192923
117	0xbc3e5f69	-0.011619427
118	0xbbf03fd1	-0.0073318263
119	0xbd0c63e5	-0.034274954
120	0xbd1e512e	-0.038651638
121	0xbd898e48	-0.06716591
122	0xbc7b1a84	-0.015326146
123	0xbd439fd1	-0.047759835
124	0xbcd55700	-0.026042461
125	0xbdc1696e	-0.09443937
126	0xbb6170ca	-0.0034399503
127	0xbd73beb6	-0.059508048
128	0xbd840e95	-0.06448094
129	0xbd2a25ce	-0.04153996
130	0xbd5f0c8c	-0.054455325
131	0xbc375a26	-0.011190927
132	0xbd067b31	-0.03283233
133	0xbd9096ba	-0.07059999
134	0xbcb673b3	-0.022271967
135	0xbb9501ca	-0.0045473324
136	0xbbb2e539	-0.0054594544
137	0xbd7a92a7	-0.061175015
138	0x3c843120	0.016136706
139	0xbc2f6650	-0.010705546
140	0xbc644328	-0.013932027
141	0xbde4ddf5	-0.111751474
142	0xbc6795a2	-0.014134796
143	0xbd17f33a	-0.037097193
144	0xbb8ae287	-0.00423843
145	0xbc1bf2f8	-0.0095183775
146	0xbd295182	-0.041337498
147	0xbcb45007	-0.022010816
148	0xbdca4786	-0.09876923
149	0xbd4a561e	-0.049398534
150	0xbb27012d	-0.0025482879
151	0xbd06614f	-0.032807644
152	0xbc9327e5	-0.01796336
153	0xbccb4835	-0.024814704
154	0xbd7f5f5d	-0.062346805
155	0xbb4dec8e	-0.0031421515
156	0xbcb96a1d	-0.022633607
157	0xbd27266a	-0.04080812
158	0xbc866119	-0.016403722
159	0xbe144d1b	-0.14482538
160	0xbc29c475	-0.01036178
161	0xbc933faf	-0.017974703
162	0xbbec5961	-0.0072128032
163	0xbcab8392	-0.020936761
164	0xbd14d0c6	-0.036331914
165	0xbd1e4451	-0.03863937
166	0xbd58648a	-0.052830257
167	0x3bc84d53	0.0061127334
168	0xbd3cd545	-0.046101827
169	0xbbf050d7	-0.0073338556
170	0xbd4bafe8	-0.049728304
171	0xbd25afe9	-0.040450964
172	0xbcd7f0f8	-0.02636002
173	0xbcc8ac41	-0.0244962
174	0xbda4f67d	-0.080548264
175	0xbd6f6dd6	-0.058454357
176	0xbd019c87	-0.031643417
177	0xbd187b4c	-0.03722696
178	0xbc5d1c78	-0.013495557
179	0xbda16269	-0.078800984
180	0xbd8d22dc	-0.068914145
181	0xbd107c90	-0.035275042
182	0xbd7d36c1	-0.061819796
183	0xbcf82c36	-0.030294519
184	0xbcc18a0e	-0.0236254
185	0xbd3489ba	-0.04407666
186	0xbc5079b9	-0.012724333
187	0x3c3afd56	0.011412939
188	0xbc37e0ab	-0.011222999
189	0xbc63f2df	-0.013912885
190	0x3a387156	0.00070359313
191	0xbd42c9cf	-0.04755574
192	0xbd42f898	-0.04760036
193	0xbdd4896f	-0.10377776
194	0xbd07c796	-0.033149324
195	0xbd7a0f42	-0.061049707
196	0xbda3a92e	-0.07991253
197	0xbd0ad775	-0.033896882
198	0xbd83576f	-0.06413161
199	0xbc2a9941	-0.010412515
200	0x3c8230f2	0.01589248
201	0xbcea3c1f	-0.028593121
202	0xbd43cf8d	-0.047805358
203	0xbd8264e1	-0.063668974
204	0xbcc6982d	-0.024242485
205	0xbcacb57d	-0.021082634
206	0xbd19687a	-0.037453152
207	0x3c20c0c3	0.009811583
208	0xbd209886	-0.039207958
209	0xbcdfab89	-0.027303474
210	0xbe1a67bc	-0.15078634
211	0xbc4d3186	-0.012524014
212	0xbd1512dd	-0.036394943
213	0xbd31da7e	-0.04342126
214	0xbd81c8cb	-0.06337126
215	0xbdb6e95e	-0.0893123
216	0xbcefab9b	-0.029256633
217	0xbcb69843	-0.0222894
218	0xbc4a1309	-0.01233364
219	0x3d0e57dc	0.034751758
220	0xbd3db22b	-0.046312492
221	0xbc8713cc	-0.016488932
222	0xbd5cc0c3	-0.05389477
223	0xbd612cd8	-0.054974407
224	0xbcbe11cb	-0.023201844
225	0xbcb4addc	-0.022055559
226	0xba98a23b	-0.0011645028
227	0xbc79b10c	-0.015239965
228	0x3bc61fcc	0.006046271
229	0xbba34015	-0.0049820044
230	0xbc94dd09	-0.018171804
231	0xbc8c7719	-0.017146634
232	0xb9b689f3	-0.00034816525
233	0xbd4e817f	-0.050416466
234	0xbd27598e	-0.04085689
235	0xbdaa1101	-0.083040245
236	0xbd4f7839	-0.050651763
237	0xbcb49637	-0.022044284
238	0xbd634250	-0.055483162
239	0xbd1d6935	-0.03843041
240	0x3a785b89	0.0009474089
241	0xbc4084ff	-0.011750459
242	0xbcb2ea2f	-0.021840183
243	0xbd0b25c6	-0.03397157
244	0xbd81dffe	-0.06341551
245	0xbd21ebde	-0.03953158
246	0xbcffbef9	-0.031218993
247	0xbda9cc38	-0.08290905
248	0xbd02fbae	-0.0319783
249	0xbd437a77	-0.047724213
250	0xbd828e9a	-0.06374855
251	0xbcddfe62	-0.027098838
252	0x3bd64dc3	0.0065400316
253	0xbcb4cf2a	-0.02207144
254	0xbd02a752	-0.03189785
255	0xbd89eaad	-0.06734214

shared.3.weight f4 [256, 256]
0	0xbc456aa4	-0.012049351
1	0x3d2e4f0e	0.04255586
2	0x3d28bba1	0.041194562
3	0xbcd1be6d	-0.025603497
4	0xbd46d676	-0.04854437
5	0xbd4264bc	-0.04745935
6	0x3d83e7e3	0.06440713
7	0x3b74fb71	0.0037381316
8	0x3cf82231	0.030289741
9	0x3c580730	0.013185307
10	0xbd9253d4	-0.07144895
11	0x3bc2d034	0.00594523
12	0x3d3e6683	0.04648448
13	0x3cd7d141	0.026344897
14	0x3d295e2c	0.041349575
15	0x3cc3453f	0.02383673
16	0x3ac774ae	0.0015217268
17	0x3d5d9b1c	0.054103002
18	0xbd847f49	-0.0646959
19	0xbcc91bb7	-0.024549348
20	0xbb1611e1	-0.002289884
21	0x3daa7f3d	0.0832505
22	0xbda7598f	-0.08171379
23	0xbd87d159	-0.06631727
24	0x3d7993ad	0.06093185
25	0x3db3f79c	0.08787462
26	0xbbc05976	-0.0058700396
27	0x3b32b085	0.0027265858
28	0xbbc2d62e	-0.0059459424
29	0x3cb0b2d9	0.021569656
30	0xbb621e12	-0.0034502787
31	0x3d82aae1	0.06380249
32	0xbc89b06b	-0.016807755
33	0x3d1836df	0.037161704
34	0x3d178b1e	0.036997907
35	0xbd3e8b8a	-0.046519794
36	0xbd5dbb51	-0.054133717
37	0x3dc1f625	0.094707765
38	0x3cba6af6	0.022756081
39	0xbd0bd9ef	-0.034143385
40	0xbcbe6b47	-0.023244513
41	0x3cfe27b8	0.031024799
42	0xbd1422ee	-0.036166124
43	0xbd53ff74	-0.05175729
44	0x3cc0793a	0.023495305
45	0x3d0b5902	0.03402043
46	0x3cfe0955	0.03101031
47	0xbd1c0209	-0.03808788
48	0x3d85b744	0.06529096
49	0xbd2b1a3c	-0.041773066
50	0x3d223b5e	0.0396074
51	0xbd7026cd	-0.058630753
52	0xbc831f8e	-0.016006257
53	0x3c43aa51	0.011942462
54	0x3b675848	0.0035300422
55	0x3c01a27f	0.007912277
56	0xbc4a7a35	-0.012358238
57	0x3d4de3b5	0.050265986
58	0x3be46698	0.006970238
59	0x3db14310	0.08655369
60	0x3cef035b	0.029176405
61	0xbb8f8b9b	-0.004380656
62	0xbbb6940c	-0.005571848
63	0xbc8a1a4d	-0.016858244
64	0x3db2e396	0.08734815
65	0xbd8044bd	-0.06263111
66	0xbd141d95	-0.036161024
67	0x3d08f8f1	0.033440534
68	0xbd8fe990	-0.070269704
69	0xbd4d8d46	-0.050183557
70	0x3da4768b	0.08030423
71	0x3cb2f162	0.021843616
72	0xbd47b677	-0.048757996
73	0x3c099c57	0.008399091
74	0x3a69d2ab	0.00089196366
75	0x3d71c4e9	0.05902568
76	0xbc9847aa	-0.01858886
77	0xbc43d023	-0.011951479
78	0x3bf605a4	0.0075079966
79	0xbc9e778e	-0.019344117
80	0x3cbf4dd2	0.023352537
81	0x3d1bc600	0.038030624
82	0x3da8df0e	0.08245669
83	0x3ce30a5d	0.027714903
84	0xbcc0cfa7	-0.023536516
85	0xbc9901da	-0.01867764
86	0x3cc6b24b	0.024254939
87	0xbd8b33dd	-0.067970015
88	0xbccfc4fa	-0.02536248
89	0xbc353fd2	-0.011062579
90	0x3c46d156	0.0121348705
91	0xbd1d9806	-0.03847506
92	0xbd2a1518	-0.041524023
93	0xbce3bf4c	-0.027801178
94	0xbc8869b5	-0.016651968
95	0x3d240c19	0.0400506
96	0xbd50c957	-0.050973263
97	0x3d34dfb3	0.04415865
98	0x3d1e4001	0.038635258
99	0x3cdb1a8c	0.026746057
100	0x3c979bc5	0.018506894
101	0x3cfbbff8	0.030731186
102	0xbcdd68d0	-0.027027518
103	0xbd018e56	-0.031629883
104	0x3cd104ef	0.025515048
105	0x3c7e172d	0.015508455
106	0x3d9d88de	0.07692121
107	0xbc14e9d8	-0.009088956
108	0xbc3c9088	-0.011509068
109	0x3d650d58	0.05592093
110	0x3aebb4ce	0.0017982961
111	0xbb4517d4	-0.0030074017
112	0x3c412eb1	0.011790917
113	0x398c3f0e	0.0002674986
114	0xbcfefcc7	-0.031126393
115	0x3cebe7cc	0.028797053
116	0x3d324237	0.04352018
117	0xbd336eef	-0.043806966
118	0x3cb57e04	0.022154815
119	0xbc270bc8	-0.01019568
120	0x3b3591a7	0.0027705224
121	0x3d73a27c	0.05948113
122	0xbcbe5851	-0.023235472
123	0x3d64efac	0.05589263
124	0x3d718896	0.05896815
125	0xbd8fe085	-0.070252456
126	0xbd0e5b56	-0.034755073
127	0xbd71abef	-0.05900186
128	0x3d55ad04	0.052166954
129	0x3c8583b0	0.016298145
130	0x39e2aea7	0.00043236205
131	0xbc4d4479	-0.012528532
132	0xbd152262	-0.036409743
133	0x3cc95606	0.024577152
134	0x3d21b802	0.039482124
135	0xbc09e823	-0.008417162
136	0xbd08777e	-0.03331708
137	0x3d372901	0.04471684
138	0x3d971d6f	0.07378661
139	0x3cf7af6e	0.030235019
140	0xbc5d7e58	-0.013518892
141	0x3d0a540a	0.033771552
142	0xb9babc40	-0.00035616942
143	0xbd140b38	-0.03614351
144	0x3ceb51c2	0.028725509
145	0x3bbacbaa	0.005700548
146	0xbd728605	-0.059209842
147	0x3cccf659	0.025019811
148	0xbd9b8c09	-0.07595069
149	0xbc10d78e	-0.008840455
150	0x3dcf7678	0.10130018
151	0x3d3e40cc	0.046448514
152	0x3d3ec194	0.04657133
153	0xbc9b7998	-0.018978879
154	0x3b84b019	0.004049313
155	0x3d37c425	0.044864792
156	0xbcdaef29	-0.026725369
157	0xbcc57133	-0.02410183
158	0xbc27716c	-0.010219913
159	0xbc324247	-0.01088006
160	0x3c81464f	0.015780596
161	0x3d33d4f6	0.043904267
162	0xbd0d635d	-0.03451859
163	0xbd1314ca	-0.035908498
164	0x3d5bbf8a	0.053649463
165	0xbd217955	-0.039422352
166	0xbd83d706	-0.06437497
167	0xbdb56279	-0.08856673
168	0xbd2e0450	-0.04248458
169	0x3bf60c69	0.0075088036
170	0xbd934487	-0.07190805
171	0x3d33b4a2	0.043873437
172	0xbbb72fb4	-0.0055904035
173	0xbd859583	-0.06522658
174	0x3cc11ed8	0.023574278
175	0xbd3b0f6c	-0.045669004
176	0x3d885bcd	0.066581346
177	0x3d907147	0.07052856
178	0xbd6eb654	-0.05827935
179	0xbb94826a	-0.004532148
180	0xbd8fb690	-0.07017243
181	0x3cbb98fe	0.0229001
182	0x3c743e6c	0.014907461
183	0xbd596992	-0.053079195
184	0xbcc0d028	-0.023536757
185	0xbd2dbafb	-0.042414647
186	0xbcb2b411	-0.021814378
187	0xbc0a7837	-0.008451513
188	0xbba87ce0	-0.0051418394
189	0x3d238c1b	0.039928537
190	0xbc42ed44	-0.011897389
191	0x3cdeba4c	0.027188443
192	0x38c4bb4d	9.380896e-05
193	0x3d81123d	0.06302307
194	0x3ceb4146	0.028717648
195	0x3d09bf4c	0.0336297
196	0x3dc11f22	0.09429766
197	0x3d254026	0.04034438
198	0xbd6aa0b5	-0.05728217
199	0x3d9154c4	0.07096246
200	0x3caeeb52	0.021352444
201	0xbd2cdb3b	-0.042201262
202	0x3c48024c	0.012207579
203	0x3cf6974b	0.030101439
204	0xbd911d13	-0.070856236
205	0xbcf0fc79	-0.029417263
206	0x3a33acaf	0.000685404
207	0x3d948bc4	0.07253221
208	0xbdb0e043	-0.086365245
209	0x3caadea5	0.020858118
210	0x3d6e2798	0.05814323
211	0xbd4f2c99	-0.05057964
212	0xbb0b5e9f	-0.0021266115
213	0xbcbea1ed	-0.023270572
214	0xbcb89492	-0.022531781
215	0x3d82f600	0.06394577
216	0x3cf7a2c6	0.030228984
217	0xbd67b46a	-0.05656854
218	0xbc9c86e6	-0.019107293
219	0x3d766620	0.060155988
220	0x3cc0c864	0.023533054
221	0xbdc4546a	-0.09586413
222	0x3d10ec3b	0.035381537
223	0xbccfe571	-0.02537796
224	0xbce3cf15	-0.027808705
225	0xbd5289f4	-0.051401094
226	0xbd3477b0	-0.044059455
227	0xbd659ce8	-0.05605784
228	0x3c61a497	0.013772151
229	0xbc95fc4b	-0.01830878
230	0x3d0d13bd	0.034442652
231	0xbd1831bc	-0.037156805
232	0xbd0b2ff9	-0.033981297
233	0x3dac2eed	0.08407388
234	0x3d8f7e34	0.07006493
235	0x3da1f5ae	0.07908188
236	0x3c6a19da	0.01428839
237	0xbd1e6401	-0.03866959
238	0xbcaa94af	-0.020822851
239	0x3ab4b8a3	0.0013787936
240	0xbd34835e	-0.044070594
241	0x3d1847ac	0.037177727
242	0x3c709050	0.014682844
243	0xbc513f24	-0.012771402
244	0xbc264d3b	-0.010150249
245	0x3c4e0810	0.012575164
246	0xbca6dfef	-0.020370452
247	0xbdaa99c5	-0.083301105
248	0xbd6bcad5	-0.057566483
249	0x3d27c667	0.040960696
250	0xbca39944	-0.019970544
251	0xbd9d0ecf	-0.0766884
252	0x3c9eba3c	0.019375913
253	0xbd6f1ce3	-0.058377158
254	0xbc8b889f	-0.01703292
255	0xbafddb0e	-0.0019367652

shared.3.bias f4 [256]
0	0xbd453ab9	-0.048151705
1	0xbd8da010	-0.06915295
2	0xbc3a2cea	-0.011363247
3	0x3d6574cc	0.05601959
4	0x3c879f8e	0.016555574
5	0xbd0a098a	-0.033700503
6	0xbd7ad05f	-0.061233874
7	0xbcea70c4	-0.028618224
8	0x3d3abd3c	0.045590624
9	0x3d66236c	0.056186125
10	0xbcf52d90	-0.029928952
11	0x3d604cd6	0.054760776
12	0x3cbb9bc2	0.02290142
13	0xbd4d1670	-0.050070226
14	0x3bc05175	0.0058690854
15	0xbc8f40d4	-0.017486967
16	0x3adbca21	0.0016768613
17	0xbd72c030	-0.059265316
18	0xbd19212c	-0.03738515
19	0x3b7dbf7e	0.0038718875
20	0xbc990e8f	-0.0186837
21	0x3c7087e9	0.014680841
22	0xbd1a672d	-0.037696052
23	0x3d86acaf	0.065759055
24	0x3ceb60ee	0.028732743
25	0x3d6c4f0b	0.05769257
26	0xbad5f8d3	-0.0016324766
27	0x3d1fd406	0.03902056
28	0x3ce3ff18	0.0278316
29	0xbce21678	-0.027598605
30	0xbd095ea1	-0.03353751
31	0x3d3ae54c	0.04562883
32	0x3ca384ff	0.019960878
33	0x3d494760	0.049140334
34	0x3d16e1a7	0.036836293
35	0xbd0689c1	-0.032846216
36	0x3d33f00b	0.043930095
37	0x3d0ef4cc	0.034901425
38	0xbd4b8a2b	-0.049692314
39	0xbd590c94	-0.05299051
40	0x3cec9347	0.028878821
41	0x3d0e6868	0.03476754
42	0xbbd184c1	-0.0063939993
43	0x3ce9648d	0.02849033
44	0xbd3bed3b	-0.045880537
45	0xbce55891	-0.027996333
46	0xbcb06767	-0.021533681
47	0xbd047ae6	-0.032343768
48	0x3d3e3b50	0.046443284
49	0x3d41c5f4	0.047307923
50	0x3c99a4f4	0.018755414
51	0x3d5a3b06	0.053278945
52	0x3d0685b5	0.032842357
53	0xbc6c071c	-0.014405992
54	0xbcaceacb	-0.021108052
55	0x3ca46e10	0.020072013
56	0xbc8e7957	-0.017391844
57	0x3d84d263	0.064854406
58	0xbd6da987	-0.058023002
59	0x3c3ba594	0.011453051
60	0xbd45fcb6	-0.048336707
61	0xbd5ca7f0	-0.053871095
62	0xbd81a953	-0.06331124
63	0xbd365158	-0.04451117
64	0x3d163531	0.03667182
65	0xbb961530	-0.0045801625
66	0xbd729153	-0.059220623
67	0x3ca46bd1	0.020070942
68	0x3c048cb8	0.008090191
69	0x3d5a4edb	0.05329786
70	0xbd64e389	-0.055881057
71	0x3cb2878e	0.021793153
72	0xbd1304f5	-0.0358934
73	0xbcab2aca	-0.020894427
74	0xbce07eb6	-0.02740417
75	0xbc4e5ed4	-0.012595851
76	0xbd46a94f	-0.04850131
77	0xbd312af3	-0.04325385
78	0xbcc81459	-0.024423765
79	0x3c7757a9	0.015096583
80	0xbcd2b07e	-0.025718924
81	0x3cdd6fe4	0.027030893
82	0x3bbcfaaf	0.0057671885
83	0xbd2e1461	-0.042499904
84	0xbd205b85	-0.03914978
85	0x3d63b139	0.055588935
86	0x3d5d95a8	0.0540978
87	0x37fbc615	3.001377e-05
88	0xbd0ac79d	-0.033881772
89	0x3bc1a454	0.005909482
90	0xbcd7edef	-0.026358573
91	0x3d0db121	0.03459275
92	0x3d27f1af	0.04100197
93	0x3b1ad03e	0.0023622657
94	0x3cadc0cb	0.021210095
95	0xbd3a4706	-0.04547789
96	0x3c8ac517	0.016939683
97	0x3d2be7a5	0.04196896
98	0xbc56dc9c	-0.013114121
99	0xbc9c76bd	-0.019099588
100	0xbc5af7de	-0.01336476
101	0xbcb006a3	-0.02148754
102	0x3cf767eb	0.03020092
103	0x3c35573f	0.011068164
104	0xbd38c182	-0.04510642
105	0x3d451f7d	0.048125733
106	0xbcccca21	-0.024998726
107	0xbb0e3be0	-0.0021703169
108	0xbd5b8226	-0.053590916
109	0xbc98c17d	-0.01864695
110	0xbd360e0e	-0.044446997
111	0x3d1b4c7f	0.03791475
112	0x3d238dd5	0.039930183
113	0xbca816c4	-0.020518668
114	0xbd9dfdd8	-0.077144325
115	0x3d57e5ad	0.05270927
116	0xbcb4a170	-0.022049636
117	0x3b0ded11	0.0021656195
118	0xbcc9b29c	-0.0246213
119	0x3d213fbb	0.03936742
120	0x3d6eb072	0.05827374
121	0x3cd8c5cf	0.02646151
122	0xbd447055	-0.04795869
123	0xbd50ba2b	-0.050958794
124	0xbd7cf453	-0.061756443
125	0xbc4b8bfb	-0.012423511
126	0xbd2a5eb0	-0.041594207
127	0xbd52b9c4	-0.05144669
128	0x3cf84fd7	0.030311508
129	0x3ca8f529	0.020624714
130	0xbc08e802	-0.008356096
131	0x3d6fcfcd	0.058547784
132	0xbd2747e8	-0.04084006
133	0x3bd5fc10	0.0065302923
134	0xbc4dc905	-0.012560134
135	0x3c2a23e1	0.010384531
136	0xbcaab5d3	-0.020838654
137	0x3cf1330c	0.029443286
138	0x3a26f123	0.00063683296
139	0xbd66a8b0	-0.056313217
140	0xbd53589b	-0.051598173
141	0x3d3278c1	0.04357219
142	0xbc451ff5	-0.012031545
143	0x3cc57318	0.024102733
144	0x3d29788f	0.04137474
145	0x3d458fba	0.04823277
146	0xbd4a10e5	-0.049332518
147	0x3d1520c6	0.03640821
148	0xbd38d00e	-0.04512029
149	0xbbd5a409	-0.0065197987
150	0xbb648284	-0.0034867832
151	0xbc8086b8	-0.015689239
152	0xbc1da21f	-0.009621172
153	0x3d10f1a9	0.035386715
154	0xbd15e816	-0.036598288
155	0xbd2ff456	-0.042957626
156	0xbc44acec	-0.012004118
157	0x3c1244c8	0.008927532
158	0x3d5497df	0.051902648
159	0xbc83eb50	-0.016103417
160	0x3d63611f	0.055512544
161	0x3ce49ac9	0.027905839
162	0xbcd27067	-0.025688363
163	0x3c8ae029	0.016952591
164	0xbd7381f9	-0.059450123
165	0x3cec4cd0	0.02884522
166	0xbd2b0ae8	-0.041758448
167	0x3c7c5e1e	0.015403299
168	0xbcfdd59b	-0.030985644
169	0xbd721836	-0.05910512
170	0xbd08163e	-0.033224337
171	0x3d0ee5e4	0.03488721
172	0xbd227191	-0.039659087
173	0x3ca81e6b	0.020522317
174	0x3cb2794e	0.021786358
175	0xbca5074d	-0.020145083
176	0xbd449391	-0.047992293
177	0x3d5e8400	0.054325104
178	0xbd670635	-0.056402404
179	0x3d147dc0	0.036252737
180	0x3d00e8c1	0.03147197
181	0xbd3553dc	-0.044269428
182	0xbd6e27b0	-0.058143318
183	0xba8f277b	-0.00109218
184	0x3cb92a17	0.022603078
185	0x3c789ee0	0.0151745975
186	0xbd6374f1	-0.055531446
187	0xbaab13a9	-0.0013052124
188	0x3d5d65d7	0.0540522
189	0xbd83bd85	-0.06432632
190	0x3d6f973d	0.05849384
191	0x3ca5114a	0.020149846
192	0x3d22c2ed	0.039736677
193	0x3c31f1a0	0.010860831
194	0x3d4777f4	0.04869838
195	0x3d745872	0.05965466
196	0x3d7e5a11	0.062097613
197	0x3d5ba8e2	0.053627856
198	0xbc68b2e2	-0.014202805
199	0xbccc1aa8	-0.024915054
200	0x3d1772de	0.03697478
201	0xbd6e211a	-0.058137037
202	0x3b6b5781	0.003591031
203	0x3cba8568	0.022768691
204	0x3ca59a63	0.020215219
205	0xb9fd2d97	-0.00048289887
206	0x3c8acd45	0.016943583
207	0x3d1d053e	0.038335077
208	0x3be50807	0.0069894823
209	0x3d714e19	0.05891237
210	0xbced213a	-0.028946508
211	0xbd06940c	-0.032856032
212	0xbd309310	-0.043109
213	0x3b2e4870	0.002659347
214	0xbcc49056	-0.023994606
215	0x3b2d3c56	0.0026433668
216	0xbd0ba655	-0.034094173
217	0xbcf608a8	-0.030033424
218	0xbca30f4c	-0.019904755
219	0xbd4d68f9	-0.050148938
220	0x3d3fcbe5	0.04682531
221	0xbcd05390	-0.02543047
222	0x3c0e2858	0.008676611
223	0x3d244a81	0.040110115
224	0x3ca4d89a	0.020122815
225	0xbd3120eb	-0.043244284
226	0xba64f7fb	-0.0008734462
227	0x3bb93cf9	0.0056530205
228	0x3d58cdd9	0.052930687
229	0xbd473d4d	-0.048642445
230	0xbd70626e	-0.05868762
231	0xbcdf83c1	-0.027284505
232	0xbd15b0d5	-0.036545593
233	0xbcdfbf01	-0.027312757
234	0x3d2be4b7	0.041966166
235	0xbd3d0e07	-0.046155956
236	0x3c2fcc99	0.010729932
237	0xbd0acc72	-0.03388638
238	0xbcfa1f74	-0.030532576
239	0xbcb87e77	-0.02252124
240	0x3d12a31b	0.03580008
241	0x3d6a46ae	0.05719631
242	0x3d79044c	0.060795113
243	0xbd2ca79e	-0.04215204
244	0xbd744aaf	-0.059641536
245	0x3c0ded89	0.00866259
246	0x3d101722	0.03517831
247	0xbcb88068	-0.022522166
248	0xbd5328ab	-0.051552456
249	0x3c71f743	0.014768424
250	0x3d47a21d	0.048738588
251	0x3d225bbd	0.03963827
252	0x3d3e2b5f	0.04642808
253	0xbd57ab64	-0.052653685
254	0xbd2e4634	-0.04254742
255	0xbc8a924c	-0.016915463

shared.4.weight f4 [256]
0	0x3f8e56ae	1.1120203
1	0x3f893ba8	1.0721331
2	0x3faae398	1.3350706
3	0x3f92c73f	1.1467055
4	0x3f8fa1e0	1.1221275
5	0x3f91f8f0	1.1404095
6	0x3f9f4966	1.2444274
7	0x3f904f78	1.1274252
8	0x3f90a95e	1.1301687
9	0x3f92a2ae	1.1455896
10	0x3f9e24cc	1.235498
11	0x3fa340da	1.2754166
12	0x3f9e8dc1	1.238701
13	0x3f8d5ddc	1.1044269
14	0x3f8eaf05	1.1147162
15	0x3f8ccde5	1.1000334
16	0x3f988ebb	1.1918558
17	0x3f8b8f3d	1.0903088
18	0x3f9adbae	1.2098291
19	0x3f8b7b5e	1.0897024
20	0x3fa1f579	1.2653037
21	0x3f97d3ca	1.1861508
22	0x3f8f3246	1.1187217
23	0x3f991ee3	1.1962551
24	0x3f8d5516	1.1041591
25	0x3f96caa3	1.178059
26	0x3f90373f	1.126686
27	0x3f9f848f	1.2462329
28	0x3f98cf8c	1.1938338
29	0x3f9c0fb7	1.2192296
30	0x3f90416d	1.1269966
31	0x3f9eb0b0	1.2397671
32	0x3f96d8df	1.1784934
33	0x3f94a1b1	1.1611844
34	0x3fa6bcf0	1.3026409
35	0x3f929031	1.1450254
36	0x3f97943d	1.1842114
37	0x3f966319	1.1748992
38	0x3f9403d0	1.1563663
39	0x3f92db9b	1.1473268
40	0x3f9b7379	1.2144614
41	0x3f8cf2f4	1.1011643
42	0x3f93d062	1.1547968
43	0x3f9941c2	1.1973193
44	0x3f8f015a	1.1172287
45	0x3f9dbaeb	1.2322668
46	0x3f929365	1.1451231
47	0x3f98dc94	1.1942315
48	0x3f95a2a6	1.1690261
49	0x3f94c958	1.1623945
50	0x3fa0df18	1.2568083
51	0x3f99f032	1.2026427
52	0x3f92ad8c	1.1459212
53	0x3f8e43e9	1.1114475
54	0x3f92b0f9	1.1460258
55	0x3fa4957b	1.2858118
56	0x3f893485	1.0719153
57	0x3f8e2541	1.1105119
58	0x3f95907b	1.1684717
59	0x3f8ae831	1.0852109
60	0x3f9bf11d	1.2182957
61	0x3f9f9c88	1.2469645
62	0x3f916288	1.1358194
63	0x3f96fb63	1.1795467
64	0x3f957d42	1.1678851
65	0x3f9b0270	1.2110119
66	0x3f9dfb5a	1.2342331
67	0x3f9807e1	1.1877404
68	0x3f8a45a0	1.0802498
69	0x3f9190a9	1.1372272
70	0x3f9db8b2	1.232199
71	0x3f99ba78	1.2010031
72	0x3fa14826	1.2600143
73	0x3fa01e32	1.2509215
74	0x3f982f7d	1.1889492
75	0x3f9d7e96	1.2304256
76	0x3f8e0ee0	1.109829
77	0x3f9bfb30	1.2186031
78	0x3f946414	1.1593041
79	0x3f971ae1	1.1805078
80	0x3f9182ba	1.136802
81	0x3f957455	1.1676127
82	0x3f93deef	1.1552409
83	0x3f975718	1.1823454
84	0x3f988a65	1.1917235
85	0x3f91adcf	1.1381167
86	0x3f95f8ef	1.1716594
87	0x3f920104	1.140656
88	0x3f89e9b2	1.0774443
89	0x3fa88675	1.3166033
90	0x3f963e4b	1.173776
91	0x3f978180	1.1836395
92	0x3f8d8923	1.1057476
93	0x3f9289aa	1.1448262
94	0x3f9218c6	1.141381
95	0x3f92aa80	1.1458282
96	0x3fa6cc3b	1.3031076
97	0x3f96fa76	1.1795185
98	0x3f8e941a	1.1138947
99	0x3f94dda3	1.1630138
100	0x3f8fd4ed	1.1236855
101	0x3f94ba0a	1.1619275
102	0x3f8da572	1.1066115
103	0x3f8a595a	1.0808518
104	0x3f99b547	1.2008446
105	0x3f894434	1.0723939
106	0x3f8e97c6	1.1140068
107	0x3f8b886b	1.0901006
108	0x3f9c0e87	1.2191933
109	0x3fa65ce0	1.2997093
110	0x3f9e1994	1.2351556
111	0x3f8dc8b9	1.1076881
112	0x3f8e55e3	1.111996
113	0x3f96416d	1.1738716
114	0x3fa62f2c	1.2983146
115	0x3f91905d	1.1372181
116	0x3f9133c7	1.1343926
117	0x3f9aab98	1.2083616
118	0x3f9af2bf	1.210533
119	0x3f91396d	1.134565
120	0x3f997062	1.1987422
121	0x3f89a4fa	1.0753472
122	0x3f99de8a	1.2021039
123	0x3f9b7fab	1.2148336
124	0x3f98b978	1.19316
125	0x3f98009f	1.187519
126	0x3fa076ee	1.2536294
127	0x3fa0c560	1.2560234
128	0x3f987844	1.1911702
129	0x3f94f57b	1.1637415
130	0x3fa1b6c4	1.2633901
131	0x3f940c69	1.1566287
132	0x3fbafa48	1.460763
133	0x3f9700ba	1.1797097
134	0x3f947aff	1.1600035
135	0x3fa2d82c	1.272222
136	0x3f99f5cd	1.2028137
137	0x3f8e11af	1.1099147
138	0x3f9992b5	1.1997896
139	0x3f91b888	1.138444
140	0x3f993405	1.1969
141	0x3f918e17	1.1371487
142	0x3f8bb5f5	1.0914904
143	0x3f92463b	1.1427683
144	0x3f8f7f6f	1.1210765
145	0x3faabc4a	1.3338711
146	0x3fa9825c	1.3242908
147	0x3fa0fdfc	1.257751
148	0x3f95b54d	1.1695954
149	0x3f94a889	1.1613933
150	0x3f969f1f	1.176731
151	0x3f9defdc	1.2338824
152	0x3f94bae5	1.1619536
153	0x3f8f4fbd	1.1196209
154	0x3f9e017c	1.2344203
155	0x3f9c03c0	1.2188644
156	0x3f926979	1.1438438
157	0x3f9211c4	1.1411672
158	0x3f998b16	1.1995571
159	0x3f92859f	1.1447028
160	0x3f929a9a	1.1453431
161	0x3f966e7e	1.175247
162	0x3fa3d0d9	1.279811
163	0x3f8c7bb2	1.0975249
164	0x3f9512f6	1.1646411
165	0x3f8e4400	1.1114502
166	0x3f91b0e4	1.1382108
167	0x3f94052b	1.1564077
168	0x3f978294	1.1836724
169	0x3f94326f	1.1577891
170	0x3fa08409	1.2540294
171	0x3f94e5f5	1.1632677
172	0x3f9cec82	1.2259676
173	0x3f905648	1.1276331
174	0x3f9adcd7	1.2098645
175	0x3fadb906	1.357209
176	0x3f8f1efb	1.118133
177	0x3f8cfa8b	1.101396
178	0x3fa261b7	1.268607
179	0x3f96ac04	1.1771245
180	0x3f8bd186	1.0923316
181	0x3f9877a9	1.1911517
182	0x3f91c295	1.1387507
183	0x3f93d64b	1.1549772
184	0x3f8e4440	1.1114578
185	0x3fa798b0	1.3093472
186	0x3f9756c9	1.182336
187	0x3f99ab4c	1.2005401
188	0x3f95d33b	1.1705087
189	0x3f94a89f	1.1613959
190	0x3f9483ce	1.1602724
191	0x3f8f6c12	1.1204855
192	0x3f8dcbf7	1.107787
193	0x3f8b2e20	1.0873451
194	0x3f8d457c	1.103683
195	0x3f987421	1.191044
196	0x3f9c80cc	1.2226806
197	0x3f8e5065	1.1118284
198	0x3f9d0094	1.2265801
199	0x3f9b3cd9	1.2127944
200	0x3fa62663	1.2980465
201	0x3fa8fe62	1.3202631
202	0x3f8e79e3	1.1130947
203	0x3f9ddb78	1.2332602
204	0x3f9b2f1f	1.2123755
205	0x3faf4efd	1.369598
206	0x3f873a09	1.0564586
207	0x3fa3778c	1.2770858
208	0x3f898974	1.0745072
209	0x3f90ebe8	1.1321993
210	0x3f936b81	1.1517183
211	0x3fa419e7	1.2820405
212	0x3f930cc3	1.148827
213	0x3fa900bb	1.3203348
214	0x3f94c982	1.1623995
215	0x3f95c821	1.17017
216	0x3fa2c111	1.2715169
217	0x3f8decb6	1.1087863
218	0x3f927666	1.1442382
219	0x3f9a5817	1.2058133
220	0x3f8b6a8d	1.0891892
221	0x3f9743bb	1.1817545
222	0x3fa1d098	1.2641783
223	0x3f9128de	1.1340597
224	0x3f932970	1.1497021
225	0x3f97e55b	1.1866869
226	0x3f900fad	1.1254784
227	0x3f8e9a4f	1.1140841
228	0x3f8fe0e1	1.1240503
229	0x3fa22cbf	1.2669905
230	0x3f91bed1	1.1386358
231	0x3f8e6789	1.1125346
232	0x3f8be986	1.0930641
233	0x3fa436e3	1.282925
234	0x3f91e2b0	1.1397305
235	0x3f8f4eb6	1.1195896
236	0x3f9d078d	1.2267929
237	0x3fa1b2d7	1.2632703
238	0x3f9eb52f	1.2399043
239	0x3f9694f5	1.1764208
240	0x3f8837c2	1.0642016
241	0x3fa14f2d	1.2602288
242	0x3f91a233	1.1377624
243	0x3f9485c1	1.1603318
244	0x3f89e8ea	1.0774205
245	0x3f95f376	1.1714923
246	0x3f9e24f1	1.2355024
247	0x3f9ba663	1.2160152
248	0x3fa42012	1.2822287
249	0x3f9a2710	1.2043171
250	0x3fa21b86	1.266465
251	0x3f921fab	1.1415914
252	0x3f96472f	1.1740474
253	0x3fa11262	1.2583735
254	0x3f8f83cb	1.1212095
255	0x3f9a9de0	1.207943
