policy_ckpt/Humanoid-v5/06-06-25_19:08:43/epoch3740_reward5781.83.pt (torch, 912518 bytes, 14 tensors)

policy_logstd f4 [17]
0	0xbf183374	-0.5945351
1	0xbf2e7858	-0.6815238
2	0xbf375377	-0.7161173
3	0xbf13136b	-0.57451504
4	0xbf44c647	-0.7686505
5	0xbf93fdff	-1.1561888
6	0xbfb5a568	-1.4191103
7	0xbf207b50	-0.6268816
8	0xbf2f6ff5	-0.6853021
9	0xbf92dcc2	-1.147362
10	0xc09e7966	-4.952319
11	0xbf019292	-0.50614274
12	0xbefa3841	-0.48871043
13	0xbee1393f	-0.43988988
14	0xbed96f93	-0.42467937
15	0xbef6edf6	-0.48228425
16	0xbed6057b	-0.41801056

shared.0.weight f4 [256, 348]
0	0x3e1b1fa7	0.15148793
1	0x3b18047c	0.0023196032
2	0xbea01c69	-0.31271675
3	0x3da9eb0d	0.082967855
4	0xbec420bb	-0.3830622
5	0xbec7380d	-0.3890995
6	0xbc92d33f	-0.017922996
7	0x3e91a9da	0.284499
8	0x3e8f3226	0.27967948
9	0xbf434426	-0.7627586
10	0x3f4180a7	0.7558693
11	0x3f052fd0	0.5202608
12	0x3e0a3145	0.13495357
13	0x3e8bb8a8	0.2728932
14	0x3e18f832	0.14938429
15	0xbe5d9656	-0.2163938
16	0x3d977231	0.07394827
17	0xbb5624de	-0.0032675783
18	0xbcc624d9	-0.024187492
19	0x3dd571b8	0.10422081
20	0x3c84b959	0.016201662
21	0xbd40d281	-0.047075752
22	0xbe119f80	-0.14221
23	0x3e84734c	0.25869215
24	0x3d87743d	0.066139676
25	0xbd8d3c0b	-0.06896218
26	0xbd23d992	-0.040002413
27	0x3d2663bd	0.04062246
28	0xbcd72a51	-0.026265295
29	0xbd99061b	-0.07471868
30	0x38f05409	0.000114597446
31	0x3b9a4500	0.0047079325
32	0xbca3bd8c	-0.019987844
33	0x3c51d10d	0.012806189
34	0x3d6a02a4	0.057131425
35	0x3c61409f	0.013748317
36	0x3d9b59b3	0.07585468
37	0xbd09f3d6	-0.033679806
38	0xbd4d150c	-0.0500689
39	0x3d87c1fe	0.06628798
40	0x3ac8ed51	0.0015329515
41	0x3d30c7a1	0.04315913
42	0xbaa4f854	-0.0012586215
43	0x3b07c131	0.0020714516
44	0x3caaa427	0.020830227
45	0x3d0d794e	0.034539513
46	0x3da212cc	0.079137415
47	0xbd9a48ba	-0.07533403
48	0xbd99e2f4	-0.07513991
49	0x3ce3131c	0.027719073
50	0xbf017736	-0.50572526
51	0xbc92c33c	-0.01791536
52	0x3ecf1133	0.4044281
53	0x3c9606ee	0.018313851
54	0x3aed4113	0.0018101059
55	0xbc5507d4	-0.013002355
56	0x3c7b00d1	0.015320019
57	0xbeae04f6	-0.3398816
58	0xbea31369	-0.31850746
59	0x3d77ea57	0.06052622
60	0xbe485034	-0.19561845
61	0xbd54433e	-0.05182194
62	0x3e1c2d32	0.15251616
63	0xbd0d9ed0	-0.034575284
64	0x3b0c1870	0.002137687
65	0xbe6dad59	-0.23210658
66	0xbe424b2e	-0.18973991
67	0xbe8fc93f	-0.28083226
68	0xbe0e5160	-0.1389823
69	0xbf063c48	-0.5243573
70	0xbdabdeec	-0.08392128
71	0xbdac36a3	-0.084088586
72	0xbd1a2cfe	-0.037640564
73	0xbdfd5f8b	-0.12371739
74	0x3d218d17	0.039441194
75	0xbb094c04	-0.002094985
76	0xbd1ab061	-0.037765864
77	0x3d58a992	0.05289609
78	0xbe33c5fc	-0.17555994
79	0xbf18e11b	-0.59718484
80	0xbd7414fc	-0.059590325
81	0xbedb6528	-0.42850614
82	0xbdfd00a1	-0.123536356
83	0x3d77b350	0.06047374
84	0x3cbd7d1b	0.023130944
85	0x3dcc37bb	0.09971567
86	0x3dc6bb30	0.09703672
87	0x3ccbe36c	0.024888717
88	0x3e0cb5ba	0.13741198
89	0xbe282f46	-0.16424283
90	0xbbcea8de	-0.0063067516
91	0xbe1de65a	-0.15419903
92	0xbc3894fd	-0.01126599
93	0x3cc67c49	0.024229186
94	0x3d2e3ac8	0.042536527
95	0x3e4a0472	0.19728258
96	0x3e4f0acd	0.20218964
97	0xbe51ef38	-0.20501411
98	0x3eab8771	0.3350177
99	0x3e44fa53	0.19236116
100	0x3d71faf0	0.059077203
101	0x3e85b8a1	0.26117423
102	0xbcc2a4e5	-0.023760268
103	0xbde916f9	-0.11381335
104	0x3d1f766f	0.038931306
105	0xbd4c8907	-0.049935367
106	0x3dd0bd5c	0.101923674
107	0xbe776674	-0.24160177
108	0x3dfc9a43	0.123341106
109	0x3f8b3ff9	1.0878898
110	0xbe0cd2e5	-0.13752325
111	0x3f3af25e	0.7302607
112	0xbe1f4d06	-0.15556726
113	0xbe0c4c50	-0.13700986
114	0x3d294137	0.04132196
115	0xbd476725	-0.04868235
116	0x3d188cfb	0.037243824
117	0xbee09569	-0.4386399
118	0x3f282db8	0.6569476
119	0x3e16ce92	0.14727238
120	0xbea0419d	-0.3130006
121	0x3e73def1	0.23815514
122	0xbebd49a7	-0.36970255
123	0xbc89cd00	-0.016821384
124	0xbb4d7530	-0.0031350367
125	0xbd3d4814	-0.046211317
126	0xbd35f64c	-0.04442434
127	0xbf02d321	-0.5110341
128	0x3f28e7a9	0.65978485
129	0xbb1e7320	-0.0024177507
130	0xbe874880	-0.264225
131	0xbd2cb028	-0.042160183
132	0xbe1133d6	-0.1417993
133	0xbc07130d	-0.008244288
134	0x3d0955d9	0.033529136
135	0x3dab1df6	0.08355324
136	0x3dd296e7	0.102826886
137	0xbd9bc46c	-0.07605824
138	0x3f3d7ffe	0.74023426
139	0xbd207d45	-0.039181966
140	0x3c7449d6	0.014910182
141	0xbd8ce999	-0.06880493
142	0x3d00f927	0.03148761
143	0x3cb54616	0.022128146
144	0x3d3df2aa	0.046374
145	0xbc961878	-0.018322214
146	0x3d790530	0.060795963
147	0xbc5eb77b	-0.01359355
148	0x3e14ee1a	0.14543954
149	0xbd0698d9	-0.03286061
150	0xbe2154d6	-0.15755019
151	0xbbad2f81	-0.005285204
152	0x3e3f5c3d	0.1868753
153	0x3dea382d	0.11436496
154	0x3d58aefd	0.052901257
155	0x3caeaa1f	0.021321354
156	0xbb06baef	-0.0020558198
157	0x3d8da003	0.069152854
158	0x3e722547	0.23647033
159	0xbca894e0	-0.020578802
160	0xbe4460bf	-0.1917753
161	0x3e3f349f	0.18672417
162	0x3dccd085	0.100007094
163	0x3b9a458f	0.004707999
164	0xbb8ac5c3	-0.004235001
165	0x3d0deb13	0.034648012
166	0xbd593dc8	-0.053037435
167	0x3d4fa3cf	0.05069333
168	0x3f0628f3	0.52406234
169	0x3b30eb3b	0.0026995677
170	0xbd39ff9b	-0.04540978
171	0x3df7d98e	0.12102042
172	0x3dc2862c	0.094982475
173	0xbdbf84a3	-0.0935147
174	0x3d376712	0.04477603
175	0xbd0d502f	-0.034500297
176	0xbbd7b12f	-0.006582401
177	0xbd2b9e0b	-0.04189877
178	0xbd9536ff	-0.0728588
179	0x3de62fb9	0.11239571
180	0xbe9137b5	-0.28362814
181	0xbe242875	-0.16031058
182	0xbc0b1a84	-0.008490209
183	0x3c4d9367	0.0125473505
184	0x3c4451df	0.01198241
185	0x3e168979	0.14700879
186	0xbe3e8d60	-0.18608618
187	0x3be6a3db	0.007038576
188	0x3ceef0fd	0.029167647
189	0xbdb53a6c	-0.08849034
190	0xbb981892	-0.004641601
191	0x3e611fd5	0.21984799
192	0xbe0d9c88	-0.13829243
193	0xbda9a7c1	-0.0828395
194	0x3d5a8b6d	0.053355623
195	0xbce11de7	-0.027480079
196	0xbd64562c	-0.055746242
197	0xbb8011be	-0.003908365
198	0xbd413589	-0.047170196
199	0xbcd8a5fe	-0.026446339
200	0x3d0a6fe2	0.033798106
201	0xba81bde8	-0.0009898515
202	0xbcdf7ffc	-0.027282707
203	0x3d8ec4a0	0.06971097
204	0x3d262a93	0.040567946
205	0x3cfd3a70	0.030911654
206	0xbacd7c92	-0.0015677384
207	0x3dc9f506	0.09861188
208	0xbd86d349	-0.06583268
209	0x3dcb20e1	0.099183805
210	0x3d07ccfc	0.033154473
211	0xbe0befe7	-0.13665734
212	0x3c7d99ec	0.015478592
213	0x3d261eec	0.040556833
214	0x3a7a84f7	0.00095565565
215	0xbe43eacf	-0.19132541
216	0xbe553254	-0.2081998
217	0xbd84de34	-0.064876944
218	0x3b1d517b	0.0024004865
219	0x3d02bd66	0.031918906
220	0x3cf5e59d	0.030016715
221	0xbd93aeb9	-0.0721106
222	0xbd8ac4f2	-0.067758456
223	0x3c0b44f3	0.0085003255
224	0x3ccc4516	0.024935286
225	0xbc74fdd0	-0.014953092
226	0x3b971c23	0.0046115085
227	0xbdd3fa70	-0.103505015
228	0xbd1cbda9	-0.03826681
229	0xbd27fba5	-0.04101147
230	0xbc8c3e58	-0.017119572
231	0x3c817377	0.015802128
232	0xbd4e5c16	-0.05038079
233	0x3dd684e0	0.10474563
234	0xbe4545f6	-0.19264969
235	0xbd029c20	-0.031887174
236	0x3c31ab00	0.010843992
237	0xbc4dca5d	-0.012560454
238	0x3ab3f199	0.0013728618
239	0x3dee0a32	0.11623038
240	0xbd2cd86a	-0.042198576
241	0xbc230d37	-0.009951881
242	0xbcb50833	-0.022098636
243	0xbd4b25f1	-0.04959673
244	0x3baa5e01	0.0051991944
245	0xbd0d66c4	-0.034521833
246	0xbd04aa17	-0.032388773
247	0x3cc10b5f	0.023564992
248	0x3c2103f9	0.009827607
249	0x3d9d7e45	0.076900996
250	0x3c9df00e	0.019279506
251	0x3dfa9358	0.12235135
252	0xbd1fe485	-0.039036293
253	0x3b3614b0	0.0027783327
254	0x3b3b80ed	0.0028610781
255	0xbbc644f6	-0.0060507013

shared.0.bias f4 [256]
0	0x3c998984	0.01874233
1	0x3b8588eb	0.00407516
2	0x3d42f14d	0.047593404
3	0xbd94967f	-0.07255267
4	0x3d7701cc	0.060304448
5	0x3b04a44f	0.0020239537
6	0xbbb56eed	-0.005536905
7	0xbcf2fbf4	-0.029661156
8	0x3c428256	0.011871895
9	0x3cd586a6	0.026065182
10	0xbb0924c8	-0.0020926464
11	0x3d6fef95	0.058578093
12	0x3cc3b4ed	0.023889983
13	0xbc07a609	-0.008279332
14	0xbc423839	-0.011854225
15	0x3d9333cc	0.07187614
16	0x3c240725	0.010011469
17	0xbb9032f5	-0.004400606
18	0x3b113e25	0.0022162285
19	0x3ce13d19	0.027494954
20	0xbbb6a93a	-0.0055743726
21	0xbd16ca70	-0.036814153
22	0xb91ae64b	-0.00014772375
23	0xbccd5252	-0.025063667
24	0x3cd3543c	0.025797002
25	0x3cc960a6	0.024582218
26	0xbcc82028	-0.024429396
27	0x3cd85de4	0.026411958
28	0x3c21ee5c	0.009883489
29	0xbc5110de	-0.012760369
30	0xbd326848	-0.04355648
31	0x3b7ea064	0.0038852924
32	0xbcf331d3	-0.029686844
33	0x3b457fee	0.0030136066
34	0x3d3bd0e3	0.045853507
35	0xbcfde1ff	-0.030991552
36	0x3d223a4f	0.03960639
37	0xbb33c179	-0.002742855
38	0xbd1da875	-0.03849073
39	0x3d1082ec	0.035281107
40	0xbd6897cb	-0.056785386
41	0x3c150d2f	0.0090973815
42	0x3ba8946d	0.005144647
43	0xbd451760	-0.048117995
44	0xbd3f1efa	-0.0466604
45	0x3cf0b848	0.029384747
46	0x3d4e3b3c	0.05034946
47	0xbce547d2	-0.027988348
48	0x3d3a71c7	0.045518663
49	0x3cca68cb	0.024708172
50	0x3cd8e7ad	0.02647766
51	0x3ce7ac6e	0.028280463
52	0x3be3ebf2	0.006955617
53	0x3cf7f9dd	0.030270511
54	0xbb10d3cc	-0.0022098897
55	0x3a9886c5	0.0011636844
56	0x3d1f29d2	0.038858242
57	0xbb08d07f	-0.0020876226
58	0xbcba57b8	-0.022746906
59	0x3d29b776	0.041434728
60	0x3c38e310	0.011284605
61	0x3c69668a	0.014245639
62	0x3d73b418	0.059497923
63	0xbd18326f	-0.037157472
64	0xb9cc9895	-0.00039023595
65	0xbccef253	-0.025262034
66	0xbc6b64ec	-0.014367323
67	0x3c54efce	0.012996627
68	0x3cad27a8	0.021137074
69	0x3c8104d0	0.015749365
70	0x3ca3862b	0.019961437
71	0xbce585b7	-0.028017862
72	0x3cc80448	0.024416104
73	0x3bdd3ad8	0.0067513995
74	0xbc847cbd	-0.016172761
75	0xbca23d72	-0.01980469
76	0xbb24be84	-0.002513797
77	0xbd415fd1	-0.04721052
78	0x3d7a803d	0.061157454
79	0x3d34404e	0.04400664
80	0x3d28c385	0.041202087
81	0x3d4d32f1	0.05009741
82	0x3c8ff56e	0.017573085
83	0xbcdd55aa	-0.027018387
84	0xbd8bb13c	-0.06820914
85	0x3d72f027	0.05931106
86	0xbd522224	-0.05130209
87	0x3d4545c8	0.04816225
88	0x3b873167	0.0041257623
89	0xbc8e910d	-0.01740315
90	0xbd4f6898	-0.050636858
91	0x3ba7ae1a	0.00511719
92	0x3d85b650	0.06528914
93	0xbd269c19	-0.04067621
94	0xbd480468	-0.048832327
95	0xbbe1fbb5	-0.006896461
96	0xbcaefaf4	-0.021359898
97	0x3d2831e9	0.041063223
98	0x3cbcc544	0.023043282
99	0x3ccc547d	0.02494263
100	0x3d9e80a1	0.07739378
101	0x3ca9553c	0.020670526
102	0x3d12ee24	0.03587164
103	0xbbc4592a	-0.0059920745
104	0x3d13a023	0.03604139
105	0xbcb6a3e7	-0.022294952
106	0xbd2a5b6c	-0.041591093
107	0xbbd69c40	-0.006549388
108	0xbcb87992	-0.022518907
109	0xbcb7dab8	-0.02244316
110	0x3c345bdf	0.011008232
111	0xba927da6	-0.0011176362
112	0x3c380c89	0.011233457
113	0xbc069008	-0.008213051
114	0x3c81f090	0.01586178
115	0xbd571236	-0.0525076
116	0xbc137bdb	-0.009001697
117	0xbda431f9	-0.08017344
118	0xbd4cf476	-0.050037824
119	0x3d5577f7	0.05211636
120	0xbc9dd8a2	-0.019268338
121	0x3d2b4ec0	0.04182315
122	0xbd32c5cb	-0.04364566
123	0xbd63ad7d	-0.055585373
124	0xbc4b79b9	-0.012419158
125	0xbcf18d61	-0.02948636
126	0xbb0c70d7	-0.0021429562
127	0xbc8dc0f9	-0.01730393
128	0xbb5d4ddb	-0.003376833
129	0xbd404487	-0.046940353
130	0xbd0eb877	-0.034843888
131	0x3c7f0a2d	0.015566391
132	0xbd641596	-0.05568465
133	0x3d0863e7	0.0332984
134	0xbc040ca7	-0.008059657
135	0xbd4fd1d3	-0.050737213
136	0xbd96a94b	-0.07356509
137	0x3c38d92c	0.011282247
138	0x3d93704d	0.07199154
139	0x3d762dac	0.06010215
140	0x3cd09435	0.025461296
141	0xbd8b8792	-0.06812967
142	0x3d6f0618	0.05835542
143	0x3cb3db5e	0.021955188
144	0xbd655fad	-0.055999447
145	0x3c694360	0.014237255
146	0x3d4af3b5	0.049548823
147	0xbd851fd2	-0.0650021
148	0xbca072b0	-0.019585937
149	0x3c0d419c	0.0086215995
150	0x3d53c764	0.051703826
151	0x3d5172f6	0.051135026
152	0x3d8cc50a	0.0687352
153	0x3ca6fc8e	0.0203841
154	0x3cd63996	0.026150506
155	0xbcaef4af	-0.021356909
156	0x3c835143	0.01602996
157	0x3d4dbff0	0.050231874
158	0x3baf7411	0.0053544124
159	0x3c977636	0.018488985
160	0x3c061542	0.008183779
161	0xbb97b987	-0.004630271
162	0x3c7f7d36	0.015593817
163	0xbd15c773	-0.036567163
164	0xbc414bac	-0.011797827
165	0x3d48d3d4	0.04903014
166	0xbc5640de	-0.013076989
167	0xbcab6476	-0.020921927
168	0xbcd82ad4	-0.02638761
169	0x3c1c9833	0.0095577715
170	0xbcdb8e6a	-0.026801307
171	0xbcc8eb86	-0.024526369
172	0xba9ed5f1	-0.0012118203
173	0xbd854c36	-0.06508677
174	0xbb783743	-0.0037874735
175	0x3aa5adfd	0.0012640354
176	0xbd8865cf	-0.066600434
177	0xbcb5424a	-0.022126336
178	0x3be5ca5f	0.00701265
179	0x3bf0ebd3	0.007352331
180	0xbd18556f	-0.03719085
181	0xbd292b69	-0.041301165
182	0x3cd16acf	0.025563626
183	0xbca25dc4	-0.019820102
184	0xbcc19356	-0.023629826
185	0xbd8123bc	-0.06305644
186	0xbd36f48c	-0.04466681
187	0xbc839de9	-0.016066508
188	0x3d17afd3	0.037032913
189	0xbc0d8d35	-0.008639623
190	0xbcb2ff1d	-0.021850163
191	0x3c6c3b0e	0.014418377
192	0xbcbdbbb9	-0.023160802
193	0x3b648fc9	0.0034875742
194	0x3d15574a	0.0364602
195	0xbc54e9c2	-0.012995185
196	0xbd0a50bb	-0.033768397
197	0xbcc79905	-0.024364958
198	0xbd040e17	-0.03224
199	0x3c2c6726	0.010522639
200	0x3cfb2bec	0.030660592
201	0xbd327436	-0.04356786
202	0x3d097d71	0.033566896
203	0xbbe552d5	-0.0069983997
204	0xbc88d52e	-0.016703214
205	0xb9db6b80	-0.0004185103
206	0xbd3f0f39	-0.046645377
207	0x3ce45995	0.027874747
208	0xbd3e417d	-0.046449173
209	0xbcc728d3	-0.024311459
210	0xbcc6d263	-0.024270242
211	0xbc1c2f93	-0.009532827
212	0x3cee0750	0.029056221
213	0x3d0f5fb2	0.03500337
214	0x3ba0ad6e	0.004903487
215	0x3bd28144	0.006424101
216	0xbbee758a	-0.0072771953
217	0xbb908994	-0.004410932
218	0x3d23f2e9	0.04002658
219	0xbd72859f	-0.059209462
220	0xbc98d915	-0.0186582
221	0x3d2be893	0.041969847
222	0xbcd5b55e	-0.02608746
223	0xbd4c7802	-0.049919136
224	0x3aa9ab5c	0.0012944746
225	0xbd190997	-0.03736266
226	0x3d3c07d6	0.04590591
227	0xbd902243	-0.07037785
228	0x3db726a5	0.08942918
229	0xbc06ecba	-0.008235151
230	0x3cf32b52	0.029683743
231	0x388d1916	6.7280766e-05
232	0x3d105f29	0.035247
233	0x3ca174a0	0.019708931
234	0x3b93e93a	0.0045138868
235	0xb9565763	-0.00020441184
236	0x3d77d896	0.060509287
237	0xbd4190c3	-0.047257196
238	0x3b3c0737	0.0028690824
239	0xbc875bcd	-0.016523266
240	0x3d152d3f	0.036420103
241	0xbd136075	-0.03598066
242	0xbd474beb	-0.048656385
243	0xbbf5dfa3	-0.007503466
244	0xbd5745d9	-0.052556846
245	0x3cc41908	0.023937717
246	0x3c8c431e	0.017121848
247	0xbd5f894f	-0.054574307
248	0x3c66e1a0	0.014091879
249	0x3cf39176	0.029732447
250	0x3b545dba	0.0032404498
251	0x3d842441	0.064522274
252	0xbc4b3eb4	-0.012405086
253	0xbcdbc0bc	-0.026825301
254	0x3d8e7e87	0.06957727
255	0x3d25530b	0.0403624

shared.1.weight f4 [256]
0	0x3f87e246	1.0615928
1	0x3f75e663	0.9605467
2	0x3f76d1cd	0.9641388
3	0x3f6bb8bc	0.9207876
4	0x3f7daf41	0.9909554
5	0x3f81b3d4	1.0133004
6	0x3f81b22f	1.0132502
7	0x3f7bae9a	0.98313296
8	0x3f77744e	0.9666184
9	0x3f75735c	0.9587915
10	0x3f8323eb	1.0245336
11	0x3f856aad	1.042318
12	0x3f7b9a7b	0.98282593
13	0x3f784f48	0.96995974
14	0x3f81c1d4	1.0137277
15	0x3f9d94fb	1.231109
16	0x3f7cae19	0.9870315
17	0x3f7977a9	0.9744821
18	0x3f7959d1	0.97402674
19	0x3f89ddf4	1.077086
20	0x3f802991	1.0012685
21	0x3f9d7fe9	1.230466
22	0x3f755e4e	0.9584702
23	0x3f7a8a8b	0.9786765
24	0x3f7ab4b2	0.9793197
25	0x3f749965	0.9554656
26	0x3f80809e	1.0039251
27	0x3f783be8	0.9696641
28	0x3f794027	0.97363514
29	0x3f815e8b	1.0106977
30	0x3f7b7e32	0.98239434
31	0x3f82024c	1.0156951
32	0x3f7f7317	0.9978499
33	0x3f831955	1.0242106
34	0x3f8c3a8e	1.095537
35	0x3f788935	0.9708436
36	0x3f7b7693	0.98227805
37	0x3f84638d	1.034288
38	0x3f84fb7e	1.0389249
39	0x3f84dc88	1.0379801
40	0x3f719a12	0.9437572
41	0x3f83fd98	1.0311766
42	0x3f7a8681	0.97861487
43	0x3f80fd63	1.0077327
44	0x3f762883	0.96155566
45	0x3f82d284	1.0220494
46	0x3f825efe	1.0185239
47	0x3f807331	1.0035154
48	0x3f6df65f	0.9295406
49	0x3f78339d	0.96953756
50	0x3f781b6d	0.9691685
51	0x3f853ee3	1.0409817
52	0x3f809ff3	1.0048813
53	0x3f817b45	1.0115744
54	0x3f7f5b18	0.99748373
55	0x3f7ac80c	0.979615
56	0x3f79caf9	0.97575337
57	0x3f8311ed	1.0239846
58	0x3f81578c	1.0104842
59	0x3f7f96a6	0.99839246
60	0x3f785512	0.97004807
61	0x3f82d914	1.0222497
62	0x3f6e5740	0.9310188
63	0x3f80bdf4	1.0057969
64	0x3f6fdae4	0.93693376
65	0x3f77fdf5	0.9687188
66	0x3f79431b	0.9736802
67	0x3f8349de	1.0256917
68	0x3f78bf20	0.97166634
69	0x3f800871	1.0002576
70	0x3f7f3a1c	0.9969804
71	0x3f767e7d	0.96286756
72	0x3f73d70d	0.95250016
73	0x3f8437fb	1.0329584
74	0x3f82880a	1.0197766
75	0x3f79f214	0.97635007
76	0x3f815725	1.0104719
77	0x3f765f3e	0.9623908
78	0x3f79f002	0.9763185
79	0x3f7aba3d	0.9794043
80	0x3f866c7d	1.0501858
81	0x3f803de1	1.0018884
82	0x3f7477d6	0.95495355
83	0x3f78ce33	0.97189635
84	0x3f812e8d	1.0092331
85	0x3f73432b	0.95024365
86	0x3f7c96b5	0.9866746
87	0x3f7e4163	0.9931852
88	0x3f7fbd8c	0.998986
89	0x3f7895ca	0.9710356
90	0x3f7d1d24	0.9887259
91	0x3f706b3f	0.93913645
92	0x3faae659	1.3351547
93	0x3f7d1b16	0.98869455
94	0x3f82c5cd	1.0216614
95	0x3fa92aea	1.3216221
96	0x3f7b1c26	0.98089826
97	0x3f8af766	1.085675
98	0x3f83e8e1	1.0305444
99	0x3f78273f	0.96934885
100	0x3f80e27f	1.0069121
101	0x3f80f4b9	1.0074683
102	0x3f79cdbd	0.97579557
103	0x3f83b274	1.0288835
104	0x3f839552	1.0279944
105	0x3f7b5cfe	0.9818877
106	0x3f791839	0.97302586
107	0x3f84f5dd	1.0387532
108	0x3f8197f4	1.0124497
109	0x3f813ee6	1.009732
110	0x3f7e1e07	0.9926457
111	0x3f847cb4	1.0350556
112	0x3f892424	1.0714154
113	0x3f7959da	0.9740273
114	0x3f6efb9f	0.93352693
115	0x3f737abb	0.95109147
116	0x3f81d922	1.0144389
117	0x3f7ac566	0.97957456
118	0x3f7b98f1	0.98280245
119	0x3f7c2c21	0.98504835
120	0x3f78392c	0.9696224
121	0x3f78a27e	0.97122943
122	0x3f780c0a	0.9689337
123	0x3f7b8d78	0.9826274
124	0x3f78f746	0.9725231
125	0x3f8927f7	1.0715321
126	0x3f7b20d6	0.9809698
127	0x3f75bee7	0.9599442
128	0x3f862cc0	1.0482407
129	0x3f7470b5	0.9548448
130	0x3f734a7f	0.95035547
131	0x3f7aa6fc	0.9791105
132	0x3f7d6c41	0.9899331
133	0x3f82a1f9	1.020568
134	0x3f7b8cb0	0.9826155
135	0x3f7c3726	0.9852165
136	0x3f7e37ee	0.9930409
137	0x3f76e6c2	0.9644586
138	0x3f85e6ba	1.0461037
139	0x3fa19fdd	1.2626911
140	0x3f80e298	1.0069151
141	0x3f71f926	0.94520795
142	0x3f81cc4f	1.0140475
143	0x3f778c37	0.96698326
144	0x3f84c975	1.037398
145	0x3f8030f6	1.0014942
146	0x3f79b837	0.97546715
147	0x3f7ce26d	0.98783
148	0x3f80dc9b	1.0067323
149	0x3f80c068	1.0058718
150	0x3f8879c0	1.0662155
151	0x3f8ee8d6	1.1164806
152	0x3f77a095	0.96729404
153	0x3f771db8	0.9652972
154	0x3f7a085d	0.9766901
155	0x3f7fe951	0.9996539
156	0x3f842861	1.0324823
157	0x3f7924bb	0.9732167
158	0x3f7fcfb0	0.9992628
159	0x3f89b98b	1.0759748
160	0x3f808c2c	1.0042777
161	0x3f814b5c	1.0101123
162	0x3f7ea9ad	0.99477655
163	0x3f808c52	1.0042822
164	0x3f7a5936	0.97792375
165	0x3f83ce89	1.0297405
166	0x3f79215d	0.97316533
167	0x3f830680	1.0236359
168	0x3f7526f1	0.95762545
169	0x3f815e60	1.0106926
170	0x3f857b28	1.0428209
171	0x3f7f2d83	0.9967882
172	0x3f7c580a	0.98571837
173	0x3f7a366e	0.97739303
174	0x3f8b2dd9	1.0873367
175	0x3f7f44e6	0.99714506
176	0x3f73c678	0.95224714
177	0x3f6d37c1	0.926632
178	0x3f7bcdcb	0.9836089
179	0x3f877eab	1.0585531
180	0x3f7e80e7	0.9941544
181	0x3f7e15e6	0.99252164
182	0x3f7df6c8	0.99204683
183	0x3f7df0e7	0.9919571
184	0x3f80f01d	1.0073277
185	0x3f7ca326	0.98686445
186	0x3f848817	1.0354031
187	0x3f8afcf7	1.0858449
188	0x3f81110d	1.0083328
189	0x3f7caa0c	0.9869697
190	0x3f808eec	1.0043616
191	0x3f74cdda	0.95626605
192	0x3f7e6e3d	0.9938696
193	0x3f8d88b2	1.1057341
194	0x3f83ee39	1.0307075
195	0x3f7afd5c	0.98042846
196	0x3f7bd829	0.9837671
197	0x3f8002a9	1.0000812
198	0x3f83f220	1.0308266
199	0x3f7d3427	0.98907703
200	0x3f854ed9	1.0414687
201	0x3f74b84a	0.955937
202	0x3f817c89	1.011613
203	0x3f92c03c	1.1464915
204	0x3f7b257d	0.9810408
205	0x3f806b59	1.003276
206	0x3f85be31	1.0448667
207	0x3f8b8881	1.0901033
208	0x3f8394ad	1.0279747
209	0x3f90b9e9	1.1306735
210	0x3f970ab1	1.1800138
211	0x3f842816	1.0324733
212	0x3f784d14	0.9699261
213	0x3f86722e	1.0503595
214	0x3f73300c	0.9499519
215	0x3f8aab45	1.0833517
216	0x3f7378c2	0.95106137
217	0x3f7c6772	0.98595345
218	0x3f759f31	0.9594603
219	0x3f91da4a	1.1394742
220	0x3f7b15c8	0.9808011
221	0x3f7bd5b1	0.9837294
222	0x3f809ba1	1.0047494
223	0x3f7ee7e3	0.9957258
224	0x3f7e5a98	0.99356985
225	0x3f76aee5	0.9636062
226	0x3f80bd29	1.0057727
227	0x3f811424	1.0084271
228	0x3f911a77	1.1336201
229	0x3f8417e9	1.0319797
230	0x3f7d224e	0.9888047
231	0x3f7d202a	0.98877203
232	0x3f826bbd	1.0189129
233	0x3f6d6bf7	0.92742866
234	0x3f757ec1	0.95896536
235	0x3f80c84a	1.0061123
236	0x3f7aff85	0.9804614
237	0x3f770cb8	0.9650378
238	0x3f793358	0.9734397
239	0x3f771acd	0.9652527
240	0x3facdf1c	1.3505588
241	0x3f72418c	0.94631267
242	0x3f7e53fc	0.993469
243	0x3f7b0986	0.98061407
244	0x3f7872bc	0.9705007
245	0x3f7dd3ad	0.99151117
246	0x3f7d5965	0.9896453
247	0x3f708e3d	0.9396704
248	0x3f80d357	1.0064496
249	0x3f7409b9	0.95327336
250	0x3f799047	0.97485775
251	0x3f908268	1.1289797
252	0x3f821891	1.0163747
253	0x3f7a7784	0.97838616
254	0x3f7e7cc7	0.99409145
255	0x3f7b305c	0.98120666

shared.1.bias f4 [256]
0	0xbd0949ec	-0.033517763
1	0xbd01716b	-0.031602304
2	0x3c5032d7	0.012707434
3	0xbd948bdd	-0.07253239
4	0x3b58784b	0.0033030685
5	0xbd4fe2f5	-0.050753552
6	0xbd42e262	-0.047579177
7	0xbbbe2b0f	-0.005803473
8	0xbda10e01	-0.07863999
9	0xbd50d983	-0.050988685
10	0xbc2172d6	-0.009854039
11	0xbd656dda	-0.056012966
12	0xbd0827e3	-0.033241164
13	0xbd290a99	-0.041269872
14	0xbd902904	-0.07039073
15	0xbc04a85f	-0.008096783
16	0xbd93353c	-0.07187888
17	0xbc0fb588	-0.008771308
18	0xbcf3e234	-0.029770948
19	0xbd8e3ee5	-0.0694559
20	0xbcbf3d47	-0.023344649
21	0x3c966118	0.018356845
22	0xbc889689	-0.016673343
23	0xbd0e082a	-0.034675755
24	0xbd0205e1	-0.031743888
25	0xbd7f8e49	-0.062391553
26	0x3bba21e2	0.0056803087
27	0xbd347791	-0.04405934
28	0xbd2fe367	-0.042941477
29	0xbd0fc328	-0.035098225
30	0xbcaf3651	-0.021388205
31	0xbd81fe26	-0.06347303
32	0xbd657116	-0.05601605
33	0xbc038e52	-0.008029537
34	0x3ca81ca1	0.020521464
35	0xbe06331a	-0.13105431
36	0xbd0ba33c	-0.03409122
37	0x3c9510a2	0.018196408
38	0xbc0d2868	-0.008615591
39	0x3bf62083	0.0075112
40	0xbd880808	-0.06642157
41	0xbc89c75a	-0.016818691
42	0xbd6d51d5	-0.05793937
43	0xbccaed46	-0.024771344
44	0xbd083e8e	-0.03326278
45	0xbd7dc66b	-0.061956804
46	0xbcf9c90c	-0.030491374
47	0xbd03b0e6	-0.032151125
48	0xbd80a56d	-0.062815525
49	0xbcb58734	-0.022159196
50	0xbd35d745	-0.04439475
51	0xbc5fad07	-0.013652093
52	0xbcb0173c	-0.021495454
53	0xbdf8fe87	-0.12157922
54	0xbd68314b	-0.056687634
55	0xbd2df803	-0.04247285
56	0xbd3af7f6	-0.04564663
57	0xbd2ab5f5	-0.041677434
58	0xbd412443	-0.047153722
59	0xbcb22d89	-0.021750228
60	0xbd0d4e4e	-0.034498505
61	0xbb4bf940	-0.0031123906
62	0xbdb9615a	-0.090517715
63	0xbd7c3efe	-0.06158351
64	0xbd95f5a2	-0.07322241
65	0xbc979d7e	-0.018507715
66	0xbd5425c8	-0.051793844
67	0xbd8567d4	-0.06513944
68	0xbc1ecf90	-0.009693041
69	0x3bc15bb8	0.0059008263
70	0xbd49043f	-0.049076315
71	0xbce8ca78	-0.028416857
72	0xbcddd71f	-0.027080117
73	0x3a25c129	0.00063230336
74	0xbc3443fe	-0.011002539
75	0xbc6ded5b	-0.014521922
76	0xbd4a7517	-0.04942807
77	0xbdc108be	-0.094254956
78	0xbcb3837a	-0.021913279
79	0xbd2b7d3b	-0.041867476
80	0x3c863e4b	0.016387125
81	0x3b7f7870	0.0038981698
82	0xbd3b13fa	-0.045673348
83	0xbd1a7e6f	-0.037718233
84	0xbdf33e9f	-0.118771784
85	0xbd9388ad	-0.07203803
86	0xbd9e604f	-0.07733213
87	0xbd4eb629	-0.05046669
88	0xbdaf9cb6	-0.08574812
89	0xbcffee5a	-0.031241585
90	0xbcce85df	-0.02521032
91	0xbdb0441e	-0.08606742
92	0xba7f9296	-0.0009749321
93	0xbd73eafb	-0.059550267
94	0xbd623f00	-0.055235863
95	0xbbc93a51	-0.006140985
96	0xbd54584f	-0.05184203
97	0xbe0a26ad	-0.13491316
98	0x3c6e4e79	0.0145450765
99	0xbcc320ce	-0.023819353
100	0xbb427f29	-0.0029677844
101	0xbd3d4070	-0.04620403
102	0xbd0983be	-0.033572905
103	0xbd16776d	-0.036734987
104	0x3c750972	0.014955865
105	0xbccfc680	-0.025363207
106	0xbcb1e2b4	-0.021714546
107	0xbbe96451	-0.0071225544
108	0xbd6d9fd1	-0.05801374
109	0x3bba0f6d	0.0056781084
110	0xbd1df6e4	-0.03856553
111	0xbc317407	-0.010830886
112	0xbd5e69ed	-0.054300237
113	0xbc830cd8	-0.015997335
114	0xbd1ffb0e	-0.039057784
115	0xbd4d6155	-0.05014165
116	0xbd54d44c	-0.051960275
117	0xbc41a4e8	-0.011819102
118	0xbc0293d7	-0.007969818
119	0xbd0d4f4f	-0.034499463
120	0xbd1e5567	-0.038655665
121	0xbd8d112b	-0.0688804
122	0xbc7e8169	-0.0155337835
123	0xbd438007	-0.04772952
124	0xbcd704db	-0.026247432
125	0xbdc39a2a	-0.09550889
126	0xbb6a4df3	-0.0035752028
127	0xbd761e26	-0.060087346
128	0xbd841293	-0.06448855
129	0xbd2bb1ef	-0.041917738
130	0xbd65f383	-0.056140434
131	0xbc36b018	-0.011150382
132	0xbd06a6ec	-0.032874033
133	0xbd90be80	-0.07067585
134	0xbcb6d9b3	-0.022320604
135	0xbb9992d4	-0.0046866927
136	0xbbb3ce11	-0.0054872115
137	0xbd7ac167	-0.0612196
138	0x3c8507b7	0.01623903
139	0xbc38dd61	-0.01128325
140	0xbc65b92d	-0.0140212
141	0xbde63eed	-0.11242471
142	0xbc6940f2	-0.014236676
143	0xbd1887b1	-0.03723878
144	0xbb89e515	-0.004208217
145	0xbc1e3dcb	-0.009658287
146	0xbd28aac0	-0.041178465
147	0xbcb4b3e4	-0.022058435
148	0xbdcaa2bb	-0.098943196
149	0xbd4cf3b4	-0.0500371
150	0xbb3408bd	-0.0027471029
151	0xbd14da5a	-0.03634105
152	0xbc9608b8	-0.018314704
153	0xbcc94e63	-0.02457351
154	0xbd810d6b	-0.063013874
155	0xbb505aa6	-0.0031792312
156	0xbcb9bad6	-0.022672098
157	0xbd27a7ba	-0.04093144
158	0xbc87946c	-0.016550265
159	0xbe151d2d	-0.14561911
160	0xbc30dfe8	-0.010795571
161	0xbc915acd	-0.017743492
162	0xbbee2851	-0.0072679897
163	0xbcaf4031	-0.021392914
164	0xbd16877d	-0.036750305
165	0xbd20fc0b	-0.039302867
166	0xbd5ff0d8	-0.054673046
167	0x3bc46866	0.0059938906
168	0xbd3d423c	-0.046205744
169	0xbbef7d2a	-0.007308622
170	0xbd4ea983	-0.050454628
171	0xbd27804f	-0.04089385
172	0xbcdc0539	-0.02685796
173	0xbcc8e36a	-0.024522502
174	0xbda5a7b8	-0.080886304
175	0xbd700973	-0.05860276
176	0xbd026240	-0.03183198
177	0xbd1856c9	-0.03719214
178	0xbc5ec254	-0.013596136
179	0xbda1a6af	-0.078931205
180	0xbd8e80a4	-0.0695813
181	0xbd132010	-0.03591925
182	0xbd7d32ec	-0.06181614
183	0xbcf7a313	-0.030229127
184	0xbcc48c45	-0.023992667
185	0xbd3592e6	-0.044329546
186	0xbc4e5691	-0.012593881
187	0x3c38c0be	0.011276422
188	0xbc425521	-0.011861117
189	0xbc6abb7d	-0.014326927
190	0x3a16325f	0.0005729552
191	0xbd439453	-0.047748875
192	0xbd43c0e8	-0.04779139
193	0xbdd93103	-0.10605051
194	0xbd07dd42	-0.033169992
195	0xbd7d9ac7	-0.061915185
196	0xbda45d45	-0.08025602
197	0xbd0a9134	-0.033829883
198	0xbd84a5b4	-0.06476918
199	0xbc305d24	-0.010764394
200	0x3c76a2c0	0.015053451
201	0xbced33fd	-0.028955454
202	0xbd4913ca	-0.049091138
203	0xbd83021b	-0.06396886
204	0xbcc705da	-0.024294782
205	0xbcadd97f	-0.021221874
206	0xbd1b9926	-0.03798785
207	0x3c1c5360	0.0095413625
208	0xbd2126c5	-0.039343614
209	0xbce0ea72	-0.027455542
210	0xbe1f9e98	-0.15587842
211	0xbc518693	-0.012788433
212	0xbd159920	-0.036522985
213	0xbd32c915	-0.043648798
214	0xbd81caa3	-0.06337478
215	0xbdb75832	-0.08952369
216	0xbceef928	-0.029171541
217	0xbcb8e2e8	-0.022569135
218	0xbc489424	-0.012242351
219	0x3d0e5cdc	0.034756526
220	0xbd3d6340	-0.04623723
221	0xbc86c9e7	-0.016453696
222	0xbd5e074e	-0.054206185
223	0xbd61e28e	-0.0551477
224	0xbcbfcd52	-0.023413334
225	0xbcb443f2	-0.022005055
226	0xbb005514	-0.001958196
227	0xbc7a3054	-0.015270311
228	0x3bc84cb5	0.00611266
229	0xbba5ab31	-0.005055808
230	0xbc94e264	-0.018174358
231	0xbc8ea7e0	-0.017414033
232	0xb99fc4a4	-0.00030473352
233	0xbd517cb6	-0.051144324
234	0xbd277b2c	-0.04088895
235	0xbdab4582	-0.08362867
236	0xbd4e4133	-0.050355148
237	0xbcb8287e	-0.022480246
238	0xbd63b0bf	-0.05558848
239	0xbd1ea2a5	-0.03872933
240	0x3a372ad0	0.00069872756
241	0xbc3f9f29	-0.011695662
242	0xbcb5d784	-0.022197492
243	0xbd0b5b11	-0.034022395
244	0xbd8321ae	-0.06402908
245	0xbd2194cc	-0.039448544
246	0xbcfeabde	-0.031087812
247	0xbda9963f	-0.0828061
248	0xbd0528e2	-0.032509692
249	0xbd4520c1	-0.04812694
250	0xbd81e3fa	-0.06342311
251	0xbcdead62	-0.027182285
252	0x3bd1f288	0.006407086
253	0xbcb6d3fb	-0.022317877
254	0xbd07b078	-0.033127278
255	0xbd8992df	-0.067174666

shared.3.weight f4 [256, 256]
0	0xbc7071dd	-0.014675585
1	0x3d2da4d5	0.042393524
2	0x3d22fed4	0.039793804
3	0xbcb1fc53	-0.021726763
4	0xbd37307b	-0.04472397
5	0xbd4dfb2b	-0.05028836
6	0x3d822ce4	0.063562185
7	0x3b7f6f70	0.0038976334
8	0x3cfb9b98	0.030713841
9	0x3c5983ec	0.0132760815
10	0xbda3e3b8	-0.08002418
11	0x3c11c0bb	0.008896048
12	0x3d35f7e3	0.044425856
13	0x3d06b24e	0.03288489
14	0x3d2ad2e2	0.04170502
15	0x3cc728b3	0.0243114
16	0x3ad5532b	0.0016275396
17	0x3d652a03	0.05594827
18	0xbd863bfb	-0.06554409
19	0xbcbff3b3	-0.023431635
20	0xba3ffb9b	-0.0007323564
21	0x3da9f84f	0.08299314
22	0xbda9945a	-0.08280249
23	0xbd88f4ac	-0.066872925
24	0x3d762c4d	0.060100842
25	0x3db410dd	0.08792279
26	0xbbe40a76	-0.006959255
27	0x3b02dcf9	0.0019968136
28	0xbb8a7fe5	-0.004226672
29	0x3cbbbefa	0.022918213
30	0xbb0acd2c	-0.002117942
31	0x3d7fddf1	0.06246752
32	0xbc9c8274	-0.019105174
33	0x3d25ece0	0.040509105
34	0x3d21aeeb	0.039473455
35	0xbd407d86	-0.04699471
36	0xbd614832	-0.05500049
37	0x3dc80579	0.09766669
38	0x3cb00197	0.021485133
39	0xbd093a1d	-0.033502687
40	0xbccab8c3	-0.024746304
41	0x3cdb01bf	0.026734231
42	0xbd21dda0	-0.039518
43	0xbd537c36	-0.05163213
44	0x3cc67156	0.024223965
45	0x3d083e31	0.033262435
46	0x3cfef8c2	0.031124476
47	0xbd1ba754	-0.038001373
48	0x3d86fb76	0.06590931
49	0xbd2e160e	-0.0425015
50	0x3d2b5324	0.041827336
51	0xbd78cf03	-0.060744297
52	0xbc41bcc9	-0.011824795
53	0x3c6718fa	0.014105076
54	0x3b4a9ca8	0.0030916128
55	0x3bd53bd5	0.0065073767
56	0xbc34203a	-0.010994012
57	0x3d540a3b	0.05176757
58	0x3c354cdb	0.011065687
59	0x3dad1cba	0.08452745
60	0x3ceff589	0.029291885
61	0xbb46a89d	-0.0030312904
62	0xbb70f03c	-0.0036764285
63	0xbc9d2710	-0.019183666
64	0x3db1a229	0.08673508
65	0xbd79190f	-0.060814913
66	0xbd1cd46e	-0.038288526
67	0x3d0f195b	0.03493629
68	0xbd933f12	-0.07189764
69	0xbd4f9aad	-0.05068462
70	0x3da78302	0.08179285
71	0x3cadfa61	0.021237554
72	0xbd466064	-0.04843177
73	0x3bca5186	0.006174269
74	0x3a6ea25b	0.00091031723
75	0x3d65eb0c	0.05613236
76	0xbc830e98	-0.01599817
77	0xbc516357	-0.012780032
78	0x3c03c887	0.008043415
79	0xbc897951	-0.016781481
80	0x3cc60d7a	0.024176348
81	0x3d18726b	0.037218492
82	0x3da22195	0.079165615
83	0x3cc70552	0.02429453
84	0xbcf46e7d	-0.029837841
85	0xbca4760c	-0.02007582
86	0x3cb9c605	0.02267743
87	0xbd7bc551	-0.061467472
88	0xbcb4d089	-0.022072094
89	0xbc6eca9e	-0.014574675
90	0x3c320459	0.010865294
91	0xbd129023	-0.03578199
92	0xbd2835a1	-0.04106677
93	0xbce0d5ea	-0.027445752
94	0xbc72af97	-0.014812372
95	0x3d20b4f2	0.039235063
96	0xbd44bb08	-0.04802993
97	0x3d39319b	0.045213323
98	0x3d17f1f3	0.037095975
99	0x3cd39895	0.025829593
100	0x3ca8232e	0.020524587
101	0x3cf3a2d6	0.029740732
102	0xbd037df0	-0.032102525
103	0xbd0482ad	-0.032351185
104	0x3ce1853b	0.02752935
105	0x3c704af8	0.014666311
106	0x3d9d31c9	0.076755114
107	0xbc1081c4	-0.008820001
108	0xbc275bdd	-0.010214773
109	0x3d5090df	0.05091941
110	0x3b7bda00	0.0038429499
111	0xbacbb378	-0.0015541157
112	0x3bfc5bfb	0.0077013946
113	0x3a29875e	0.00064670097
114	0xbd005aa6	-0.03133645
115	0x3ceae2b1	0.028672548
116	0x3d43d4c6	0.04781034
117	0xbd340ebd	-0.043959368
118	0x3ccd3e2a	0.025054056
119	0xbc284b67	-0.010271884
120	0x3b3704e3	0.0027926497
121	0x3d7909ed	0.06080048
122	0xbcbb2d9f	-0.022848902
123	0x3d56586f	0.05233043
124	0x3d8324f7	0.06403535
125	0xbd8f958c	-0.07010946
126	0xbcebdcce	-0.028791811
127	0xbd691c71	-0.05691189
128	0x3d56545b	0.05232654
129	0x3c81e0d6	0.01585428
130	0xba34a08a	-0.0006890377
131	0xbc4b0935	-0.012392332
132	0xbd14b4f5	-0.036305387
133	0x3cba2960	0.022724807
134	0x3d263bde	0.040584438
135	0xbc371698	-0.01117482
136	0xbd0a082f	-0.03369921
137	0x3d32632b	0.043551605
138	0x3d971bf7	0.07378381
139	0x3cf5a765	0.029987046
140	0xbc616fc3	-0.013759556
141	0x3d0aad05	0.03385641
142	0x3af3d3b6	0.0018602523
143	0xbd10e99d	-0.03537904
144	0x3cfb07e4	0.030643411
145	0x3bc6cb76	0.006066735
146	0xbd657d0a	-0.05602745
147	0x3ccc40bd	0.024933213
148	0xbd883a76	-0.066517755
149	0xbc172bf5	-0.009226789
150	0x3dcc8137	0.09985583
151	0x3d51b210	0.051195204
152	0x3d422d0a	0.047406234
153	0xbc8ead89	-0.017416732
154	0x3be890a9	0.007097323
155	0x3d3a047d	0.045414437
156	0xbce237b9	-0.027614461
157	0xbcd75637	-0.026286228
158	0xbc6e1990	-0.014532462
159	0xbca2fa66	-0.01989479
160	0x3c9c027c	0.019044153
161	0x3d107b20	0.03527367
162	0xbd0bc6ed	-0.034125257
163	0xbd0f720b	-0.03502087
164	0x3d5eb5e7	0.054372694
165	0xbd20db53	-0.039271664
166	0xbd8c842a	-0.06861146
167	0xbdb740dd	-0.089479186
168	0xbd40a64b	-0.04703359
169	0x3bf84c7b	0.0075774766
170	0xbd94563e	-0.07243012
171	0x3d365239	0.044512007
172	0xbc0c11fd	-0.008549211
173	0xbd825fb9	-0.06365914
174	0x3ccac1e9	0.024750667
175	0xbd3fa7d5	-0.046790916
176	0x3d87ce0e	0.06631099
177	0x3d8f6b6c	0.07002911
178	0xbd6fa407	-0.058506038
179	0xbbc9df16	-0.006160627
180	0xbd8ec3e0	-0.06970954
181	0x3caf91cc	0.021431826
182	0x3c907c1f	0.01763731
183	0xbd5168d8	-0.051125377
184	0xbccb97fe	-0.024852749
185	0xbd35d5ae	-0.044393234
186	0xbcbe99e0	-0.023266733
187	0xbbbc9e65	-0.005756187
188	0xbb5f5a07	-0.003408076
189	0x3d2a0081	0.041504387
190	0xbc49b97e	-0.012312291
191	0x3ce55093	0.027992522
192	0x370757f0	8.067102e-06
193	0x3d76f98d	0.060296584
194	0x3c944a65	0.01810188
195	0x3d0ac88d	0.033882666
196	0x3dc42f44	0.09579328
197	0x3d3762cf	0.044771966
198	0xbd5f5478	-0.054523915
199	0x3d93c329	0.07214958
200	0x3cab6a09	0.020924585
201	0xbd2df9a8	-0.04247442
202	0x3c3e9489	0.011632093
203	0x3cf1dbfd	0.029523844
204	0xbd8f5e4c	-0.070004076
205	0xbd0ec7e9	-0.034858618
206	0xbbce167e	-0.0062893024
207	0x3d955a58	0.07292622
208	0xbdb3d1d0	-0.08780253
209	0x3ca6f16a	0.020378787
210	0x3d326d19	0.043561075
211	0xbd55d910	-0.05220896
212	0xbb913ede	-0.004432543
213	0xbceba0e7	-0.028763248
214	0xbcc7b0ac	-0.024376236
215	0x3d83287b	0.064042054
216	0x3cf3bb55	0.029752413
217	0xbd6e07c1	-0.058112863
218	0xbca69cd1	-0.020338448
219	0x3d7fb0ad	0.06242435
220	0x3cbd8e2f	0.023139087
221	0xbdba536f	-0.09097945
222	0x3d108f09	0.03529266
223	0xbd05897a	-0.03260181
224	0xbcdf5416	-0.027261775
225	0xbd53a69d	-0.051672567
226	0xbd2f134f	-0.042743023
227	0xbd63a924	-0.055581227
228	0x3bf8ee1f	0.0075967456
229	0xbc6db651	-0.0145088
230	0x3d0ffb83	0.03515197
231	0xbcfacb1b	-0.030614426
232	0xbd0aef6c	-0.033919737
233	0x3db4690f	0.08809101
234	0x3d8f81f6	0.0700721
235	0x3da1e5e0	0.07905173
236	0x3c0b94e0	0.008519381
237	0xbd20c952	-0.039254494
238	0xbc9bbf7a	-0.019012202
239	0x3b200d7a	0.0024422095
240	0xbd32af37	-0.04362413
241	0x3d209b51	0.03921062
242	0x3c815c01	0.015790941
243	0xbc585156	-0.013202986
244	0xbc4cb61e	-0.012494592
245	0x3c481fed	0.012214643
246	0xbca4b2d2	-0.0201048
247	0xbdac9615	-0.084270634
248	0xbd745327	-0.059649613
249	0x3d269b2d	0.04067533
250	0xbc8b682f	-0.017017452
251	0xbd9cc0fe	-0.07653998
252	0x3ca8bdf9	0.020598399
253	0xbd799a00	-0.06093788
254	0xbc63b6cd	-0.013898564
255	0xb83035ef	-4.20119e-05

shared.3.bias f4 [256]
0	0xbd451c98	-0.048122972
1	0xbd8dab83	-0.06917479
2	0xbc3b81cf	-0.011444523
3	0x3d65d62e	0.05611246
4	0x3c86f5ed	0.016474688
5	0xbd0a9dfb	-0.03384207
6	0xbd7adc3e	-0.061245196
7	0xbcea3de2	-0.028593961
8	0x3d3a7def	0.045530256
9	0x3d658035	0.05603047
10	0xbcf5a5c7	-0.029986275
11	0x3d60b698	0.054861635
12	0x3cbc625c	0.02299612
13	0xbd4cfb6b	-0.05004446
14	0x3bc15d15	0.005900989
15	0xbc8f0961	-0.017460527
16	0x3ad2c706	0.0016081042
17	0xbd73bd1b	-0.059506517
18	0xbd18ebb4	-0.03733416
19	0x3b75dca2	0.003751554
20	0xbc9a3d86	-0.018828165
21	0x3c703318	0.014660619
22	0xbd1ab319	-0.037768457
23	0x3d86daac	0.06584677
24	0x3ce9549c	0.028482728
25	0x3d6c2c47	0.057659414
26	0xbad42e87	-0.0016188183
27	0x3d1f54e2	0.03889931
28	0x3ce5bc52	0.0280439
29	0xbce21081	-0.02759576
30	0xbd095c77	-0.033535447
31	0x3d3af810	0.045646727
32	0x3ca4a734	0.02009926
33	0x3d4954b8	0.04915306
34	0x3d179b3c	0.037013277
35	0xbd067309	-0.03282455
36	0x3d348919	0.04407606
37	0x3d0f3f97	0.034972753
38	0xbd4b81d3	-0.049684357
39	0xbd58ce2c	-0.052930996
40	0x3cec51f1	0.028847666
41	0x3d0e99b3	0.034814548
42	0xbbd15b3f	-0.006389051
43	0x3ce9b628	0.028529242
44	0xbd3bd121	-0.045853738
45	0xbce4e4d9	-0.027941154
46	0xbcb08129	-0.021545963
47	0xbd04f505	-0.03246023
48	0x3d3e7085	0.046494026
49	0x3d4115f1	0.047140066
50	0x3c99df43	0.018783217
51	0x3d59fdf9	0.053220723
52	0x3d06a365	0.03287067
53	0xbc6c8f3c	-0.014438447
54	0xbcac3d62	-0.021025363
55	0x3ca4133f	0.020028709
56	0xbc8e8854	-0.01739899
57	0x3d850a54	0.064961106
58	0xbd6da673	-0.058020066
59	0x3c3a0d27	0.011355675
60	0xbd45bfbc	-0.048278555
61	0xbd5c3ddb	-0.053769927
62	0xbd81de3d	-0.06341217
63	0xbd36ae61	-0.044599894
64	0x3d16def1	0.036833707
65	0xbb9cf924	-0.004790442
66	0xbd72a7d9	-0.059242103
67	0x3ca55279	0.020180928
68	0x3c056f17	0.008144162
69	0x3d5a0ffa	0.053237893
70	0xbd6503c1	-0.055911783
71	0x3cb2f9e0	0.021847665
72	0xbd12e78e	-0.03586536
73	0xbcaae6db	-0.020862034
74	0xbce1d8f4	-0.027569272
75	0xbc4b0cef	-0.01239322
76	0xbd461d34	-0.048367694
77	0xbd303d0d	-0.043026973
78	0xbcc726d9	-0.024310516
79	0x3c7812fe	0.015141247
80	0xbcd3e008	-0.025863662
81	0x3cdcd744	0.026958115
82	0x3bb9dfd3	0.005672434
83	0xbd2e2026	-0.042511128
84	0xbd207ed1	-0.03918344
85	0x3d6434eb	0.05571453
86	0x3d5d7c77	0.054073777
87	0x387c9e7e	6.022909e-05
88	0xbd0a77a3	-0.0338055
89	0x3bbde532	0.0057951445
90	0xbcd81ad8	-0.026379988
91	0x3d0e3c82	0.034725673
92	0x3d280f65	0.041030306
93	0x3b1e1368	0.0024120454
94	0x3cadd7cd	0.021221066
95	0xbd3afac4	-0.045649305
96	0x3c8a82c7	0.016908063
97	0x3d2b8423	0.041874062
98	0xbc55d74c	-0.013051819
99	0xbc9f4fe0	-0.019447267
100	0xbc5ac991	-0.013353721
101	0xbcaf5421	-0.02140242
102	0x3cf79e49	0.030226843
103	0x3c33e634	0.010980178
104	0xbd38fcf0	-0.045163095
105	0x3d450775	0.048102815
106	0xbccd1cab	-0.025038084
107	0xbb1a5717	-0.0023550445
108	0xbd5b4913	-0.053536486
109	0xbc98dd96	-0.018660348
110	0xbd35fcaf	-0.04443043
111	0x3d1afd8a	0.03783945
112	0x3d23fa60	0.040033698
113	0xbca7ad9f	-0.020468531
114	0xbd9e6d10	-0.07735646
115	0x3d587142	0.052842386
116	0xbcb6bd09	-0.022306936
117	0x3b08fdaf	0.002090316
118	0xbcca6e64	-0.024710841
119	0x3d211dfc	0.039335236
120	0x3d6eb6ef	0.058279928
121	0x3cda505c	0.026649646
122	0xbd44bfd4	-0.048034504
123	0xbd50e3ac	-0.050998375
124	0xbd7c5818	-0.06160745
125	0xbc4b2f03	-0.012401345
126	0xbd2a1ad7	-0.041529503
127	0xbd530247	-0.051515844
128	0x3cf900e4	0.030395932
129	0x3ca934ad	0.020655
130	0xbc0919cc	-0.008367967
131	0x3d6e9fbe	0.05825781
132	0xbd2743ef	-0.04083627
133	0x3bd79c6d	0.0065799267
134	0xbc4e469a	-0.012590075
135	0x3c2af654	0.010434706
136	0xbcaa7562	-0.020807926
137	0x3cf0a259	0.029374288
138	0x3a3d2919	0.0007215902
139	0xbd667d7b	-0.05627201
140	0xbd52e692	-0.05148942
141	0x3d3276b7	0.043570247
142	0xbc454eca	-0.012042711
143	0x3cc649f1	0.02420518
144	0x3d298968	0.041390806
145	0x3d45a267	0.048250582
146	0xbd49a944	-0.04923369
147	0x3d14dd0b	0.036343616
148	0xbd393f1e	-0.04522621
149	0xbbd15b88	-0.006389085
150	0xbb5880bd	-0.0033035718
151	0xbc80823a	-0.015687097
152	0xbc1d45db	-0.009599174
153	0x3d110a55	0.035410244
154	0xbd15aa38	-0.036539286
155	0xbd301ed3	-0.042998146
156	0xbc446319	-0.011986517
157	0x3c1368bb	0.008997138
158	0x3d54dc35	0.05196782
159	0xbc84e984	-0.01622463
160	0x3d63393d	0.05547451
161	0x3ce5438d	0.027986312
162	0xbcd26cd4	-0.025686659
163	0x3c8b3790	0.016994268
164	0xbd7362e8	-0.059420496
165	0x3ced0907	0.028934969
166	0xbd2b1a5a	-0.041773178
167	0x3c7ce5a5	0.015435611
168	0xbcfd9580	-0.030955076
169	0xbd72870b	-0.05921082
170	0xbd07ce56	-0.03315576
171	0x3d0f52f6	0.034991227
172	0xbd225043	-0.039627325
173	0x3ca6f385	0.020379791
174	0x3cb2e998	0.021839902
175	0xbca4d38c	-0.020120405
176	0xbd44ebde	-0.048076503
177	0x3d5e2c2c	0.054241344
178	0xbd66fbf8	-0.05639264
179	0x3d144faf	0.036208805
180	0x3d00bf1a	0.03143225
181	0xbd349479	-0.044086907
182	0xbd6dd79e	-0.058066957
183	0xba853d9a	-0.0010165453
184	0x3cbb29fa	0.022847164
185	0x3c7a2f91	0.01527013
186	0xbd62fc80	-0.055416584
187	0xbaaadcf4	-0.001303582
188	0x3d5ddf32	0.054167934
189	0xbd83b356	-0.0643069
190	0x3d6faa33	0.058511924
191	0x3ca69903	0.020336634
192	0x3d23297e	0.039834492
193	0x3c30f1db	0.01079985
194	0x3d47b5a4	0.04875721
195	0x3d7489d7	0.059701767
196	0x3d7e7050	0.06211883
197	0x3d5b9ce0	0.053616405
198	0xbc672889	-0.014108785
199	0xbccc3fb8	-0.024932727
200	0x3d171cd4	0.036892727
201	0xbd6e4a23	-0.05817617
202	0x3b6a9dae	0.003579955
203	0x3cbad5d4	0.02280704
204	0x3ca57e9f	0.02020198
205	0xb9e24fb0	-0.0004316545
206	0x3c8a4b7c	0.016881697
207	0x3d1d7093	0.038437437
208	0x3be96c7d	0.0071235285
209	0x3d70ee41	0.058820967
210	0xbced2631	-0.028948875
211	0xbd065a84	-0.032801166
212	0xbd30ede7	-0.04319563
213	0x3b2ddbcf	0.0026528721
214	0xbcc523b1	-0.02406487
215	0x3b3950c4	0.00282769
216	0xbd0be875	-0.034157235
217	0xbcf6a00f	-0.030105619
218	0xbca4678a	-0.020068903
219	0xbd4dadd8	-0.05021462
220	0x3d3ffe31	0.046873275
221	0xbccfe543	-0.025377875
222	0x3c0cb6a8	0.0085884705
223	0x3d243fdd	0.040099967
224	0x3ca5baeb	0.020230731
225	0xbd3136db	-0.043265205
226	0xba6b20fe	-0.0008969455
227	0x3bb7fc02	0.0056147585
228	0x3d5826d3	0.0527714
229	0xbd4767f4	-0.04868312
230	0xbd70985e	-0.05873906
231	0xbcdfa441	-0.027300002
232	0xbd159630	-0.036520183
233	0xbcdf527e	-0.027261015
234	0x3d2beaf7	0.041972127
235	0xbd3ce3d6	-0.04611572
236	0x3c305713	0.010762948
237	0xbd0ac06f	-0.033874925
238	0xbcf7f232	-0.030266855
239	0xbcb8adad	-0.022543753
240	0x3d128c7a	0.0357785
241	0x3d6a49d4	0.057199314
242	0x3d791507	0.06081107
243	0xbd2d38ad	-0.04229038
244	0xbd748e3d	-0.05970596
245	0x3c0c60a7	0.008567966
246	0x3d0fefa5	0.035140652
247	0xbcba309b	-0.022728255
248	0xbd530dd3	-0.051526856
249	0x3c71e107	0.014763123
250	0x3d47bbfe	0.048763268
251	0x3d230841	0.039802793
252	0x3d3df56a	0.046376623
253	0xbd57799c	-0.05260621
254	0xbd2e0c10	-0.042491972
255	0xbc8ab721	-0.016933026

shared.4.weight f4 [256]
0	0x3f8e7cce	1.1131837
1	0x3f8946cd	1.0724732
2	0x3faafe7f	1.3358916
3	0x3f92d024	1.146977
4	0x3f8fc163	1.1230892
5	0x3f921531	1.1412717
6	0x3f9ffec4	1.2499623
7	0x3f906618	1.1281157
8	0x3f909f97	1.1298703
9	0x3f927844	1.1442952
10	0x3f9e0450	1.2345066
11	0x3fa34b16	1.275729
12	0x3f9e8707	1.2384957
13	0x3f8d58b9	1.1042701
14	0x3f8eace6	1.1146514
15	0x3f8ce6b6	1.1007907
16	0x3f98810c	1.1914382
17	0x3f8b94c6	1.0904777
18	0x3f9ad7ff	1.2097167
19	0x3f8b66e7	1.0890778
20	0x3fa3424b	1.2754606
21	0x3f97db70	1.1863842
22	0x3f8f2397	1.1182736
23	0x3f99281c	1.1965365
24	0x3f8d4de4	1.1039395
25	0x3f96c743	1.177956
26	0x3f903a49	1.1267787
27	0x3f9f83e0	1.246212
28	0x3f9954b5	1.1978976
29	0x3f9c1d24	1.2196393
30	0x3f90a7eb	1.1301244
31	0x3f9ea8f1	1.2395307
32	0x3f96a9f9	1.1770622
33	0x3f94809e	1.1601751
34	0x3fa6b2d7	1.3023328
35	0x3f928525	1.1446882
36	0x3f974921	1.1819192
37	0x3f96549d	1.1744572
38	0x3f9415df	1.1569175
39	0x3f92e24f	1.1475314
40	0x3f9af768	1.2106752
41	0x3f8cecbd	1.1009747
42	0x3f93aeb0	1.1537685
43	0x3f99603c	1.1982493
44	0x3f8edd5f	1.1161307
45	0x3f9df57d	1.2340542
46	0x3f92a1da	1.1455643
47	0x3f9918f1	1.1960737
48	0x3f958b0a	1.1683056
49	0x3f94734e	1.1597688
50	0x3fa0da0e	1.2566545
51	0x3f99ed0b	1.2025465
52	0x3f92c6a7	1.1466874
53	0x3f8e1f7d	1.110336
54	0x3f939847	1.1530846
55	0x3fa499ad	1.2859398
56	0x3f89186b	1.0710577
57	0x3f8e00e1	1.1094018
58	0x3f955b64	1.1668515
59	0x3f8aea98	1.0852842
60	0x3f9c3200	1.2202759
61	0x3f9f8e75	1.246535
62	0x3f911acd	1.1336304
63	0x3f96f0c7	1.179223
64	0x3f952332	1.1651366
65	0x3f9b16bd	1.2116314
66	0x3f9eaad8	1.2395887
67	0x3f97e640	1.1867142
68	0x3f8a4bca	1.0804379
69	0x3f919e9b	1.1376528
70	0x3f9db2e9	1.2320224
71	0x3f99bc5f	1.2010611
72	0x3fa183f5	1.2618395
73	0x3fa08667	1.2541016
74	0x3f98371f	1.1891822
75	0x3f9dad61	1.2318536
76	0x3f8dfe9e	1.1093328
77	0x3f9c1f2d	1.2197014
78	0x3f9454ef	1.158842
79	0x3f971da6	1.1805923
80	0x3f913c91	1.1346608
81	0x3f956606	1.167176
82	0x3f93d178	1.15483
83	0x3f974bc5	1.1819998
84	0x3f9886a9	1.1916095
85	0x3f91b4b6	1.1383274
86	0x3f95fd02	1.1717837
87	0x3f91ffc0	1.1406174
88	0x3f89ff4b	1.0781034
89	0x3fa89d3b	1.3172983
90	0x3f963b85	1.1736914
91	0x3f978f0f	1.1840533
92	0x3f8d90ad	1.1059777
93	0x3f928e8c	1.1449752
94	0x3f92081c	1.1408725
95	0x3f931dea	1.1493504
96	0x3fa77780	1.3083344
97	0x3f973122	1.1811869
98	0x3f8e6d66	1.1127136
99	0x3f94e156	1.1631267
100	0x3f8fa4e4	1.1222196
101	0x3f94b814	1.1618676
102	0x3f8d9a99	1.1062804
103	0x3f8a771e	1.0817602
104	0x3f99b470	1.200819
105	0x3f893a75	1.0720965
106	0x3f8eb13b	1.1147836
107	0x3f8b91ac	1.090383
108	0x3f9c0f2d	1.2192131
109	0x3fa616ca	1.2975705
110	0x3f9e0ccb	1.2347654
111	0x3f8d7498	1.1051207
112	0x3f8e624d	1.1123749
113	0x3f962bc5	1.1732107
114	0x3fa67455	1.3004252
115	0x3f91d579	1.1393272
116	0x3f911e58	1.1337385
117	0x3f9aa279	1.2080833
118	0x3f9b3858	1.212657
119	0x3f912a03	1.1340946
120	0x3f9955e5	1.1979338
121	0x3f898d79	1.0746299
122	0x3f99c9d5	1.2014719
123	0x3f9b62cc	1.2139525
124	0x3f98cba4	1.1937146
125	0x3f9807dc	1.1877398
126	0x3fa07293	1.2534965
127	0x3fa09f16	1.2548549
128	0x3f986bcd	1.1907898
129	0x3f95094b	1.1643461
130	0x3fa194c2	1.2623522
131	0x3f941cda	1.1571305
132	0x3fbaf7c1	1.4606858
133	0x3f970207	1.1797494
134	0x3f94624c	1.1592498
135	0x3fa2d042	1.2719805
136	0x3f99ef69	1.2026187
137	0x3f8dd1e0	1.1079674
138	0x3f992746	1.196511
139	0x3f91deae	1.1396081
140	0x3f991770	1.1960278
141	0x3f919e9a	1.1376526
142	0x3f8bc5be	1.0919721
143	0x3f92b9dc	1.146297
144	0x3f8f7178	1.1206503
145	0x3faaaf2b	1.3334707
146	0x3fa9bb08	1.3260202
147	0x3fa1076c	1.258039
148	0x3f95e923	1.1711773
149	0x3f949faf	1.1611232
150	0x3f9688d2	1.1760504
151	0x3f9de48d	1.2335373
152	0x3f9494fe	1.1607969
153	0x3f8f1159	1.1177169
154	0x3f9dc5a6	1.2325943
155	0x3f9bfd38	1.2186651
156	0x3f9264e2	1.1437037
157	0x3f921d37	1.1415166
158	0x3f999219	1.199771
159	0x3f929259	1.1450912
160	0x3f9294ae	1.1451623
161	0x3f969375	1.176375
162	0x3fa3ee0c	1.2807021
163	0x3f8c947b	1.0982813
164	0x3f94df43	1.1630634
165	0x3f8e35c5	1.1110159
166	0x3f91a690	1.1378956
167	0x3f9401b6	1.1563022
168	0x3f977a4a	1.1834195
169	0x3f9440f8	1.1582327
170	0x3fa074e7	1.2535676
171	0x3f954c4c	1.1663909
172	0x3f9d2fac	1.2280173
173	0x3f90a52c	1.1300406
174	0x3f9b5b8c	1.2137313
175	0x3fadf71c	1.3591037
176	0x3f8f06d1	1.1173955
177	0x3f8c89e5	1.0979582
178	0x3fa25952	1.2683508
179	0x3f969e9b	1.1767153
180	0x3f8bcc2d	1.0921685
181	0x3f9885c8	1.1915827
182	0x3f922acc	1.141931
183	0x3f93c646	1.1544883
184	0x3f8e2278	1.1104269
185	0x3fa793a0	1.3091927
186	0x3f97bd94	1.185473
187	0x3f99d13f	1.2016982
188	0x3f95fe43	1.171822
189	0x3f94fee0	1.1640282
190	0x3f947a28	1.1599779
191	0x3f8f67cc	1.1203551
192	0x3f8dd2a9	1.1079913
193	0x3f8b3e99	1.0878478
194	0x3f8d328d	1.1031052
195	0x3f98b40d	1.1929947
196	0x3f9c970f	1.22336
197	0x3f8e4a8b	1.1116499
198	0x3f9d55b0	1.2291775
199	0x3f9b2afe	1.2122495
200	0x3fa672aa	1.3003743
201	0x3fa917a4	1.321034
202	0x3f8e795b	1.1130785
203	0x3f9de4ec	1.2335486
204	0x3f9b3aaa	1.2127278
205	0x3faf0d9a	1.3676026
206	0x3f873369	1.0562564
207	0x3fa3bd1d	1.2792088
208	0x3f897a3a	1.0740426
209	0x3f90cb32	1.131201
210	0x3f93b5f0	1.1539898
211	0x3fa42569	1.2823917
212	0x3f92d921	1.1472512
213	0x3fa8fa38	1.3201361
214	0x3f94c52a	1.162267
215	0x3f9585e9	1.1681491
216	0x3fa245cc	1.267755
217	0x3f8de308	1.108491
218	0x3f926d20	1.1439552
219	0x3f9a62fa	1.2061455
220	0x3f8b628e	1.0889452
221	0x3f974170	1.1816845
222	0x3fa1c850	1.2639256
223	0x3f9120b7	1.1338109
224	0x3f933a99	1.1502258
225	0x3f97f0d7	1.1870373
226	0x3f904eaa	1.1274006
227	0x3f8e9aa5	1.1140944
228	0x3f8f993f	1.1218642
229	0x3fa23074	1.2671037
230	0x3f91bfc2	1.1386645
231	0x3f8e46bf	1.111534
232	0x3f8c1830	1.0944881
233	0x3fa44f0e	1.2836626
234	0x3f91cb97	1.1390256
235	0x3f8f4f22	1.1196024
236	0x3f9d41ac	1.2285666
237	0x3fa191ba	1.2622597
238	0x3f9ed0b4	1.2407441
239	0x3f96833b	1.1758798
240	0x3f886388	1.0655375
241	0x3fa18832	1.2619689
242	0x3f91a856	1.1379497
243	0x3f9456c3	1.1588978
244	0x3f89e1a4	1.0771985
245	0x3f95ee9d	1.1713444
246	0x3f9e5643	1.2370075
247	0x3f9b40cc	1.212915
248	0x3fa41665	1.2819334
249	0x3f9a392a	1.2048695
250	0x3fa1f804	1.2653813
251	0x3f921267	1.1411866
252	0x3f9638a7	1.1736039
253	0x3fa13bad	1.2596337
254	0x3f8ff6cf	1.1247195
255	0x3f9a8d8a	1.2074444
